ATLA_robust_RL/src/models/atla_release/ATLA-PPO/attack-atla-ppo-cartpole-eps0.15-no-norm.model (torch, 253377 bytes, 69 tensors)

affine_layers.0.weight f4 [64, 4]
000000 1a 97 13 3f ff 5f 72 bc 73 d7 90 3e ba 4c 4b 3e
       0.5765244 -0.014793395 0.28289375 0.19853488
000010 d1 f9 f9 3e 55 2f dc bc 9d 3e de 3e fb cb 1e 3d
       0.48823407 -0.026878038 0.43407145 0.03876875
000020 ad e1 11 bf 64 06 25 be 81 29 4c be fa 1b 4e 3e
       -0.5698498 -0.16115719 -0.19937707 0.2012786
000030 dd 57 1f bf da 55 7c bd 5c 27 2b bf f3 b1 89 be
       -0.62243444 -0.061605312 -0.6685693 -0.26893577
000040 f7 52 56 bd c7 2e 67 3e 99 64 c5 be bc fd f7 3d
       -0.052325215 0.22576438 -0.38553312 0.12108943
000050 e7 6b c6 3e a1 54 12 3e e4 e5 09 3f f7 b6 19 3f
       0.38754198 0.14290096 0.5386641 0.6004481
000060 d1 54 10 bf bd 37 75 bd f7 09 b7 be f8 c4 45 be
       -0.5637942 -0.05986761 -0.3574979 -0.19313419
000070 6b ca 43 be 7c e1 90 be 23 23 a3 3e 58 5f 7a be
       -0.19120185 -0.2829703 0.31862745 -0.24450433
000080 49 6e e7 3e 17 10 4c 3e cb e8 f0 3e 09 4e 16 3e
       0.45201328 0.19928013 0.47052607 0.14678206
000090 6d 7a 06 bf 0d 3a 4c be b9 61 a7 be 26 64 60 3e
       -0.52530557 -0.1994402 -0.32691744 0.21913204
0000a0 cf 82 14 bf c1 a6 0a 3e e0 0c 49 be 50 5b 12 be
       -0.580121 0.13540174 -0.19633818 -0.14292645
0000b0 de f4 ad be e0 ba 4d be a8 26 aa be ea 72 64 bd
       -0.3397588 -0.20090818 -0.33232617 -0.055773653
0000c0 78 18 49 3f 2f 97 d8 3d 2f 7c 1b 3f 63 ac 74 3e
       0.7855296 0.10575711 0.60736364 0.23893885
0000d0 cb aa 06 bf a2 a1 95 3d dd 4a 35 bf 1b 27 7c be
       -0.5260436 0.0730622 -0.7081736 -0.24624293
0000e0 77 31 9e 3e 2e 84 8a 3e df 18 64 3e 7f f0 a4 3e
       0.30897114 0.2705397 0.22275113 0.32214734
0000f0 3a ce ed be c7 62 a9 bd ce e0 1e bf 9d 14 e0 be
       -0.464464 -0.082707934 -0.62061775 -0.43765727
000100 f8 b0 cb 3d 1c 5f 33 3f a3 5f 17 bf 10 42 5e bd
       0.099458635 0.70067 -0.59130305 -0.05426222
000110 fe 3f 8f be 94 0a 2b be 50 40 99 3d 78 83 04 3e
       -0.2797851 -0.16703254 0.0748297 0.12940776
000120 ff 8f 1a be b7 a0 19 be b9 7b ea be c8 04 c6 bd
       -0.15093993 -0.15002714 -0.45797518 -0.09668881
000130 1f 1d d8 be c4 9e 63 3e 2f 61 1b bf 98 f2 2d 3e
       -0.42209718 0.22228533 -0.60695165 0.16987073
000140 e7 7f f5 3e aa c3 93 3d f9 ac 02 3f 79 c1 6b 3d
       0.47949144 0.07215054 0.51045185 0.057557557
000150 20 14 3f 3f 28 24 b9 3e 6a 18 13 3e 4c 35 bc 3e
       0.74640083 0.36160398 0.14364782 0.36759412
000160 44 f5 0f 3f 62 c5 c1 3d e6 3f 23 3f 53 41 11 3c
       0.5623362 0.09461476 0.63769376 0.008865672
000170 6e b2 d8 be 00 10 07 be 1b 44 36 bf 5a e2 88 be
       -0.4232363 -0.13189697 -0.7119767 -0.26735193
000180 98 4f e5 be 51 97 ba bd ab 59 27 bf 30 94 9a 3c
       -0.44787288 -0.091108926 -0.653712 0.01886949
000190 21 78 d2 3e 18 f3 8f 3e e0 58 38 3d b8 ae 33 bc
       0.41107276 0.28115153 0.045006633 -0.010966949
0001a0 72 be a7 be ec 5e 95 3e 31 18 55 3e db 0c c4 bd
       -0.32762486 0.29173982 0.2081001 -0.095727645
0001b0 86 5c f6 be 8b 8d 20 3d 3c 68 fb 3c fc df 57 3e
       -0.48117465 0.039197486 0.030689351 0.21081537
0001c0 e6 a0 07 bf e5 12 89 bd d3 1e 15 bf 39 f6 44 be
       -0.52979887 -0.06693057 -0.5825016 -0.19234551
0001d0 26 36 00 bf 57 b7 f1 3d cd 31 01 be 7d 4c a2 3e
       -0.50082624 0.118025474 -0.12616654 0.3169898
0001e0 5c 74 9a be 3c 03 f4 bd 63 c5 72 bf 2e 69 b8 be
       -0.301669 -0.119146794 -0.9483244 -0.36017746
0001f0 81 98 9b 3e 60 87 01 bd 7a f1 94 3e 63 b0 99 3d
       0.3038979 -0.031623244 0.29090482 0.07504346
000200 86 7b f7 3e a8 c0 26 be 27 3d dc 3e 5a 7f 2a 3d
       0.48336428 -0.1628443 0.43015406 0.04162536
000210 a3 ed 86 be f0 e1 be be 84 b5 2e be bc 20 55 be
       -0.26353177 -0.37281752 -0.1706143 -0.20813268
000220 43 be 06 bf 9b 80 a3 be 3c ca 9d 3e 00 aa ed 3d
       -0.52634066 -0.31934056 0.30818355 0.116046906
000230 3d ec a7 be 50 76 48 be d7 4d f4 be 24 12 fb bd
       -0.32797423 -0.19576383 -0.47715637 -0.122593194
000240 1a 24 33 be db 5f 21 be 1b 17 96 be 44 c8 51 3e
       -0.1749424 -0.15759222 -0.29314503 0.20486552
000250 fd c0 8c 3e b8 9f e2 bb b7 d4 68 3e 9d 1c 88 3e
       0.27490988 -0.0069160126 0.22737394 0.2658433
000260 bf 9e a8 3d 81 16 b5 3b 2a 93 f0 be 9e a9 9f be
       0.082334034 0.0055263643 -0.46987277 -0.31184095
000270 25 20 c3 3d 7e 71 dc 3e 95 f6 86 3c 05 e3 a8 3e
       0.095276155 0.43055338 0.016475001 0.32985702
000280 00 cb 13 3f 7e ee 04 3e a6 29 66 3e 0c 05 3d bc
       0.5773163 0.12981603 0.22476825 -0.011536848
000290 78 c0 61 3f 3d a0 68 3d 80 94 39 3f 6c db 6f 3e
       0.8818431 0.05679344 0.7249222 0.23423547
0002a0 73 4a 35 3f fc c9 83 3d c2 6d 10 3e 6e 89 e1 bb
       0.70816725 0.0643501 0.1410437 -0.006882838
0002b0 7a 28 8d 3e c3 44 5d be e7 32 b0 be 98 85 ad be
       0.27569944 -0.21608262 -0.34413835 -0.33890986
0002c0 c7 b9 38 be ff f5 ca be be 9a 56 3e 34 9d 19 be
       -0.18039618 -0.39640805 0.20957467 -0.15001374
0002d0 47 ac 9f 3e b3 47 c0 bd 07 cd 02 3e a6 c0 98 be
       0.31186125 -0.093886755 0.12773524 -0.2983448
0002e0 9c 67 8a be d4 e9 22 be 9c b3 7d be 6b e0 2d be
       -0.27032173 -0.15909511 -0.24775547 -0.1698014
0002f0 97 cd 3b bf 3a 38 1c 3e 98 1e d6 be e2 cf 03 3d
       -0.7336058 0.15255824 -0.41820216 0.032180674
000300 0e 13 e4 be 78 67 0f be bc a3 17 be 2d b1 0a bf
       -0.44545788 -0.14004314 -0.14808553 -0.541766
000310 8c d5 57 3f df f5 00 3d 30 ce 37 be f6 f4 51 3d
       0.8431022 0.03148448 -0.17949748 0.051259004
000320 7e 5a f1 3e 37 a3 98 3c e0 4d ec 3e 91 58 e2 3c
       0.47139353 0.018632514 0.46153164 0.027630122
000330 31 1f 80 bd 78 bc a5 bd 71 1c 12 bf 88 09 07 be
       -0.06255949 -0.08092588 -0.5707465 -0.1318723
000340 3f 21 a4 be ed 10 fe be 9a 16 8e be 5d 6c b2 be
       -0.32056615 -0.49622288 -0.2775162 -0.348483
000350 04 97 14 bf 8a ab ad bc ed 36 ca be 51 61 7c bc
       -0.5804293 -0.02119996 -0.3949503 -0.015404061
000360 cb 69 dd bc de cc da 3c 99 00 2c be 89 b3 d5 3d
       -0.027027985 0.026709016 -0.16797103 0.10434634
000370 09 4b e1 be fa 13 2d 3e 8e 9c 69 be dc 61 88 3c
       -0.4400256 0.16902152 -0.22813627 0.016648225
000380 97 92 73 3e 8d a9 a1 3e 9b ab 28 3f 53 3b d6 3d
       0.23786388 0.3157467 0.6588685 0.10460534
000390 cf 89 fe 3e 50 b1 00 bf f3 5a 1d 3f 6e ff 24 3e
       0.49714515 -0.5027056 0.614669 0.16113064
0003a0 00 4c 9a be e6 47 c8 be 71 f9 ec bd 88 f7 2f be
       -0.30136108 -0.39117354 -0.11571015 -0.1718427
0003b0 4b 97 0f 3f f0 9c fc 3d 2b 5e a7 3e 01 86 46 3e
       0.5609023 0.12334621 0.32689032 0.19387056
0003c0 10 45 a8 be 1a de 08 be 99 6e fb be 64 d2 f8 bd
       -0.3286519 -0.13365975 -0.49107817 -0.12149504
0003d0 91 be bb 3e 9e a6 fd 3e 01 51 a7 3d 9f 1f f0 3d
       0.36668828 0.4954118 0.08169747 0.11724781
0003e0 10 1e ee bd ef df 00 3f b9 fc 52 bf 73 13 e1 3d
       -0.11626828 0.50341696 -0.82416874 0.10990038
0003f0 7c d5 1b be 5f 81 79 bf 7a c9 72 3e 5c 22 c6 3e
       -0.15218157 -0.9746303 0.2370967 0.3869809

affine_layers.0.bias f4 [64]
000000 7c d6 6d be 88 2c ae be f2 64 86 be 6c c4 ce 3e
       -0.2322635 -0.3401835 -0.2624889 0.40384233
000010 43 9a a3 3e 5a 48 61 3e db 52 0d be e5 89 14 3f
       0.3195363 0.22000256 -0.13801138 0.5802291
000020 16 2f b5 be 5d 5f ce be 55 41 ae 3e ef ef 74 3e
       -0.35387486 -0.4030713 0.3403422 0.23919652
000030 26 88 16 be 25 b4 4a 3e ed 04 0e bf 06 11 4f be
       -0.14700374 0.19795282 -0.55476266 -0.20221338
000040 85 87 08 bf 7c 3e 1f be 86 17 31 3f 6e 48 da 3d
       -0.53331786 -0.1555118 0.6917652 0.10658346
000050 dd bd 6d 3e 59 ee 87 3e c9 b2 a7 be d4 0e a3 be
       0.23216958 0.26549032 -0.3275359 -0.3184725
000060 c4 e6 83 be 96 40 4f bd 10 3f 8a be a7 ae e6 3d
       -0.25761998 -0.050598703 -0.27001238 0.11263781
000070 37 87 cc 3e ac f9 b6 be 73 ba 8c be 32 e9 d4 be
       0.3994691 -0.3573736 -0.27486 -0.41584164
000080 22 3d 8d bd ef 75 94 be 33 d1 c1 3d 28 c4 28 be
       -0.06896426 -0.28996226 0.0946373 -0.16481078
000090 55 71 03 bf 3e ff 85 3e 10 e0 11 bf 91 2a e0 be
       -0.51344806 0.26171297 -0.5698252 -0.43782476
0000a0 bf 49 a5 3e f4 72 71 3e 98 d3 87 3e 73 27 8b be
       0.32282826 0.23579007 0.2652862 -0.27178535
0000b0 f0 f4 b7 3e 21 2c bc 3e 1b 0c 04 3f 4a cf e1 3e
       0.3592906 0.36752418 0.5158097 0.44103462
0000c0 02 0c 9d be 48 a7 9e 3e e1 53 6a be 1a 84 fa be
       -0.30673224 0.30987 -0.2288356 -0.4892891
0000d0 1a 0a dd be cf a1 8c be d6 a7 c9 be 6b 2d 02 3e
       -0.4317177 -0.274672 -0.3938586 0.12712638
0000e0 f7 02 c0 3e c0 bb 3a bd 2d 28 75 be 53 2b 87 3e
       0.37502262 -0.04558921 -0.23941107 0.2640024
0000f0 9e 45 00 3f b4 38 2c 3d b5 b3 d1 3e c4 ef 39 be
       0.5010623 0.042046264 0.40957418 -0.1815787

affine_layers.1.weight f4 [64, 64]
000000 a3 0f 3c 3f 7d bc 06 3f ba 8a 39 be bb ae 47 bf
       0.7346136 0.5263136 -0.18119326 -0.7800099
000010 2e 1f 11 3f 15 b0 88 3e b2 8f 02 bd 77 4d d2 bd
       0.566882 0.2669684 -0.03187532 -0.102686815
000020 6e bb 51 3f 98 7d 36 3d 4e c0 11 bf 75 e4 f3 be
       0.8192662 0.04455337 -0.5693406 -0.47635236
000030 e2 b1 cd 3e 32 09 fa be 8a 20 d2 3e 17 8f 4b bf
       0.40174776 -0.4883514 0.4104045 -0.7951521
000040 d2 bb 27 bd d9 e6 d3 bd 69 49 c0 bd 43 72 28 3e
       -0.040950604 -0.10346765 -0.09389002 0.16449837
000050 d1 d1 0d 3e e3 77 97 3e e7 72 62 bc 49 05 5d be
       0.1384957 0.29583654 -0.01382134 -0.21584047
000060 52 85 cd be 66 c5 78 3e 93 c7 1e bd 34 03 2c bf
       -0.40140778 0.24294052 -0.038764548 -0.6719239
000070 33 a9 b5 be 4a d9 c4 be 5b cb 9e bd ea bb 00 3d
       -0.3548065 -0.38447028 -0.07753631 0.03142921
000080 1c 12 45 3f 58 a3 9f be 0a d1 63 be 34 8f cb bd
       0.7698076 -0.3117931 -0.22247711 -0.09939423
000090 b1 e7 66 be 36 a3 f4 3e 8e db df be 01 74 ad 3e
       -0.22549321 0.4778077 -0.43722194 0.33877566
0000a0 07 a3 37 3d 18 96 be bd 9b 81 a3 3e 51 f5 59 bd
       0.04483321 -0.09305972 0.3193482 -0.053212468
0000b0 00 26 2e 3e 1e 25 88 3d 52 3b 4a be 0e cb fa be
       0.17006683 0.066477045 -0.19749191 -0.48983043
0000c0 d6 59 59 be ba 50 9e 3e 4c be 59 3f c8 92 96 be
       -0.21225676 0.30920964 0.85055995 -0.2940886
0000d0 14 2e 9b be 0b ed 87 bd b7 59 1c bd e2 22 5d bf
       -0.30308592 -0.06637009 -0.038171496 -0.8638135
0000e0 54 3a 70 3e 7d 87 95 3e cb 53 f4 bd 8f ee 43 3e
       0.2345975 0.29204932 -0.11930045 0.19133972
0000f0 bb 63 6c be df e8 b4 3e 5b ab d4 3e 6b 8c 09 3e
       -0.23084919 0.35333917 0.41536984 0.13432471
000100 46 7a 67 3e a6 63 b6 be 17 60 03 3f a9 c5 93 bd
       0.22605237 -0.356229 0.51318496 -0.07215435
000110 8c 21 56 3e ee 84 f7 be 0e 82 5d 3f 17 ba f2 3a
       0.20911235 -0.48343605 0.8652657 0.0018518594
000120 8a b8 07 bf 32 9f 6d 3e dc 73 af 3d b5 f9 7f 3e
       -0.5301596 0.2320526 0.0856702 0.249976
000130 95 ea 89 bd 9f 93 6b 3e ea c7 95 be 30 ea 16 3f
       -0.06734196 0.23005532 -0.29254085 0.5895109
000140 43 fc 36 3d 8c 71 22 bc 04 8c 00 3f bb be b1 3e
       0.04467417 -0.009914767 0.50213647 0.34715828
000150 c8 95 d0 be 9d d1 05 bf d5 3e 9f bc 31 fc e9 3e
       -0.40739274 -0.5227297 -0.01943914 0.4570022
000160 51 69 e4 3d 1a 16 75 3e c1 c6 9c 3d 79 96 86 be
       0.111529 0.23934212 0.07655097 -0.26286677
000170 db c7 3c 3e 3c e5 09 3d ed 32 61 3d 0a d5 fc bd
       0.18435614 0.03366588 0.054980207 -0.123453215
000180 7f 1c 1e 3d d7 b5 74 bd 3e 50 5c 3c 4b 94 26 3e
       0.038601395 -0.05974373 0.013446866 0.16267507
000190 a8 bd d2 bd ab e2 cc bd 1e 52 80 be ab 0f 81 bd
       -0.1029008 -0.10004171 -0.2506265 -0.063018166
0001a0 f9 99 3a bf 51 3a 11 bf bf 77 f9 be 4a 99 95 3e
       -0.72891194 -0.5672961 -0.48724172 0.29218513
0001b0 32 7c 8a 3d 18 6a 74 bd 64 8d 08 3f 7f 92 9a 3e
       0.067619696 -0.05967149 0.53340745 0.30189893
0001c0 eb 5e 27 3e 46 e6 96 be 2b 74 2d bd c0 71 3a 3c
       0.16344802 -0.2947256 -0.042347115 0.011379659
0001d0 cc 47 d3 bc ab a6 31 3f 6d ff 04 3e 3b b0 97 be
       -0.025791071 0.6939494 0.12988062 -0.2962664
0001e0 cb d0 8e be 58 36 16 3c 50 28 7a 3e b2 49 27 bf
       -0.2789367 0.00916823 0.2442944 -0.65346825
0001f0 22 51 22 3d c7 e2 e4 be e6 48 7e be b3 14 a6 bd
       0.039628156 -0.44704267 -0.24832496 -0.08109417
000200 2f 1f 3a be dc e8 60 be c9 f1 d9 3e 6b 6e e0 3e
       -0.18175958 -0.21963829 0.4256728 0.43834242
000210 20 52 ae bc 08 f3 cf be 4d f9 24 3f c9 56 fb bb
       -0.021279395 -0.40615106 0.644429 -0.0076702577
000220 bd dc 36 be b9 c7 aa 3e b9 ab b2 3d c1 12 09 3e
       -0.17857642 0.333555 0.0872416 0.1338606
000230 c5 f2 e0 be 3f be 86 3e fa fb b7 be ad 5a 37 3f
       -0.43935218 0.2631702 -0.3593443 0.71622735
000240 19 c6 a2 3d 38 2e 6a bd 68 30 80 3e 0c b3 5a 3e
       0.079479404 -0.057172984 0.2503693 0.21357363
000250 2d 15 39 bf 4a 1e 48 bf 88 10 cb bd fd 2f 42 3e
       -0.72297937 -0.7817122 -0.099152625 0.18963619
000260 c1 ef 86 3e 19 d8 67 bd c1 3c d6 3e 8c eb a2 be
       0.26354793 -0.05660257 0.41843227 -0.31820333
000270 60 f1 a4 3e fd 91 93 3e bd 97 af 3e 3e 61 30 be
       0.32215405 0.28822318 0.34295455 -0.17224595
000280 e9 8c 59 be a1 83 fc bd e5 7d c8 3c ab 53 18 3e
       -0.21245159 -0.12329794 0.024474094 0.14875667
000290 a2 b3 78 bc 64 0d 1e be 18 70 b9 3d bc c5 ba 3e
       -0.015179547 -0.15434796 0.09054583 0.36478984
0002a0 d0 b5 dc be 00 ab 86 bf 12 a8 18 bf d0 a4 35 3e
       -0.43107462 -1.0520935 -0.59631455 0.17738652
0002b0 52 b1 6f be a1 d5 2a bf 66 30 80 3e 90 c2 36 3e
       -0.23407486 -0.6673222 0.25036925 0.17847657
0002c0 eb dd b1 3d 28 07 5e be 33 3d 3e be f6 88 a3 3e
       0.086849056 -0.21682417 -0.18578033 0.3194043
0002d0 f3 53 98 3e fb 09 40 3f e3 b4 66 3c 62 4f 0a 3e
       0.29751548 0.7501523 0.014081213 0.13506845
0002e0 73 83 a9 be a3 70 9b be c7 e3 b9 3e 75 0d 1f bf
       -0.331081 -0.30359372 0.36306593 -0.6212991
0002f0 e5 de ae 3e a4 ee 77 bd 09 b2 c4 3e 0d bb 36 3e
       0.3415443 -0.06053032 0.3841708 0.17844792
000300 7a a6 4c 3f 35 8e 09 3f c3 f3 19 3e f4 ad 1b bf
       0.79941523 0.53732616 0.15034394 -0.60812306
000310 a1 89 01 bf 4a 3b 82 be ed 5e ee bd 0e 0a 22 bf
       -0.5060063 -0.2543586 -0.116391994 -0.6329659
000320 02 22 36 3f 85 79 f2 3d e8 62 41 bf 32 78 d7 be
       0.7114564 0.11839584 -0.75541544 -0.4208389
000330 2a 94 16 3e 29 0c 27 bf 4c 6c 15 3f 2f 4b 65 3e
       0.14704958 -0.6525293 0.5836837 0.22391962
000340 21 a2 ff bd 0d b2 a4 bc 54 3f 54 bf da 5b 27 bf
       -0.124820955 -0.020104432 -0.8290913 -0.6537453
000350 ef a8 bd 3d 48 7a 94 3e 08 71 08 3f 7c 4d 54 3e
       0.09260737 0.28999543 0.5329747 0.20732683
000360 64 2c 7a 3d fe 30 00 3f a2 2e f0 3d 61 86 2e bf
       0.06107749 0.50074756 0.117276445 -0.68173796
000370 34 83 07 bf f9 69 c4 3d 8a e7 2c 3e f8 a9 9c 3e
       -0.52934575 0.09590525 0.168852 0.30598426
000380 d5 41 9b 3e 12 5b a5 3e 15 16 3d be c9 bc 8f 3e
       0.30323663 0.32296044 -0.18465455 0.2807372
000390 11 fe 87 3e f0 a5 b5 bd 38 c3 90 3e 58 06 df 3e
       0.26561025 -0.08869541 0.2827394 0.43559527
0003a0 64 d8 10 be 61 4c 9d be 21 63 00 be 45 6a 0c 3f
       -0.14145046 -0.30722335 -0.12537815 0.54849654
0003b0 dc 9b b7 be 79 07 2e be 2e 83 2b bf 57 08 77 bf
       -0.358611 -0.16995038 -0.6699704 -0.964971
0003c0 e8 95 f0 3e 44 99 b2 be 13 d8 75 3e 2d a2 95 3e
       0.4698937 -0.34882557 0.24008207 0.29225293
0003d0 7b 43 13 3e e0 98 94 3e d8 a4 0b 3f f2 db 0a bf
       0.1438121 0.29022884 0.54548407 -0.5424186
0003e0 28 5b ae bb 23 87 b8 3e 7d 50 06 3e 8f e6 a3 bc
       -0.0053209253 0.360406 0.13116641 -0.0200074
0003f0 93 6e a2 be 53 d3 56 be 13 72 15 bf 86 fe e8 3e
       -0.31724986 -0.20979051 -0.5837719 0.45506686

affine_layers.1.bias f4 [64]
000000 a2 43 54 3e 3e 38 0f 3e 4e 09 95 3c 88 35 5b be
       0.20728925 0.13986298 0.018192913 -0.2140714
000010 fa e9 f0 3b 07 81 98 3d 2f 91 1a be f6 3b 4e be
       0.007352111 0.07446485 -0.15094446 -0.20140061
000020 aa f1 46 be 17 3c 0e be 6e a0 ad 3b d0 ba af 3b
       -0.19428125 -0.1389011 0.0052986657 0.005362846
000030 b6 3e 65 be 89 c7 17 be 06 c3 d8 3d 88 a0 08 be
       -0.22387204 -0.1482221 0.10584073 -0.13342488
000040 85 71 6a be 45 01 96 bd 51 35 50 3e 71 7e 99 be
       -0.22894867 -0.07324461 0.20332839 -0.2997928
000050 2f f7 d7 bd 28 69 fe 3d 16 08 c7 bd ae ee ba bd
       -0.105451934 0.12422401 -0.09718339 -0.09127556
000060 48 85 45 be 4f ef 81 bd ff 51 51 3e 6f c2 6a be
       -0.19289124 -0.063444726 0.20441435 -0.22925733
000070 67 96 8a bd d0 18 37 3e 90 2a 0d 3e d8 fa d4 3d
       -0.06766968 0.17880559 0.13785768 0.10399407
000080 10 8e 27 be da 0e 2f be 26 31 01 be d9 22 fc 3d
       -0.16362786 -0.17095509 -0.12616405 0.12311334
000090 73 52 1d 3c 04 40 40 be 99 cb 3c bc 8a ba 32 bd
       0.009602177 -0.1877442 -0.011523151 -0.04363493
0000a0 80 7e 9c bd 34 b5 c4 3d b3 55 8f bd 0e 21 45 3e
       -0.076413155 0.09604874 -0.06998768 0.1925089
0000b0 c2 0f 32 bd 0a 4f 1e 3e 89 49 0e be e2 ca d2 bc
       -0.04347206 0.15459839 -0.13895239 -0.025731508
0000c0 6b a6 e3 bd 82 0f 2d be 0e 81 78 3e 95 12 08 be
       -0.11115726 -0.16900447 0.2426798 -0.13288338
0000d0 d1 1e 0d 3d ce fc 1a 3e 1d ab 21 3e 87 6b 48 bd
       0.034453217 0.151355 0.15787931 -0.04893067
0000e0 ab 1f 0c 3e 5c 3b 2a be 8f 24 ca 3d 80 62 f1 bc
       0.13683955 -0.16624206 0.09870254 -0.029465914
0000f0 d3 ff 10 3e a9 be 12 be 00 b2 29 3e 97 17 11 bd
       0.14160089 -0.14330544 0.16571808 -0.035422888

final.weight f4 [1, 64]
000000 71 53 d7 bf 50 d4 98 bf 3a 6c 96 bf a2 93 f9 bf
       -1.6822339 -1.1939793 -1.1751778 -1.9498179
000010 23 57 f3 bf 88 bf 95 bf 28 22 bf 3f c5 01 a2 3f
       -1.9010967 -1.1699076 1.4932299 1.265679
000020 48 17 02 c0 0b 3c c6 bf c5 68 02 c0 36 47 d7 bf
       -2.032671 -1.5487074 -2.0376446 -1.6818607
000030 6f 66 e1 3f 4b b3 f3 3f 10 7d d5 3f 82 c8 f4 bf
       1.7609385 1.9039091 1.6678791 -1.912369
000040 bc 73 d4 3f 43 cc e0 3f 51 62 f8 3f 53 b4 f4 3f
       1.6597819 1.7562336 1.9405004 1.911753
000050 94 c0 8d 3f de 24 fe 3f 21 8b 0d 40 64 c9 d6 bf
       1.1074395 1.9855001 2.2116168 -1.678021
000060 58 aa e7 3f 3f c8 f4 bf 98 e8 01 40 b9 50 c9 3f
       1.809886 -1.912361 2.0298214 1.572776
000070 28 1d de 3f 5a 8f f2 3f 49 78 af bf 07 7f a0 bf
       1.7352648 1.8949997 -1.3708583 -1.2538766
000080 f6 8b 8f 3f 54 0b fa bf 8b 78 96 3f f0 a9 9a bf
       1.1214588 -1.9534707 1.1755537 -1.2083111
000090 77 48 c5 3f a2 bb fb bf 19 4f dd 3f e2 2a e9 bf
       1.541274 -1.9666636 1.7289764 -1.8216212
0000a0 c6 b4 8b 3f 2b 25 0a 40 6f 5b 94 3f 93 5b d9 bf
       1.0914543 2.1585186 1.1590403 -1.6981071
0000b0 1f 55 d1 3f 6f 5f eb 3f 39 61 08 c0 95 41 07 40
       1.6354102 1.8388499 -2.130934 2.1133778
0000c0 05 9c b3 3f 65 b3 ed bf 0b a2 01 40 ed 9b 04 c0
       1.4031988 -1.8570372 2.0255153 -2.072017
0000d0 0a 9e 04 c0 c0 7e df bf a7 ba e4 3f 08 fd f1 3f
       -2.072146 -1.7460556 1.7869462 1.8905344
0000e0 5c e8 dd bf 26 0d 0b 40 1e e6 93 bf 58 b6 ef bf
       -1.7336535 2.1726775 -1.1554601 -1.8727522
0000f0 5b 5f b6 bf f9 15 df 3f 84 f4 a1 bf 3a d1 05 c0
       -1.424785 1.742858 -1.2652745 -2.0908952

affine_layers.0.weight f4 [64, 4]
000000 f1 b5 c5 3d 69 12 81 be 70 8a 04 3d e9 e3 81 3e
       0.09653843 -0.25209358 0.032358587 0.25369194
000010 89 88 c1 3d cc d1 77 be dc 18 fb bd 40 46 b6 be
       0.0944987 -0.24201125 -0.12260601 -0.35600471
000020 35 f8 94 3d 72 70 64 bd 44 53 1c be e4 2d d6 be
       0.07273904 -0.0557713 -0.15266138 -0.41831887
000030 50 9c 45 3e d0 8e 09 3f 42 c2 ba 3e 43 77 37 3e
       0.1929791 0.5373354 0.36476332 0.17916588
000040 f2 9e 8b bb ac 86 9d 3d aa 8a c3 3d 79 f3 25 be
       -0.004260891 0.07691702 0.095479324 -0.16206159
000050 c4 fb 10 be ad 97 25 be 31 2a b2 bc ec cb 9b 3e
       -0.14158541 -0.16171141 -0.021748634 0.30429018
000060 9d 32 8d 3e ce c1 47 be e9 d3 ca be e9 58 8c be
       0.27577677 -0.19507524 -0.396148 -0.27411583
000070 c3 0b d4 bd 86 23 15 bf b3 ab 97 be 48 b5 c9 bd
       -0.10353806 -0.5825733 -0.29623184 -0.0984903
000080 46 4e 8c bc 96 c4 80 be 1e ed 93 3e cb d6 ab 3e
       -0.017127167 -0.25149983 0.28891844 0.33562312
000090 a4 a3 9b 3c 92 0e 2c be 8b 3c fd be ef 63 9e be
       0.018998928 -0.16802433 -0.49460253 -0.30935618
0000a0 e0 10 6a bd 47 59 61 3e 1c f2 5f 3f 8f ce fe 3e
       -0.057145 0.22006713 0.87478805 0.49766967
0000b0 d6 af 01 3d 9f 4e db bd 60 bf 32 3e ad 6e 74 3e
       0.03166183 -0.10708355 0.17455816 0.23870344
0000c0 e5 a2 44 bd 5e a4 a7 3e 25 f7 08 3f 21 03 b9 3e
       -0.04800691 0.3274259 0.5350211 0.361352
0000d0 d1 02 3b be 6c d5 72 3e 7f f2 21 3f 18 0b 6a 3e
       -0.18262793 0.23714226 0.63260645 0.22855794
0000e0 72 64 c3 3e 47 50 bc 3e 46 eb 11 3f 3d db cb 3e
       0.3816257 0.36779997 0.56999624 0.39815703
0000f0 e6 83 40 bd e2 1d 05 bc d3 37 2b 3f a5 ae 2e 3f
       -0.04700079 -0.0081248 0.66882056 0.68235236
000100 66 ea e4 be ab 49 07 bf b8 e5 4e bf 74 b4 be be
       -0.44710082 -0.52846783 -0.80819273 -0.3724705
000110 b7 3f bd 3d 49 95 56 3e 89 ef bb 3e 32 70 55 3e
       0.09240668 0.20955385 0.36706188 0.2084358
000120 8d 8f 8a be e4 9c cb bd cc ec 17 bf 0e b8 13 3e
       -0.27062646 -0.09942034 -0.593457 0.1442568
000130 22 98 0e bd d3 15 4e 3e 17 ef c6 3e 45 56 38 3f
       -0.034813054 0.20125513 0.38854286 0.72006637
000140 87 be 3d 3e e1 40 b3 be d2 63 ff 3e 1c bb 19 3e
       0.18529712 -0.35010436 0.49880844 0.15012783
000150 58 7a fe bc 2b fa 18 3e df 9b 6f be f0 25 cf be
       -0.031064197 0.14939182 -0.23399304 -0.40458632
000160 72 a5 b8 3e fa 6d 31 be cf d0 b1 be 9e 77 d6 be
       0.36063725 -0.17327109 -0.3472962 -0.41888136
000170 1d 7b 38 3c de 33 88 bd a0 17 1a bf c8 ff a4 be
       0.011259821 -0.06650518 -0.601923 -0.32226396
000180 ae 59 6d bd 34 da fb 3e 4f e9 80 3d 2a 60 18 3f
       -0.057946853 0.49189913 0.062945 0.59521735
000190 cf 5c 34 3d 91 e4 1f 3e 6a 3d 31 3f 81 1c f6 3e
       0.04403382 0.15614535 0.69234335 0.48068622
0001a0 85 52 76 3e 5f 68 45 bd 4b d5 18 bf 05 62 5d be
       0.24054916 -0.04819524 -0.5970046 -0.21619423
0001b0 68 bc 38 3d e1 74 d8 3d ce af 1d 3f 58 e3 bf 3e
       0.045101553 0.10569168 0.6159638 0.37478137
0001c0 61 40 c0 3c 25 5d b7 bd 96 8f 72 bd 36 6e 3f 3d
       0.023468198 -0.08953313 -0.059218965 0.046735965
0001d0 eb 41 de 3c 22 80 c5 3d 39 c0 56 3e 26 e4 02 3e
       0.027131042 0.0964358 0.20971765 0.12782344
0001e0 37 bf c9 3d 70 0d 90 be ae b5 08 be 27 58 23 bf
       0.098509245 -0.28135252 -0.13350555 -0.63806385
0001f0 6c 34 39 3e fa d9 7b bd 88 70 4e 3e c8 32 03 3e
       0.18086404 -0.061487176 0.20160115 0.1281234
000200 0b e1 bf 3a 6f 5d c6 bd 09 f8 0f 3f b1 39 98 3e
       0.0014639212 -0.0968579 0.56237847 0.29731515
000210 8d 73 00 3e 6b 20 46 3e af 34 a3 bc 65 f3 86 3e
       0.12544079 0.19348304 -0.019922582 0.2635757
000220 57 ca 00 be c3 5a db 3e 50 b1 e8 3e 4b c1 84 3e
       -0.12577187 0.42842683 0.4544778 0.2592872
000230 cb fa 39 be 54 27 5b be d3 f5 9d be 9f 6a f4 be
       -0.18162076 -0.21401721 -0.30851611 -0.47737595
000240 b2 5d 83 be a0 5f e3 3d 52 d2 c8 3b f6 ad 10 3f
       -0.2565742 0.111022234 0.0061285878 0.56515443
000250 d9 99 25 3c fc c0 3b be 08 0c 1e 3f 02 4c 04 3f
       0.010107481 -0.18335336 0.6173711 0.5167848
000260 fa 66 58 3d 42 26 2d bd e0 08 cd be 22 79 c8 be
       0.05283258 -0.042272814 -0.40045834 -0.39154917
000270 f9 9e d7 3e ae 08 a8 3e a7 da 06 3f 22 86 fc 3e
       0.42113474 0.32819122 0.52677387 0.49321085
000280 66 4e ba bd 70 bc c5 be 51 e7 a3 be 1a a0 a2 be
       -0.090969846 -0.3862033 -0.32012418 -0.31762773
000290 03 1e 77 be be f8 05 3e d2 e8 60 3f 3b f2 03 3f
       -0.24132542 0.13083169 0.87855256 0.5154149
0002a0 30 3a d2 bd c3 29 73 be ea 75 e1 3e 2f 0b 59 3e
       -0.10265005 -0.237464 0.44035274 0.21195672
0002b0 63 3b 97 3d 2c d5 52 bb 96 fd b5 be 03 7d ab bd
       0.07384374 -0.0032170517 -0.35545033 -0.083734535
0002c0 53 69 8a be e0 cb b5 3e 93 44 cf 3e 94 f5 3b 3f
       -0.2703348 0.35507107 0.40482005 0.734216
0002d0 ce 08 0b 3d 26 1c 26 be f4 0b a3 be 25 89 99 3d
       0.033943944 -0.16221675 -0.31845057 0.07496861
0002e0 17 85 c0 bb 81 50 03 be 86 ac 36 bf 52 48 33 bf
       -0.0058752405 -0.12823679 -0.71357 -0.7003223
0002f0 03 1f f0 bd 4d f2 54 bd 66 7e 05 bf 3c 5c 60 be
       -0.11724665 -0.05198889 -0.52145994 -0.21910185
000300 81 08 af bd cc d2 b8 3e e7 09 7a bd 51 88 0a bf
       -0.08546544 0.36098325 -0.0610446 -0.5411425
000310 4c af a0 bd a3 fa 59 3e 79 92 21 3f ce b7 27 3f
       -0.07845935 0.21287017 0.63114125 0.6551484
000320 bf f5 f8 bd ad 3a cc 3e 3e aa d8 3e 64 da 18 3f
       -0.12156247 0.39888516 0.42317384 0.5970824
000330 a7 2d c0 3c e7 bd be be 35 11 55 be 04 5d 6f be
       0.023459269 -0.3725426 -0.20807345 -0.23375326
000340 7c f8 1d be be 84 a2 3c 35 76 38 3e a8 bd 94 3e
       -0.1542682 0.019838687 0.18013842 0.29050946
000350 1f 1e f7 bd 0b 9a c8 be 14 2f 18 bf aa 40 e4 be
       -0.12066292 -0.39180025 -0.59446836 -0.44580585
000360 fe 4c f3 3d 2c 0c 71 be ba bc 61 be 7b c5 c3 be
       0.118799195 -0.235398 -0.2204465 -0.38236603
000370 5e 8e 4a be f0 c7 8c 3d 93 46 30 3d 67 fe 79 3d
       -0.19780871 0.068740726 0.043036055 0.061033633
000380 a0 af 1c 3e d4 39 5d be 8b 7b d9 be fb 05 83 be
       0.1530137 -0.21604091 -0.42477068 -0.255905
000390 72 7f 42 3e 11 cc 69 be ff c0 08 3f d0 88 4a 3f
       0.18993929 -0.22831751 0.5341949 0.7911501
0003a0 76 b3 38 3e 40 e7 5c be fc a7 4c be c7 dd 63 be
       0.18037209 -0.2157259 -0.19985956 -0.2225257
0003b0 8f 89 43 3d 86 14 b3 be b5 b9 e0 be 71 0a 00 bf
       0.047738608 -0.34976596 -0.43891683 -0.5001593
0003c0 c0 e5 09 be 04 10 7e 3d 66 9b f2 3e 02 1e 44 3f
       -0.13466549 0.062026992 0.47384185 0.7660829
0003d0 f5 c7 09 be b3 05 cd be fa b8 e1 be 7b a1 de be
       -0.13455184 -0.4004341 -0.44086438 -0.43482575
0003e0 79 41 ae 3b 56 03 64 3e 95 88 a6 3e 9a 31 f0 3e
       0.0053178635 0.22266898 0.3252608 0.46912843
0003f0 ef 1a 6b bd be 64 93 be 99 2e 43 be 52 f1 50 be
       -0.057398733 -0.28787798 -0.19060744 -0.20404556

affine_layers.0.bias f4 [64]
000000 a9 88 9b 3d 03 0b 39 3d 18 11 89 3d 1e 99 14 bd
       0.07594425 0.045176517 0.066927135 -0.036278836
000010 f2 02 96 ba 5a b2 19 bd aa 9b a9 3d 30 f9 02 3d
       -0.001144497 -0.037523605 0.08281644 0.031975925
000020 28 c5 37 bd 7b 5c 80 3d 44 f6 87 bd 5b f5 11 bd
       -0.044865757 0.06267639 -0.06638768 -0.03563438
000030 5d 20 71 bd a5 ad 8e bd 99 a0 e2 bd 65 a8 1c bd
       -0.058868755 -0.06966714 -0.11065788 -0.03824653
000040 05 67 92 3d 2d 77 6a bd c2 d7 af 3d 49 93 1b bd
       0.07148556 -0.05724256 0.085860744 -0.03798226
000050 b0 56 83 3c 53 50 18 3d 66 79 aa 3d 92 f1 8c 3d
       0.016032547 0.03718598 0.08323936 0.068820134
000060 72 ee a3 bd 53 85 95 bd b5 ac 6c 3d 9e ea 59 bd
       -0.08004464 -0.0730082 0.057781894 -0.053202264
000070 f7 df cf 3b 4b 0a f5 bc 83 7d 40 3d 66 38 cb bc
       0.0063438374 -0.029912135 0.046994697 -0.024807166
000080 26 a9 64 bd 4c 70 09 bd 2f 72 76 bd 6a b7 a0 3d
       -0.055825375 -0.03355436 -0.060167488 0.078474835
000090 03 eb 8f bd 6e e3 3a bd 07 12 ad 3d dd 25 88 bd
       -0.07027247 -0.04562705 0.08450704 -0.06647847
0000a0 fe 3d 3a 3d b5 26 42 bd 36 3c 87 bd af c3 75 3d
       0.045469277 -0.047400195 -0.06603281 0.06000107
0000b0 42 6f 61 bd f5 36 ef 3c c3 37 49 3d 63 31 92 3d
       -0.055037744 0.02920101 0.049125444 0.07138326
0000c0 1f a4 13 3c d0 a7 5e bd 7a 92 80 bd 11 1e 23 3d
       0.0090112975 -0.054359257 -0.06277938 0.039823595
0000d0 b4 83 3a bd 7b 98 a4 3d dd c6 91 3d ee 9f 9f bd
       -0.04553576 0.08036896 0.07118008 -0.07794176
0000e0 ac 28 5e 3d e3 f2 70 bc 8d 49 90 3d 0c 38 4c 3d
       0.054238006 -0.014706346 0.07045279 0.049858138
0000f0 aa 7b 36 bd bb 27 bb 3d 25 23 83 bd 80 7a 42 3d
       -0.04455153 0.09138437 -0.06403188 0.047480106

affine_layers.1.weight f4 [64, 64]
000000 83 57 83 be d7 e9 a6 be 7d 30 4f be cf c9 c6 bd
       -0.25652704 -0.3260028 -0.2023334 -0.09706461
000010 d6 53 25 bd e8 2e 45 be 64 e8 56 3e 92 c9 bb be
       -0.040363155 -0.19256175 0.20987087 -0.36677223
000020 42 13 ce 3e 1d 71 e9 be ea 9c b8 3d 15 f0 e3 bd
       0.40249068 -0.4559411 0.09014304 -0.111297764
000030 2c 70 0f 3f e3 b4 49 3e 36 a0 b9 3b 8e 32 f3 3a
       0.56030536 0.19697909 0.0056648506 0.0018554495
000040 2f b8 59 be 50 8d 10 3d 91 42 aa bd 58 e2 d8 3e
       -0.21261667 0.035291016 -0.08313478 0.42360187
000050 2d f8 2d be 1e 42 4e 3d 78 dc 9f be 0e 15 0f bf
       -0.16989203 0.050356023 -0.31222892 -0.558915
000060 e0 14 06 3f 1a e1 d5 3e ff 31 34 be 66 16 c9 3d
       0.523756 0.417733 -0.17597197 0.09818725
000070 e1 4d 30 bd fd f2 32 be ce c8 91 be c8 d1 8d bd
       -0.04304302 -0.17475505 -0.28473514 -0.06924778
000080 e2 d8 03 bd 86 87 2b 3e 54 dd cd bd 08 42 40 be
       -0.032189257 0.16750917 -0.100519806 -0.18775189
000090 e3 e9 a9 bd fe 5e 87 3d f0 eb 32 be 52 fd f0 3d
       -0.082965635 0.06609915 -0.17472816 0.11767067
0000a0 40 67 56 3e 27 2e da 3e 42 38 bb 3d ae 5b 34 be
       0.20937824 0.42613336 0.0914159 -0.17613098
0000b0 a2 39 96 3e b0 48 81 3d 00 05 6a be 80 e3 77 bc
       0.29340845 0.06312692 -0.2285347 -0.015129924
0000c0 f7 35 5d bd 02 24 30 3f 00 f8 63 3e ae c1 38 be
       -0.054006543 0.68804944 0.22262573 -0.18042633
0000d0 6a cf c7 bd 84 cf 2e 3e b9 bc 06 bf 4d 94 83 3d
       -0.09756358 0.17071348 -0.5263172 0.064247705
0000e0 7b bc b6 be 0c c2 e5 bc c6 17 27 be 82 bc df be
       -0.35690674 -0.02804663 -0.16317663 -0.43698508
0000f0 8d a2 53 3e 71 77 b7 be c6 15 42 3e 58 0c e4 bc
       0.20667477 -0.35833314 0.18953618 -0.027837917
000100 a7 6c 3b 3e d7 11 ef bc d7 f1 8b be 96 f7 be 3d
       0.18303166 -0.029183311 -0.27332947 0.09324567
000110 70 da 6a be 5b c7 7f 3e da 6e f4 bd e3 a8 a3 be
       -0.2293489 0.24978392 -0.11935206 -0.31964788
000120 a6 30 27 be 15 71 93 be 27 a5 93 3e 28 e3 f1 bd
       -0.16327152 -0.28797212 0.2883694 -0.11810905
000130 21 26 ed 3e 79 e6 34 3e 83 da 83 bc 74 05 01 be
       0.46318153 0.17666043 -0.016095405 -0.12599736
000140 79 fc 0e 3d 13 45 71 3e 74 33 5a 3e 77 79 4a 3e
       0.034908745 0.23561506 0.2130869 0.19772898
000150 38 dc 93 bd 60 a0 a4 3e ff 42 bd bd 41 97 89 be
       -0.07219738 0.32153606 -0.09241294 -0.2687321
000160 02 8b b6 3e 02 78 e6 3e 2f f4 97 be 4f 00 9f bd
       0.3565293 0.45013434 -0.29678485 -0.07763731
000170 e6 d7 38 3e 63 dc 56 3e 81 c3 e3 bd 2f e8 81 be
       0.18051109 0.20982508 -0.11121274 -0.25372455
000180 41 91 39 3e 59 c4 95 3d 25 49 ac 3e 66 c8 45 bd
       0.18121816 0.07312841 0.33649555 -0.048286818
000190 9b 86 8c 3e 6a 61 c6 3d c8 00 ac bd 9c f7 10 3e
       0.27446446 0.09686549 -0.083985865 0.14156955
0001a0 15 7f 3a be 27 c3 6c bd 60 d0 92 be 44 04 93 be
       -0.1821254 -0.0578033 -0.28674603 -0.28714192
0001b0 9c 7d c1 3e 39 82 b3 be 3b fb 4e be 7b 95 8d bd
       0.37791145 -0.3506029 -0.20213024 -0.06913277
0001c0 0b ac cf be 93 2c 90 3e a6 4e c7 3e ed 99 56 be
       -0.40560946 0.28159007 0.38927191 -0.20957156
0001d0 fb 93 01 be 4b ee be 3c b1 f0 50 be 7b 3b 5a bd
       -0.12654106 0.023306986 -0.20404316 -0.05327938
0001e0 eb 83 f6 bd fc 54 a8 3d 5a 0f 39 be 54 f8 71 be
       -0.1203688 0.082193345 -0.18072262 -0.23629886
0001f0 ea 5f 1b 3f c0 6a 30 3e c5 5f b5 3d 69 e2 dc bc
       0.6069323 0.17228222 0.08856157 -0.02696343
000200 66 65 60 3d 4e 49 d5 3c ef f2 81 3b 21 00 e2 bd
       0.0547842 0.026035931 0.0039657275 -0.11035181
000210 9d 4b 16 3e ff f8 a7 bd 28 a9 9c 3e 8a 9e 20 3d
       0.14677282 -0.08201789 0.30597806 0.039213695
000220 cb f6 84 3e a8 20 02 3e 33 32 9e be 85 c5 a6 3e
       0.25969538 0.1270777 -0.30897674 0.3257257
000230 a4 04 9e be 9b 06 34 3d eb 0b b6 3d 11 ce fd 3d
       -0.30862916 0.043951612 0.08888992 0.1239282
000240 da 85 b5 3e 48 6d 01 3e 7d e4 d8 3d 79 a2 24 be
       0.35453683 0.12639344 0.10590456 -0.16077603
000250 ee e5 28 be 49 dd a2 3e ca 53 17 3d 71 5d c4 3c
       -0.16493961 0.31809452 0.03694514 0.023970338
000260 b2 82 0f be 7c 25 3d 3e 14 e9 35 be d0 d0 93 be
       -0.140147 0.1847133 -0.17764693 -0.2887025
000270 8a e3 1d bd f7 f6 36 bd ab f5 22 be 85 39 87 be
       -0.038547076 -0.044669118 -0.15914027 -0.2641107
000280 b7 6b c2 be 58 2a 7f bd a5 c5 22 be 73 ee 28 be
       -0.37972805 -0.06229624 -0.15895708 -0.16497211
000290 f5 50 60 be a7 c8 11 3e 84 63 94 3e 75 9f 5f 3e
       -0.21905883 0.14236699 0.28982174 0.21838172
0002a0 df 0a 37 bd 6a f9 4a bd c8 60 33 bd 83 40 1a 3e
       -0.0446881 -0.049554266 -0.04379347 0.15063672
0002b0 90 76 a5 be 2e e6 82 3c f6 0a 6f 3e f4 e5 41 3e
       -0.32317019 0.015978899 0.23344025 0.18935376
0002c0 27 e0 a2 bd 4f 96 5b be 5e d8 14 3c 89 ce cf bd
       -0.0795291 -0.21444057 0.009084789 -0.10146815
0002d0 4b b6 61 3e 7a 9c 71 bd d8 8c 8f 3e 2b a9 29 3e
       0.22042195 -0.05898712 0.28037143 0.16568439
0002e0 d2 b2 8c 3d ff 12 91 3e 8d 08 09 3e 5a ad f8 3d
       0.06870045 0.28334805 0.13382168 0.12142439
0002f0 ec f0 2c be 05 84 35 3e 04 5c a3 be 33 9c 8d bc
       -0.1688878 0.17726143 -0.3190614 -0.017286396
000300 6f 39 b3 3c dc 77 9c bd fd 98 3f 3d 38 a7 65 be
       0.021877972 -0.07640049 0.04677676 -0.2242707
000310 30 bd 41 bd 43 c6 83 3d 11 85 3c be 93 8c d6 3d
       -0.047299564 0.064343 -0.18410136 0.10476031
000320 40 3c f3 bd 79 fc 9e be 18 8b 29 3e 39 31 84 bd
       -0.11876726 -0.31051996 0.16556966 -0.06454701
000330 cd 77 eb 3e 7a 11 14 3f be 7f 27 3e 9a 13 f7 3e
       0.45989838 0.5783917 0.16357324 0.48257142
000340 36 4c 5f be 52 ce ed bd f9 47 f6 3d 61 84 07 3f
       -0.21806416 -0.11611618 0.120254464 0.5293637
000350 ba a0 72 bd 08 ac f0 be 79 14 b4 bd 25 4c 22 bf
       -0.059235312 -0.4700625 -0.08792967 -0.6339744
000360 69 9e 21 3e a3 a2 a1 bd 90 e9 83 3b 1c 3f 2a 3e
       0.15783085 -0.078923486 0.0040256456 0.16625637
000370 8e 45 14 3e 24 8b 04 3e 38 0c ae be 0f 5e 64 bd
       0.14479658 0.12943703 -0.33993697 -0.055753764
000380 f5 79 fc 3d 8a 91 5a be d4 97 a1 3e 85 f9 d5 be
       0.12327949 -0.21344581 0.31561148 -0.4179193
000390 7d 3e d4 bd 74 97 54 3e 46 6a 1f bd a8 92 06 3f
       -0.10363481 0.207609 -0.03891971 0.5256753
0003a0 6d c3 3c 3d 25 5a 2e 3e 43 5e e2 3c 4f 00 36 be
       0.04608481 0.17026575 0.027632838 -0.17773555
0003b0 eb 0b 3b 3d d3 8f 29 be 0b a0 8c be a3 91 c5 3b
       0.045665663 -0.16558771 -0.27465853 0.006029324
0003c0 29 b6 5d be c1 f6 17 3f e1 5c 03 3f eb c2 2d 3e
       -0.2165152 0.5936089 0.51313597 0.16968887
0003d0 71 d8 c0 3d 2b e3 da 3d b2 71 1e 3d cd d3 83 bb
       0.09416283 0.1068786 0.038682647 -0.0040230514
0003e0 dc 97 a3 be 75 75 13 3e 79 31 bd be 27 a7 c1 be
       -0.31951797 0.14400275 -0.36951807 -0.3782284
0003f0 76 9a b3 3e c2 35 a7 bd 41 bd c8 3e 64 63 8d bb
       0.35078782 -0.0816455 0.3920689 -0.004314827

affine_layers.1.bias f4 [64]
000000 a2 dc 8c bd 86 b1 4d bd 80 21 89 3d 2d 54 97 bc
       -0.0687802 -0.050218128 0.06695843 -0.018472755
000010 0b 5a 16 3c ba 99 3c 3d 6b 79 3a bd f0 71 32 bd
       0.009176741 0.046045043 -0.04552595 -0.04356569
000020 a8 a9 15 3d ba c9 bb bd 4b 53 2c bd 41 f7 81 bc
       0.03653875 -0.09169336 -0.042071622 -0.01586497
000030 31 7e 7d 3c bc 5e 26 3d 6e de 09 bd bd 4f c3 3c
       0.015471981 0.04061769 -0.03365939 0.023841733
000040 8d da 64 bd 78 ae 35 bd 74 65 23 bd f4 2d 71 bd
       -0.05587249 -0.04435584 -0.039891675 -0.058881715
000050 37 ea d0 3c 46 fd 42 3d a1 10 34 bd 0f 04 20 bd
       0.025502307 0.04760482 -0.04396117 -0.03906637
000060 16 34 4c 3d a8 9f 2e bd 1a 95 a4 bd ad 99 41 3d
       0.04985436 -0.04263273 -0.08036251 0.047265697
000070 ed 0d 0d 3d be 3f 50 3d 72 a9 b8 3d bb 54 9d bd
       0.03443711 0.05084204 0.09016694 -0.07682177
000080 23 45 30 bd 13 74 e7 3c 08 e6 1c 3d 76 6e 80 bd
       -0.043034684 0.02825359 0.038305312 -0.06271069
000090 30 c0 5d 3d bf 7f 55 bd 39 15 84 3d bd fa de bd
       0.054138362 -0.05212378 0.064493604 -0.10887668
0000a0 b0 a6 95 3d 67 91 9c 3d 13 8b 80 bd 0b 4e 98 3c
       0.07307184 0.07644921 -0.06276526 0.018591901
0000b0 01 67 49 3d f7 a6 33 3d a1 ea 18 3d a3 43 55 3d
       0.049170498 0.043860402 0.037333135 0.052066457
0000c0 6a 91 66 3d da ad 8a bd 69 cd b1 3d 21 17 3e bd
       0.05629102 -0.06771441 0.08681757 -0.046408776
0000d0 ee 43 93 3d 4f dd 2c 3d df bb 75 bd 14 a4 0b bd
       0.07190691 0.042203244 -0.05999362 -0.034092024
0000e0 8e 2b d1 bd 1d b3 73 3d f6 9f 1c 3d 8e 27 45 bd
       -0.102133855 0.059496988 0.03823849 -0.048133425
0000f0 f4 60 7a 3d 7e 6e 66 bd 23 8e 49 3d 9e 99 13 bd
       0.061127618 -0.056257717 0.049207818 -0.036035173

final.weight f4 [2, 64]
000000 0f 33 4a be db 8d 83 be d0 67 21 3e ac 89 94 be
       -0.1974604 -0.25694165 0.15762258 -0.29011285
000010 49 5f cc bd 04 aa 38 3e 07 ca 75 be c1 1b 3a be
       -0.09979112 0.18033606 -0.24002849 -0.1817465
000020 54 95 83 3e d6 7b f2 be 1a ad 27 be 43 ea a3 3e
       0.25699866 -0.47360104 -0.16374627 0.32014665
000030 ea b8 f5 3e 77 82 82 3e cf f8 9b be fd 40 4a 3e
       0.4799264 0.25490162 -0.30463263 0.19751354
000040 01 7f 21 be 68 8b c0 be 41 ec 81 be 53 e9 9c be
       -0.15771104 -0.3760636 -0.2537556 -0.30646762
000050 87 40 76 3e 68 ea aa 3e 0e 3a 3d be d9 85 6c be
       0.24048053 0.33381963 -0.18479177 -0.23097934
000060 f5 ca 4c 3d 00 a4 d4 bc d2 ec d9 be b5 3a 75 3e
       0.049998242 -0.025957108 -0.42563492 0.23948176
000070 ac 39 b6 3e 37 1e 7d 3e 67 04 7b 3e 7e f3 76 be
       0.35590875 0.24718557 0.24513398 -0.24116322
000080 92 43 93 be 31 c0 a4 3e 9a f5 5a 3e 8f 3a 29 be
       -0.2876249 0.3217788 0.21382752 -0.16526245
000090 21 14 73 3e 49 2d 31 bd 25 1c 6e 3e d8 1c db be
       0.23738147 -0.043256078 0.23252924 -0.42795444
0000a0 0d dc 90 3e 9f 2a 57 3e c6 b1 a6 bd 65 87 eb 3e
       0.28292885 0.21012352 -0.08139376 0.46001735
0000b0 fa 8d 23 3e 9b 8b 82 3e 80 09 3c 3e c4 8e 70 3e
       0.15972129 0.25497136 0.18362999 0.23491961
0000c0 54 ec 92 3e d2 28 8a be 9e 58 fe 3e 26 25 6b be
       0.2869593 -0.26984268 0.49676985 -0.2296339
0000d0 80 f6 1b 3e 3c cc 81 3d 51 94 ee bd c0 db b3 be
       0.15230751 0.06337783 -0.11649383 -0.35128593
0000e0 9e 77 c9 be c5 2d 91 3e b3 a1 1c 3e 89 72 f8 bd
       -0.39349073 0.28355232 0.15296058 -0.12131221
0000f0 83 40 3d 3e b5 e9 59 be 16 ba 3f 3e 5d 96 36 be
       0.1848164 -0.21280558 0.1872333 -0.17830797
000100 64 90 ac 3e f1 4b 83 3e 98 5a 00 bd 7e e4 a3 3e
       0.3370391 0.25643876 -0.031336397 0.32010263
000110 08 5f d5 3c b7 c9 80 be 16 3b 84 3e ff d2 32 3e
       0.026046291 -0.25153896 0.2582633 0.17463301
000120 af 3e 80 be 4b bc fe 3e 93 b7 71 3e 8d f5 0b bf
       -0.25047824 0.4975303 0.23605184 -0.54671556
000130 bd 19 22 bf 83 15 1e be 24 b9 13 3e de ed 11 be
       -0.63320524 -0.15437894 0.14426094 -0.14250895
000140 2e 00 54 3d 7b b2 cb 3e de 37 9d 3e 40 46 d5 3d
       0.051757984 0.39784607 0.30706686 0.1041379
000150 69 1e 58 be ed 55 65 be 3a 28 60 3e dd 39 84 3e
       -0.2110535 -0.2239606 0.21890345 0.25825396
000160 ff 4e 64 be 2a 39 ca 3d c8 29 f1 3e 1f ca 61 be
       -0.2229576 0.098741844 0.4710219 -0.2204976
000170 5f 07 9f be 38 d9 b5 bd 0a 4c f4 bd d7 47 7d 3e
       -0.3106031 -0.08879322 -0.11928566 0.24734436
000180 26 51 99 3e 98 fc a7 be e2 b3 77 bc 7e 79 16 3e
       0.29944724 -0.328099 -0.015118571 0.14694783
000190 b9 f7 d6 bd ed ae 3b 3e 28 0b fb bd a4 36 04 3f
       -0.10496468 0.18328448 -0.12257987 0.51645875
0001a0 cb 0c 65 be cc b1 87 be d7 1a 2e 3e 14 32 7a be
       -0.22368161 -0.26502836 0.17002426 -0.24433166
0001b0 b9 68 9c be 13 58 87 be 92 be e9 bd 95 65 b0 bd
       -0.30548647 -0.26434383 -0.114133015 -0.08613125
0001c0 4d 38 a0 be b4 78 3c 3e 46 9c fc be ca d1 3e 3e
       -0.31292954 0.1840542 -0.49337977 0.18634716
0001d0 c9 ce 97 be 43 01 61 be ac 90 91 3e 81 a7 ef 3e
       -0.29649952 -0.21973138 0.28430688 0.46807483
0001e0 c2 1a d8 3e fa fb a0 be 6e a4 e3 bd 01 9e 86 3e
       0.42207915 -0.31442243 -0.11115347 0.26292422
0001f0 f6 c8 f7 bd 6d a2 22 3e 29 91 66 be b0 d3 05 3e
       -0.12098877 0.15882273 -0.22516312 0.13069034

final.bias f4 [2]
000000 fe 30 aa 3d 43 01 17 be
       0.08310126 -0.14746575

exp_avg f4 [64, 4]
000000 84 bc 58 3e f0 51 50 bd a8 4a 67 3e e0 7f 37 3d
       0.21165663 -0.05085939 0.22587073 0.044799685
000010 b8 1e 4d 3e d2 96 b3 3c 06 aa db 3d ac 02 7b bc
       0.2003125 0.021922503 0.10725789 -0.015320461
000020 3b 26 9b be 6f 82 37 be 46 dd 7c 3e 08 4d 80 3e
       -0.30302605 -0.1792085 0.24693784 0.2505877
000030 56 07 af be 3a 1a 80 bc a6 5b 21 be 73 26 a8 ba
       -0.34185284 -0.015637506 -0.15757617 -0.0012828842
000040 d1 07 c7 3d 74 e0 ff 3b cb 5d e6 bb f8 d6 15 bd
       0.09718288 0.0078087393 -0.007030224 -0.036581963
000050 2c 01 33 3e 81 f2 50 3d 0f f2 bf bd 47 db 19 be
       0.17480916 0.05101252 -0.09372341 -0.15025054
000060 f8 60 ea be dd eb 99 be 55 a2 ee 3e bc 37 d8 3e
       -0.45777106 -0.30062762 0.46608225 0.42230022
000070 9d 3e dd bd 3a 21 91 bc bb 10 bd bc bc 42 2f 3c
       -0.10802958 -0.017716039 -0.023079267 0.010697063
000080 3f dc 36 3e 6a b1 3a bd d8 14 42 3e c0 0b e7 3c
       0.17857455 -0.04557935 0.18953264 0.028203845
000090 8b 0d 4f be 9f d7 d7 bd b1 6a 0c 3e 4e 09 22 3e
       -0.2022001 -0.10539173 0.13712575 0.15823862
0000a0 70 ec 31 be 76 4b 60 3b d6 57 e7 bd dc 2d 54 bb
       -0.1737535 0.0034224666 -0.1129605 -0.0032375967
0000b0 18 ac ac be b4 b6 02 bd 7a 56 1f be 2d 28 2d 3d
       -0.33725047 -0.03191252 -0.15560332 0.042274643
0000c0 2a 4c e4 3d b9 33 e8 3b ff 68 8e 3d 26 98 13 3c
       0.1114734 0.007086244 0.0695362 0.009008443
0000d0 4d ba a4 be 92 78 9b bd 86 2b f1 bd 8b db 61 3d
       -0.32173386 -0.07591356 -0.117758796 0.055141013
0000e0 ed 38 ab 3d 8a ad 5b 3a 6f c8 b2 3c 25 3c 25 bd
       0.08360467 0.00083800463 0.02182409 -0.04034056
0000f0 09 11 c1 be b7 d2 33 be 1c f8 87 3e d8 c6 87 3e
       -0.3770831 -0.1756085 0.2655648 0.26518893
000100 60 8b bf bb bc ff 0c 3d b2 e0 a5 bd f5 e7 47 bd
       -0.005845472 0.034423575 -0.08099498 -0.048805196
000110 0c e3 94 be 1f 96 ef bd 47 52 f8 3c f1 1b ba 3d
       -0.29079473 -0.11698555 0.03031267 0.09087361
000120 cb 0e 19 be bf 24 b7 bd c3 74 95 3d 8e 3e c4 3d
       -0.1494705 -0.08942556 0.07297661 0.09582244
000130 8a 5a 1e be 63 db a9 bd e0 83 88 bd 2f 35 51 bc
       -0.15464225 -0.08293798 -0.06665778 -0.012769028
000140 f6 f6 88 3e 6f c7 2c 3e f7 bf 86 be f3 29 7a be
       0.26750916 0.16872953 -0.26318333 -0.24430065
000150 e0 d0 c3 3e 1a d4 5e 3e f1 91 94 be 32 84 a0 be
       0.38245296 0.21760598 -0.29017594 -0.31350857
000160 5c e3 b0 3e 5a b8 be 3d 7e a2 92 3d 36 56 f3 bd
       0.3454846 0.09312506 0.07159899 -0.11881678
000170 43 60 6b bd 32 39 2e bd 6d ee f1 3d 23 4f 11 3e
       -0.05746485 -0.042535014 0.11813054 0.14190345
000180 3c 17 cd bd 12 8c 79 bd 90 fd c6 3d 61 c8 ee 3d
       -0.10014197 -0.060924597 0.09716332 0.11659313
000190 3b 47 12 3e 07 06 29 bd 66 01 36 3e 19 be a1 ba
       0.14284985 -0.041265514 0.17773971 -0.0012339979
0001a0 5e 01 d8 bd f4 75 79 bd 6d ce d7 3d c4 03 7a 3d
       -0.10547136 -0.060903504 0.105374195 0.061038747
0001b0 ba 7a 30 bd fa 2d ed 3d de 1e 9f be b9 79 c2 bd
       -0.04308579 0.11581035 -0.31078237 -0.09495873
0001c0 85 5b 51 be a2 d3 31 bd 28 09 92 bd fa 22 7f 3d
       -0.20445068 -0.04341472 -0.07130653 0.062289216
0001d0 e5 92 95 bc 48 1d 44 bd d6 19 0a 3e 70 17 f5 3d
       -0.018258521 -0.047879487 0.13486418 0.11967361
0001e0 ca 1f 82 bb a6 43 16 3c 66 df 0e 3d ab 18 6e 3d
       -0.0039710747 0.009171402 0.034881018 0.058128994
0001f0 13 db 3d 3e f5 a6 ba 3d 9d fa 80 bc 7b 11 82 bd
       0.18540601 0.09113876 -0.015744502 -0.063509904
000200 70 ac 80 3d 71 52 e5 bd 45 a6 83 3e a3 33 a9 3d
       0.0628289 -0.11197365 0.2571279 0.08261802
000210 46 90 1c be 05 77 25 bd 3a 29 40 bb 8f 3a 6c 3d
       -0.15289411 -0.04039671 -0.0029321448 0.057673033
000220 2c 2f 57 be 39 36 a4 bb 64 e7 23 be 1a eb b3 bb
       -0.21014088 -0.0050113467 -0.16006237 -0.005490673
000230 d4 37 8b be f7 23 11 be f6 9a 70 3e 6a c8 8b 3e
       -0.2719103 -0.14173876 0.23496613 0.2730134
000240 66 72 c9 3c e0 ad 28 3d 0c 36 68 bd 6c 1e 27 bd
       0.024590682 0.041181445 -0.056692168 -0.040800497
000250 28 ad 8d 3d 56 fd 6e 3c 8a d9 86 bc c3 50 a1 bb
       0.069177926 0.014586767 -0.016461153 -0.0049229576
000260 fc 21 b0 3d c2 4c 85 3d ce a6 b1 bd 9f db 4e bd
       0.08600232 0.06508781 -0.086743936 -0.050502416
000270 88 aa 65 3d 34 4b f3 3a a9 da 14 3c b1 ee 26 bd
       0.056070834 0.0018561841 0.009085336 -0.040754978
000280 50 01 82 3e 3c 10 03 3e 35 8a 4f be 5a 63 4e be
       0.25391626 0.12799162 -0.20267566 -0.20155087
000290 89 f1 f0 3e c8 0c 94 3e 6c 4a cf be 75 06 c5 be
       0.47059277 0.28916 -0.40486467 -0.3848149
0002a0 ad 5c bc 3e 97 bf 44 3e a7 2d 84 be 6b 2d 8e be
       0.36789456 0.1921371 -0.2581608 -0.27769026
0002b0 f5 41 2f 3d 8f d2 32 3d cf d0 50 3d 2e 7b 81 3d
       0.04278751 0.043657836 0.050980385 0.06322323
0002c0 a3 ff 6d be 6a e3 7b bd 55 1b cd bc c0 ec f2 3c
       -0.23242049 -0.061496176 -0.025037447 0.029653907
0002d0 7b f4 ec ba 47 bb 09 3d bd a8 b6 bd 35 3a 85 bd
       -0.0018078232 0.033625867 -0.08918903 -0.06505243
0002e0 5b 24 ef bd 41 75 d8 bc 0f 53 39 bb 61 2a 7b 3d
       -0.11676856 -0.026423099 -0.0028278267 0.061319713
0002f0 ec 31 89 be a9 15 43 bd c6 c6 b3 bd e7 cf 10 3d
       -0.267959 -0.04762808 -0.087781474 0.03535452
000300 d8 1c 49 be f6 e3 91 bd 63 47 80 3d 28 63 d3 3d
       -0.1963991 -0.07123558 0.06263616 0.10321647
000310 c0 95 4e 3e 07 0c 09 3e 63 dd 64 be 33 44 4c be
       0.20174313 0.13383494 -0.22350077 -0.19947891
000320 d2 5a 82 3e 7a 5a a1 bc 9c 36 86 3e 08 0f e3 3c
       0.25459915 -0.019696463 0.2621354 0.027717128
000330 b0 96 4e 3c bd 77 60 3d 51 2f a6 bd 16 8c 8b bd
       0.012609169 0.05480169 -0.08114494 -0.06813829
000340 a0 88 6e bc e4 de 0c 3d 35 ba 08 bd 20 67 87 3c
       -0.014558941 0.034392253 -0.033380706 0.016528666
000350 7c 96 79 be 60 4b 06 be 83 9b 55 3e 53 24 60 3e
       -0.24373811 -0.13114691 0.20860104 0.21888857
000360 98 06 f1 3c a3 a1 04 ba 35 1c c6 3c 5c 18 b8 ba
       0.02942209 -0.0005059486 0.024183372 -0.0014045346
000370 de 9f 90 bd 9f da 05 3e d9 ef ac be 03 d1 f0 bd
       -0.07061742 0.13071679 -0.3377674 -0.11758616
000380 4b 2a fc 3c 1b 07 0e bd 7f ea 8b 3d 98 43 80 3c
       0.030781886 -0.034674745 0.06831836 0.015657231
000390 e9 46 8b 3d 22 b2 32 3d 9b 95 09 3d fa b6 cc bb
       0.068006344 0.043626912 0.03358994 -0.0062473984
0003a0 9a 2f 42 be cd c5 b4 bd f8 a0 9c 3d 7f 03 0b 3e
       -0.18963471 -0.0882679 0.0764789 0.13575552
0003b0 c2 df c2 3e 13 22 5a 3e c3 57 9e be 75 5e 9f be
       0.3806134 0.21302061 -0.30926332 -0.31126752
0003c0 17 b3 71 be a1 b5 3b bd af dd 42 bd b2 29 68 3d
       -0.23603474 -0.04582751 -0.047574695 0.05668039
0003d0 0d 36 ab 3e 75 f3 14 3e da cd 1e be d8 5c 5a be
       0.33439675 0.14545996 -0.15508214 -0.2132448
0003e0 64 1a 8d bd 82 6e a1 bd 9e 5b dd 3d cf 70 a8 3d
       -0.06889799 -0.07882406 0.1080849 0.082246415
0003f0 0a 1f 05 bd 89 5c cf bb 0f 8e 93 3b 0f 14 88 3d
       -0.032500304 -0.0063281697 0.0045030187 0.06644451
