ATLA_robust_RL/src/models/atla_release/ATLA-PPO/attack-atla-ppo-pendulum.model (torch, 250418 bytes, 66 tensors)

affine_layers.0.weight f4 [64, 3]
00000000: b437 f03d 9c5e 15bd cbe7 003d 812e c1be
00000010: b0d2 91bc 5311 a8bd 3f26 543e 9d74 103c
00000020: 5ce0 4cbc eea9 0bbe 59b9 8d3e b362 1f3e
00000030: b21a 4dbe 8dd5 14bf 343a 87be 329b ff3e
00000040: 232c 06bf ff2d ec3e eb87 e33e 0092 713e
00000050: 3ad6 643e a4c9 fcbd d26b c0be 2d45 c6be
00000060: 3f28 6c3e 3a5e 9bbd 883e 4e3e e84f ee3e
00000070: 9525 b23e ec8b 133f fb9d 19bf b13d 373e
00000080: 53de 3a3f 3689 5d3e a2d1 f6bd 7c9d bcbd
00000090: 359c ed3e a41e 23bf 9ecc 0b3f f2c4 9c3e
000000a0: 8736 8a3e d1cb fdbe 216a b1bd 4b6f e7be
000000b0: 768c fdbe 63eb 15bd d09e 6e3e 2bfa 603c
000000c0: 2cf6 ff3e afc5 263e 5e8e d03e 1d78 573f
000000d0: 041a 6f3f 87ad 7dbf ef6d 393f e18f 7ebe
000000e0: aefe 5cbf 3137 d93e 6569 babe eb24 5b3e
000000f0: ca81 8e3c 3659 853d 3790 693e 4126 f8bd
00000100: 4e44 a4be 8cd9 dcbe 8e2b 123f 95fa 243f
00000110: ab10 d4be f332 4bbf 4c82 373f faa9 2ebf
00000120: 4e53 2e3f 279f d83e a4b9 10bf 557d 3ebe
00000130: 5b36 68be 69da 043f 243c 48be 2e6e a73e
00000140: bf22 b23e fa62 a1bd 1092 833e ff3a e7be
00000150: 8b40 d43d 4cb5 943e d7a7 a13e 6d6f b43e
00000160: bec1 763e 85f6 2c3f dd6a a03e c89d b63e
00000170: 368c 053f ba9b 533d e29a 0ebf 9356 89bf
00000180: 3f5e a9be 9aa3 56be 56da a3be 3f53 12bd
00000190: a41a b4bc f245 eabc 74a3 0ebf 156a 0bbf
000001a0: ec62 cd3f a17e 2f3e 1def ae3e b84a d03e
000001b0: 0bc9 823c 7e45 6b3e 9099 fb3e 3605 b13e
000001c0: 4cec 05bd db65 e93d aab7 87be c65e 73bf
000001d0: 2e33 05bf 4bef 1cbe 41dd 16be 871a 17bd
000001e0: 9823 acbe 40fa bb3e 159c 15bf ed84 273f
000001f0: 2e67 203e 52dc 713f 0747 2dbe 3588 2e3f
00000200: 4138 143f eb02 dd3d 2e56 02bf d41f 9a3e
00000210: ef4b a5be bd1c a03d e231 cb3e 5cc2 08bf
00000220: 32f0 3b3d 9141 53bf 7018 f63d 8559 593e
00000230: d5af b1bd 5379 2d3c d701 08bf d79a 96bf
00000240: 92de ebbd f236 8bbe e087 9cbe 5992 793f
00000250: b5ed 1f3d 6da7 8ebf b240 223e 56bb af3d
00000260: 5b6c 383f 081f 023f d726 d73e dd4f 3f3f
00000270: 1cf9 00bf f866 273f 67d3 79bf a7b4 293c
00000280: 0ca4 d2be 1827 11bf 2b70 7f3e 01a1 7b3e
00000290: f9d9 a63e 4cc2 1cbe fc58 88be 04eb 6bbe
000002a0: 5286 3f3f 59ff 17be 0ce3 373f 775e 67be
000002b0: eb04 c33e 4dde da3e 59ae 123d c2e6 72bf
000002c0: 7fa5 393f ff5c 893c a248 a6bf 022e debd
000002d0: f233 453f d17e bebe 847c 72bf 10b9 2e3d
000002e0: 86f5 9b3c 0008 a9bd 3795 263e 5b47 1fbe
000002f0: a46a 23be 8f44 58bd e89c d33e 275b 93bd
0.117293745 -0.03646718 0.031471055 -0.37730792 -0.017800659 -0.08206429 0.20717715 0.008816865
-0.012504663 -0.13639042 0.27680472 0.15564995 -0.20029715 -0.5813835 -0.26411593 0.49923092
-0.524111 0.46128842 0.44439635 0.23590851 0.22347346 -0.123431474 -0.3758226 -0.38724652
0.23062228 -0.07586332 0.20141041 0.4654534 0.34794298 0.5763538 -0.60006684 0.17894627
0.7299549 0.21634373 -0.12051703 -0.09209725 0.4640824 -0.6371863 0.54609096 0.30619007
0.26994726 -0.49569562 -0.086628206 -0.45202097 -0.49521226 -0.036601435 0.2330277 0.01373152
0.49992502 0.16286348 0.40733618 0.84167653 0.9339907 -0.99092907 0.7243337 -0.24859573
-0.8632611 0.4242492 -0.36408535 0.21400802 0.017395873 0.06511156 0.2280892 -0.12116671
-0.32083362 -0.43134725 0.5709771 0.6444486 -0.41418967 -0.7937462 0.7168319 -0.68228114
0.6809586 0.42308924 -0.56533265 -0.18602498 -0.22676985 0.5189577 -0.19554192 0.32701248
0.34792134 -0.078802064 0.25697374 -0.45162198 0.10363873 0.2904457 0.31573364 0.3524126
0.24097344 0.6756366 0.3133153 0.35667253 0.5216707 0.051662184 -0.5570508 -1.0729545
-0.33079717 -0.20960847 -0.32002515 -0.03572392 -0.02198536 -0.028597806 -0.5571816 -0.54458743
1.6045814 0.17138149 0.34166804 0.40682006 0.015965005 0.22975728 0.49140596 0.34574288
-0.032696053 0.113963805 -0.26507312 -0.9506649 -0.5203122 -0.15325658 -0.14732839 -0.036890533
-0.33620906 0.36714363 -0.5844129 0.65437204 0.1566436 0.9447681 -0.16921626 0.68176585
0.57898337 0.10791572 -0.5091275 0.30102408 -0.32284495 0.078179814 0.39686495 -0.5342157
0.045883365 -0.8252192 0.1201638 0.21225555 -0.086761154 0.010588008 -0.5312781 -1.1766003
-0.11517061 -0.27190357 -0.30572414 0.97488934 0.039045054 -1.1144844 0.15844992 0.08580653
0.7204034 0.508286 0.4202182 0.74731237 -0.5038011 0.6539149 -0.975882 0.010358012
-0.41140783 -0.5670028 0.24945132 0.24573137 0.32588175 -0.15308493 -0.2663039 -0.2303887
0.7481433 -0.14843501 0.7183082 -0.22594629 0.3808969 0.42747727 0.035810802 -0.9488336
0.7251815 0.016767977 -1.2990916 -0.10848619 0.7703239 -0.37206128 -0.94721246 0.042656958
0.019037973 -0.08253479 0.16267858 -0.15554564 -0.15958649 -0.052799758 0.41330647 -0.0719512

affine_layers.0.bias f4 [64]
00000000: 2d9a 0b3f d7e6 62bf 6783 133f 0176 d1be
00000010: 19bc 1fbe 62dc 503e b354 eb3e 2565 d3be
00000020: e255 cc3e f456 bf3e 369a 86be 3891 aabd
00000030: fe16 2dbe 7a82 5a3d 70a4 a6be 8cf4 2b3e
00000040: 8749 e73e 76e5 a0bd 4493 b93e 59ec 903c
00000050: e73d 82be 8f0c c6be c6ae 813e d02e 95bd
00000060: e62c 08be 6a86 15bd c046 e8be 3dc0 cabe
00000070: 0d09 d63e 3603 143f e7a7 ae3e 65f2 983d
00000080: 1294 4ebe 8c39 ce3e 3301 e63e 4835 d93e
00000090: 1cd3 b7be dfd9 373f bbe1 4abf 5865 17bf
000000a0: bdc7 5d3d f4b1 cabd 356c 45bf bc87 08bf
000000b0: 8f63 a1be d5b7 9e3e 4d1c 173f 71d7 dc3e
000000c0: 185d d1be b803 e7bb 07f4 ae3e 5c9a b83e
000000d0: bd5e 263e e486 7b3b 4e86 aa3e c403 5a3c
000000e0: 0c2c 783c 573d a6be 0805 c93e f45b 283e
000000f0: 19e2 a73e ba99 8cbe aac7 c33e 288d 3a3e
0.5453213 -0.88633484 0.5762238 -0.40910342 -0.15599097 0.2039657 0.45963058 -0.41288105
0.39909273 0.37371027 -0.2628953 -0.083284795 -0.16903302 0.05334709 -0.3254733 0.16792506
0.45173284 -0.07856266 0.36245167 0.017690824 -0.25437853 -0.38681456 0.25328654 -0.072843194
-0.13298377 -0.03650514 -0.45366478 -0.3959979 0.4180378 0.578174 0.34112474 0.07468108
-0.20173672 0.4027828 0.4492279 0.42423463 -0.3590325 0.7181682 -0.7925069 -0.59139013
0.054145563 -0.09897223 -0.77118236 -0.53332114 -0.3152127 0.30999628 0.5902756 0.4313312
-0.40891337 -0.007050004 0.34170553 0.36055267 0.16247077 0.0038379962 0.3330559 0.013306562
0.01514722 -0.32468674 0.3926165 0.16441327 0.32789686 -0.27461034 0.3823827 0.1821791

affine_layers.1.weight f4 [64, 64]
00000000: bd5b 72bd 4481 84be 042b 1abd c257 a73d
00000010: 2358 c93d 5dca 38bd c158 c9bd c0b0 e53d
00000020: 756a da3d 19f8 ca3d 4491 513d 3136 3d3c
00000030: ffd8 d7be 95d1 0f3d 6dc8 e33d f3e5 11be
00000040: e031 36be 4271 8d3d dc3e e53d aa77 ef3d
00000050: 4259 f43d e939 0e3d ee0b 643d 381a ab3d
00000060: 9396 153e c385 473e 1e6d 193e 3106 da3d
00000070: b5df eabe 0608 f43d b8ec 4e3c 2a3e 48be
00000080: fddf 49be dbff 8c3d bc27 4b3e eef7 ecbc
00000090: 1187 17be 83a7 a33c 3c7c eb3d b968 923e
000000a0: 4fd1 853e 5425 1d3e 9827 ddbd ed11 ccbe
000000b0: 9803 ab3b fa04 a8be a232 49be c3ce 363d
000000c0: 0c85 7e3d bd24 51be da87 b4bc ce0c c23d
000000d0: 0859 41be d650 d5bd 2319 403e 056b 223e
000000e0: 4608 9fbe e102 863d 0406 9c3e 7f3e bcbd
000000f0: dd73 3a3e 45b9 a93c acb4 a03d 185b c13e
00000100: 8c86 e93d 0ff1 01bf 1678 4fbe 04c3 76bc
00000110: 4129 043e 0565 8cbe 8f47 063e 3f1b e1bc
00000120: 0a59 9fbe 1ad5 303d 9348 85bd 7443 9d3d
00000130: 9f52 9dbd d1e9 85be a72f 1dbe bfc4 d2bd
00000140: c137 973e aa05 373e d5ea fd3d da82 6fbe
00000150: bc0d 5f3d b20d 63bd 0b5d 673e 3354 a33c
00000160: a509 e5bd ca24 4c3e 269a e73d ec87 653c
00000170: bd33 8bbe 583b dfbc 9136 353c 8b9f 6e3e
00000180: 6445 7f3e 6cf0 45be 6cde 643d 4a62 6c3e
00000190: dda4 9b3d 4c62 32bd f125 4a3e b919 3e3e
000001a0: 4209 f1ba e7d0 54bb ca62 273d 222e 063e
000001b0: 363c 55be f211 f6bd f254 15be ffe7 82bd
000001c0: 74cd 23bf 2cd9 8abe 8fa0 29bc f111 2cbe
000001d0: 6ba1 823e 89ca 173d 33b4 02be 031c 1fbe
000001e0: 2438 053e 3fef f9bd 0240 143d 56b2 023e
000001f0: eb68 5dbd d42b ccbc 17ba 67be 0422 dfbc
00000200: 1a25 30bc b6f5 89bd dae0 c3be d824 2bbe
00000210: fc23 d1be 4753 863d 3b73 113e 109b 7e3d
00000220: d6d9 d5bc 1360 9d3d 63ca 083e 7d5c 2dbe
00000230: 732a a53d 28d9 803d abe7 bb3e 3499 62bd
00000240: 2a31 743d 7e22 5cbe 5c4a c1be da64 dd3d
00000250: 1fa9 93bd f9a8 193d 3a76 33bd eb1e acbd
00000260: 6fdb 3abe 3345 b1be 12c1 65bc 2bfd cabb
00000270: 6213 e83d b071 153e e8e1 643e 6108 c3bc
00000280: 14e9 8f3b d490 45be 4c61 d1bc b1ba 18be
00000290: 7010 87be 4c69 a43d 536e 263e e177 22bd
000002a0: c947 e9bd f86a cb3a 74c2 c73d 73e5 a3be
000002b0: 564f d0be c962 aebc 4a6b b2bd ddf2 acbd
000002c0: 38e5 3dbe d246 d9bc e906 3abe 92b3 f8bd
000002d0: 68e6 7cbd d6b7 ef3b b52f 1ebe 2e5b 623e
000002e0: 2825 943e 21a7 9b3e 1f8f 113e 3d4d c9bd
000002f0: 0552 6d3d 1951 aebd 7416 b43e b612 eabd
00000300: 0989 b7be 7e92 2a3e b803 b5be 6b31 263e
00000310: 064e 693d 1a82 4abd 4e2c 023e a6cd 0f3e
00000320: 55cf 2cbe d053 1bbe 55bd 00bd c091 e7bd
00000330: e223 efbd 48b7 b33d df74 e83e 054f 36be
00000340: 3453 b7bc 385d 0f3f 0df8 08be d82f 80bd
00000350: b373 5ebe 4e08 663e 0503 803e 2e42 b9bd
00000360: 3301 0cbb 7c94 2fbe 8eb6 cb3e fa8e c53e
00000370: 31b5 c8be 20bc 10be 3bba 9bbe 11ae f93e
00000380: b51f 693d 317e 34bd 73b7 2abf 0952 05bf
00000390: db81 2c3e e1a5 9fbe 8bc8 79bd c525 8d3e
000003a0: ed66 4abe 1682 013e 8deb 0d3e 4a73 6cbe
000003b0: 14a7 48be 26b9 cc3c 8cad 39bc a2bd b13d
000003c0: 5bf4 fb3e 0422 c53c 29a5 3bbe 09ce d2be
000003d0: 842e 7cbe 819d 033f 51e0 06be b216 58be
000003e0: 0856 c33d 44c5 aabe a2c1 a6bd cac7 a73e
000003f0: 3600 8c3d 453c b83e b64c 0c3c a33a eabd
-0.05916952 -0.25879872 -0.03763868 0.08171035 0.09831264 -0.045114864 -0.098313816 0.11215353
0.10664836 0.09910602 0.051163927 0.011548565 -0.42157742 0.035111982 0.111222126 -0.14247875
-0.17792463 0.06906368 0.1119363 0.11692746 0.11931087 0.034723196 0.05567544 0.0835461
0.14608221 0.1948462 0.14983031 0.10645712 -0.458738 0.11915593 0.01262968 -0.19554964
-0.19714351 0.06884738 0.19839376 -0.028926816 -0.14797617 0.019977337 0.11498305 0.28595522
0.26136252 0.15346271 -0.107985675 -0.39857426 0.0052189343 -0.32816297 -0.19648221 0.044630777
0.062138602 -0.20424171 -0.022037435 0.094750986 -0.18881619 -0.10415809 0.18759589 0.15861137
-0.31061 0.06543518 0.3047334 -0.09191608 0.18208261 0.020718226 0.078469604 0.37764812
0.11402616 -0.5075845 -0.20260653 -0.015061144 0.12906362 -0.27420822 0.13113235 -0.027478812
-0.3112262 0.04317198 -0.06507983 0.07678881 -0.07681774 -0.2615495 -0.15350209 -0.102914326
0.29534724 0.17873254 0.12398306 -0.2338976 0.054456457 -0.055432983 0.22594087 0.01993761
-0.1118348 0.19935909 0.11308698 0.014009457 -0.2718791 -0.027249977 0.011060373 0.23303048
0.24928814 -0.19329995 0.05587618 0.2308437 0.075998046 -0.043550774 0.19741036 0.185645
-0.00183896 -0.0032473148 0.040865697 0.13103536 -0.2082375 -0.120151415 -0.14583185 -0.06391906
-0.6398537 -0.27118814 -0.010353222 -0.16803719 0.25513777 0.037058387 -0.12764053 -0.1553803
0.13009697 -0.12203836 0.036193855 0.12763342 -0.054055136 -0.024923243 -0.22629581 -0.0272379
-0.010751033 -0.06736319 -0.38257486 -0.16713274 -0.40847766 0.06558853 0.14204113 0.062159598
-0.026104849 0.0768434 0.13358454 -0.16929813 0.08064737 0.06291419 0.36700186 -0.055321887
0.0596172 -0.21497533 -0.37752044 0.108102515 -0.07209992 0.03751466 -0.04381392 -0.08404335
-0.1824777 -0.34623107 -0.014023082 -0.0061947308 0.11331822 0.1459415 0.22351801 -0.023807706
0.0043917987 -0.19293529 -0.02555909 -0.14914967 -0.26379728 0.08027896 0.16253023 -0.039665107
-0.11390645 0.001551955 0.09753886 -0.32010993 -0.4068553 -0.021287339 -0.0871187 -0.0844476
-0.18544471 -0.026523028 -0.18166699 -0.12143625 -0.06174317 0.007315616 -0.15447886 0.22105095
0.28934598 0.30400947 0.14214753 -0.09829185 0.057939548 -0.08511562 0.3517338 -0.1142935
-0.35846737 0.16657445 -0.353544 0.16229789 0.056959175 -0.04944048 0.12712213 0.14043292
-0.16875966 -0.1516869 -0.03143056 -0.113070965 -0.11676766 0.087751925 0.45401666 -0.17803581
-0.022378542 0.56001616 -0.13375874 -0.062591255 -0.21723823 0.22464105 0.25002304 -0.09045826
-0.002136302 -0.17146486 0.39787716 0.38585645 -0.39200738 -0.14134264 -0.3041552 0.48765615
0.056915004 -0.044065658 -0.6668617 -0.520783 0.16846411 -0.31181243 -0.06098227 0.27567878
-0.19765826 0.1264728 0.13859387 -0.23090854 -0.19594985 0.02499063 -0.011332881 0.08678748
0.49209866 0.024064071 -0.18324722 -0.41172817 -0.2462712 0.51412207 -0.13171507 -0.21102408
0.095378935 -0.33353627 -0.08142401 0.32769614 0.06835978 0.35983482 0.008563211 -0.11436965

affine_layers.1.bias f4 [64]
00000000: ce5a dbbc ade0 653b c781 dd3d 0f0a 84be
00000010: 0321 a53e 1820 4d3e c52b d73d c2c8 91bd
00000020: e561 06be 6c1e b43d 525f 0ebd 20a6 41bb
00000030: 6cf4 b63c 87e2 adbe 2a2e b3bd 603d 93be
00000040: ec82 30bb b79b 9fbd 6bae 4fbe c996 8ebe
00000050: 1694 cbbe 0a4f 003e 0bba 49bc 04dc 3abe
00000060: e7cb 18be 83a0 05bd 3963 6cbd c23c 3b3e
00000070: e90e 4c3e 3d4b cb3e 8c0c 0d3e 1149 b03e
00000080: 7a8a ebbd 1eb5 fdbd 63e2 91be a239 2b3c
00000090: be97 e8bd 69aa 3c3e 05ff c2bd 7154 cc3d
000000a0: 41d9 fb3d 2d21 203d 87cc 41bd 5ae3 c23d
000000b0: 9de5 adbe d4f4 8b3e 4219 ebbd 563c 8bbd
000000c0: 88f6 f5bd 1ed5 e53c 1c15 e03c 0ba8 0ebe
000000d0: dfa2 e2bd 1df7 453d f779 a4bd 1b2c b2be
000000e0: 11d3 67be d252 263d a98d 9f3e bfaf b7bc
000000f0: 36da 903e 3d6c 5a3e 33d0 703c cce7 97be
-0.026776697 0.0035076544 0.10815769 -0.25788924 0.32251748 0.20031774 0.10506395 -0.0711837
-0.13123281 0.08794865 -0.034758873 -0.002954848 0.022333346 -0.3396189 -0.087490395 -0.28757763
-0.0026933504 -0.07793372 -0.20281379 -0.27849415 -0.39761418 0.12530151 -0.0123124225 -0.18247992
-0.14921533 -0.03262378 -0.057711814 0.18284896 0.19927563 0.3970584 0.13774318 0.34430745
-0.11501022 -0.12388061 -0.28493032 0.010450752 -0.113570675 0.18424381 -0.09521297 0.099770434
0.12297297 0.03909414 -0.047314193 0.0951602 -0.33964244 0.27335227 -0.11479427 -0.067986175
-0.12009913 0.028055724 0.027353816 -0.13931291 -0.110662214 0.04833137 -0.080310754 -0.34799275
-0.22639109 0.040606327 0.31162766 -0.02242267 0.28291482 0.21330352 0.014698076 -0.29669034

final.weight f4 [1, 64]
00000000: 3144 b43c e05c 103c bb3c a6bc 3d73 a93e
00000010: 163e 79be 5689 e2bd dd03 28bd 5bd1 60bc
00000020: b5df a73e d98b 163f d2c2 cd3b 851e e5bd
00000030: b16f 9b3e 4a9e 61be af5e acbe b45a f13d
00000040: 5561 2fbc 5432 a03e dc83 733d 27b6 653e
00000050: 0198 823e a038 6c3e 7fda 303b f65d 69be
00000060: 63c9 4f3d da5c 0b3c 260e 173d d765 8fbe
00000070: 8aa2 033e 5068 723d cfe5 87bd 7cf8 a8bd
00000080: 23bc 23be b79d 883e ff83 0a3e dda6 0dbe
00000090: 2a3d 22bb ede3 403e b84b 013d dccd 023f
000000a0: 33ed f138 abe1 a03e 0236 16be 80e9 243e
000000b0: 0f88 163e 3c67 d63e b0d8 5d3e 821f bb3b
000000c0: 5c8d 093c b15c 7d3d e4e3 b5bc f4da a1bc
000000d0: 9c42 013d 9237 0c3e ba54 2a3c 993e a3bd
000000e0: 25aa 88be 6a03 6cba ad26 e03d 8562 03bd
000000f0: 7552 0dbe 81ae 26be ecf0 7dbe 26dc 543d
0.022005172 0.008811206 -0.02029263 0.33095732 -0.2434009 -0.11061351 -0.04101931 -0.013721789
0.32787862 0.5880714 0.006279328 -0.11187462 0.3035865 -0.22033039 -0.33665988 0.117848784
-0.010704358 0.31288397 0.059451923 0.22432767 0.25506595 0.23068476 0.0026985703 -0.2278975
0.050729167 0.008506024 0.036878727 -0.28007385 0.12854972 0.05918151 -0.066356294 -0.0825052
-0.15989737 0.26682827 0.13526915 -0.13833185 -0.0024755695 0.18836947 0.03156635 0.51095366
0.00011535957 0.3142217 -0.1466904 0.16104698 0.1470034 0.41875637 0.21664691 0.005710543
0.008395519 0.061855976 -0.022203393 -0.019757725 0.031557664 0.13693073 0.010396177 -0.07970924
-0.2669231 -0.0009003194 0.10944877 -0.032076377 -0.13800986 -0.16277505 -0.24798936 0.051967762

affine_layers.0.weight f4 [64, 3]
00000000: 16ac 19be b238 bcbe 61f4 2bbf 5b34 803d
00000010: 886d 3b3f 9ea8 ef3e d164 26be f53a dfbe
00000020: c40c 33bf be33 88be b0c8 d4be 731c 5bbd
00000030: bb1e 1ebd 1ee4 09be f651 d53e b852 a7bd
00000040: 38ed 07bf f4e3 0e3d 6a09 a63e 327f 043f
00000050: ad53 92bc 374d 33bc 2c1a 04bf ace5 9dbe
00000060: 0248 e93d 15a6 793f 2774 b93d d24b efbe
00000070: 7633 3ebf 3aa8 2b3e db6e fc3c 7f98 533f
00000080: 6427 0b3f 214e d33e 4a1d 473e d5d9 153f
00000090: 031c bb3e 45e1 1cbe 36ea ffbe b6c3 58be
000000a0: 61cd f9bd f405 f2be 758d 4fbd 5793 2dbe
000000b0: 97dc c8be 0a35 4abc 4e6f 133e ca06 313e
000000c0: d0c5 fe3e dedf 89be 78d5 b33e 8fbb 87bd
000000d0: ecf7 11bf df73 4fbf 477d 11be df73 b83e
000000e0: efdf 443f fbb9 163e 2be1 083e f429 253f
000000f0: 87a2 68be 3107 673e d6c9 dcbe abef 853e
00000100: 72b3 5ebe c552 523f f639 15bf 0fb4 f5bc
00000110: ed7b b13e 0d88 adbe bc12 b13e 6b38 66be
00000120: 6d98 433e ed69 623e 1df6 afbd 51fc d6be
00000130: 7af8 48bc 2e26 d13e 7871 d03e 9ab3 4ebe
00000140: 2f2c 32bf 3b88 bfbd e54a 3e3e f79b dabe
00000150: 5364 763e 36ae ed3e 3543 433f 62cb 013f
00000160: 2601 a33d 387c 0f3f 9b9f e53d e2ee 573f
00000170: 3018 f73e e741 07be 1ec4 693e afa8 2c3f
00000180: 63a2 1bbf b26c 9dbd a8e5 263e d7bb eebd
00000190: 6930 50bf 6e22 84bd fe15 e73e 5126 f7bd
000001a0: ae0d bc3e c6e5 aebc 88c6 ba3e 80c4 113f
000001b0: 851b ab3e 8c0a 41be d8ab da3e ce00 f43e
000001c0: be03 0ebe 2a13 a8be 7216 acbe bada c13e
000001d0: 6aa8 abbd 4cd4 51bd 3096 91bf 3560 45be
000001e0: cbb7 2a3f 7a39 2c3e 1222 25be 5697 02bf
000001f0: 025b d3be 7fca 423f 951c 84be 0008 4bbe
00000200: fd21 06bf 99e3 203f 1797 fd3d b1a2 b7be
00000210: ca22 abbc 8563 1e3f 6a8b c13e 94f7 953d
00000220: 255f a6bd 5990 f2be 6dca 243f 05da 08be
00000230: 4a62 15bf adf4 48bd ba00 d5be f8ca 25bf
00000240: 1d83 f0bd 4c91 79bd a8f5 ad3e fe3f c5be
00000250: 97f3 86be cae8 1ebf 9f6a 01bf 54e9 76bd
00000260: 857e 80be d884 8cbe 3038 3bbf 4ca7 113e
00000270: 9fe7 0e3f b8de c1bd 75e1 d13e 51be 73be
00000280: 0cec 06bf 3790 a2be 64e5 843d 0171 923e
00000290: de85 4b3f 8e4e 4f3e aff8 e9be 14ac 58be
000002a0: d1d0 adbd 2eef 93bf abba edbd d43f d83e
000002b0: 0da3 0e3e 0b00 1f3f 5679 143e d0e0 07bf
000002c0: 698c 70be 6958 083e 9a4c 2f3e 679c 6d3e
000002d0: ccb4 26be c6af 50bf a5b5 b23e ff11 c1be
000002e0: 1a28 a4bd da6d 96be 1fb4 2c3f 6659 a73d
000002f0: 8798 9abe a619 4cbf 50cc 013e ad8b 86bd
-0.15007052 -0.36762005 -0.6716977 0.06259986 0.73214006 0.46808332 -0.16249396 -0.43599668
-0.69941354 -0.26601976 -0.41559362 -0.05349393 -0.038603526 -0.13465926 0.41664094 -0.08170074
-0.5309634 0.03488536 0.32429057 0.51756585 -0.017862165 -0.010943702 -0.51602435 -0.30839288
0.113906875 0.97519046 0.090553574 -0.46737534 -0.74297273 0.16763392 0.030814579 0.82654566
0.5435698 0.41270545 0.19444767 0.5853551 0.3654481 -0.15320309 -0.49983376 -0.21168408
-0.12197376 -0.47270167 -0.050672013 -0.16950737 -0.39230797 -0.012341747 0.14397928 0.17287746
0.49760294 -0.2692861 0.351238 -0.06627571 -0.57018924 -0.8103618 -0.14207946 0.36025903
0.76904196 0.14719383 0.13367145 0.6451714 -0.2271825 0.22561337 -0.4312274 0.26159415
-0.2174814 0.82157546 -0.58291566 -0.029993085 0.3466486 -0.3389286 0.34584606 -0.22482459
0.19101115 0.2211072 -0.08591864 -0.41989377 -0.012266273 0.4084944 0.4071157 -0.201857
-0.6959867 -0.09352156 0.18583257 -0.42697117 0.24061708 0.46421975 0.76274425 0.5070096
0.079592034 0.5604892 0.11212083 0.8434888 0.4826064 -0.13208733 0.22828719 0.6744489
-0.6079466 -0.076867476 0.16298544 -0.11656921 -0.8132387 -0.064518794 0.45133966 -0.12067855
0.36729187 -0.021349799 0.36479592 0.5694046 0.33419433 -0.1885168 0.4270923 0.47656864
-0.13868615 -0.3282712 -0.33610874 0.37862188 -0.08381732 -0.051227853 -1.1373959 -0.19274981
0.66686696 0.168188 -0.16126278 -0.5101217 -0.4128037 0.76090235 -0.25803056 -0.1982727
-0.5239561 0.62847286 0.12382334 -0.3586631 -0.020890612 0.61870605 0.37801677 0.073226124
-0.08123616 -0.47375754 0.6437138 -0.13364418 -0.583531 -0.049061466 -0.41602117 -0.6476283
-0.11743758 -0.06092958 0.33976483 -0.38525385 -0.2635772 -0.6207396 -0.50553316 -0.060281113
-0.25096527 -0.27445102 -0.7313261 0.14223975 0.55822176 -0.09466308 0.40992323 -0.23803069
-0.5270393 -0.31750652 0.06489065 0.2860184 0.7950114 0.2024481 -0.45697543 -0.21159393
-0.08487094 -1.1557367 -0.1160787 0.42236197 0.13929386 0.6210944 0.14499411 -0.5307741
-0.23491062 0.13314976 0.17119065 0.23204194 -0.16279906 -0.8151821 0.3490421 -0.37709042
-0.08015461 -0.29380685 0.6746234 0.08171348 -0.30194494 -0.79726636 0.12675595 -0.0656961

affine_layers.0.bias f4 [64]
00000000: 1781 4bbe 87b0 033e 4ec2 4e3e 6f87 91be
00000010: cc03 643e d8ec 99be ee49 b8be f100 103e
00000020: 62b8 973e 053b 513e 53f6 953e 8d9d 313d
00000030: c3a5 9bbe 6a59 c2be 9fba eebe 63f6 103f
00000040: b333 a83d 1859 d83c a56c 113e b5a2 e8be
00000050: 0140 443f 6d9e a43e 9dee 21bd 97a0 2d3e
00000060: 96da 143f 80aa 053e 5f61 e83d 277a 2f3f
00000070: f30f fbbd 9821 233f c569 d83d 8ee7 51be
00000080: e2b7 75be c6bb a3be 1c51 e3bd c24b ccbe
00000090: 5754 f5be 85f1 d23e ca82 80bd ccc0 e9bd
000000a0: 3eb2 4cbc b533 1dbe 77fc 84be 1390 a83e
000000b0: 486f cc3a f64e 83be 483d b83e adae 03be
000000c0: e787 633e 60f7 123e 49d5 0abf fc3b a03d
000000d0: cbb9 5b3e c7d7 8dbd 492b 563e dd25 823e
000000e0: d5cb aabd 4b08 e0bd cf18 973e 9cde be3e
000000f0: 2e9c 38bd 3daa 0dbf e106 bc3d d2fb aebe
-0.19873463 0.12860309 0.20191309 -0.2842364 0.22267073 -0.3006351 -0.35993904 0.14062859
0.2963286 0.2043267 0.29289493 0.043363143 -0.30399904 -0.37958843 -0.46626756 0.56625956
0.08212986 0.02640967 0.14201601 -0.45436636 0.7666016 0.3215212 -0.0395342 0.16955791
0.58146036 0.13053322 0.11346697 0.68545765 -0.122589014 0.63723135 0.10567049 -0.20498487
-0.23995927 -0.31979197 -0.11099455 -0.3990155 -0.4791591 0.4119989 -0.06274946 -0.11413726
-0.012493668 -0.15351756 -0.25973865 0.3292242 0.0015597129 -0.2564618 0.35984254 -0.12859602
0.22219811 0.14352179 -0.542317 0.07823941 0.21457593 -0.06925922 0.2091495 0.25419512
-0.08339659 -0.10939082 0.29511115 0.37279212 -0.04507082 -0.5533789 0.091809995 -0.341765

affine_layers.1.weight f4 [64, 64]
00000000: 36f8 1a3e 5256 9dbe 22f0 513d 3eb6 bc3e
00000010: 5e26 1dbb dcd5 f23d 1e43 a9be 3897 0f3e
00000020: 1480 adbe 64a6 1d3e 6f18 98be 20b9 253e
00000030: 9274 6cbe f765 113e cea8 d1be fea5 8e3e
00000040: e1db bc3e 9fd7 773e 87bb 84bd 8a3a fabd
00000050: 29f3 0a3e bbb8 7e3e 588b 80be e430 15bf
00000060: d200 d6bc 30ec 543e 9fb3 863e 992e ea3d
00000070: 712b 133e 0803 553e 4c44 97be a3fa b43d
00000080: a6cc ccbe 40b1 913e 7e31 d93e 1d11 39be
00000090: 0e59 0b3d 1e32 013f 5782 93be 53bb d93e
000000a0: f783 f7bc cb38 f0be b361 a33e 5f0e dd3d
000000b0: a321 7e3c a526 583d 2cfe bc3d a8a9 a6be
000000c0: 889d a33d 64f5 a3be 311a 1ebe c3bd 4c3e
000000d0: c0ee f23e 3029 2d3d 4895 adbd 7f4a 09bc
000000e0: 9556 e43e 7ec2 d03d 566f f33e 0096 bfbd
000000f0: abb3 e73d 4b88 08bf 5c16 b9bd e1b3 1ebf
00000100: ff9b 13bd b8c9 213c c804 913e cb34 b9be
00000110: 204b 333e 49be 97be 5caa 71be 7232 a7be
00000120: 769f e33e c13f 29be d319 8cbd 2bfb 18be
00000130: 0cdc 973e 5913 82be 34a2 c2be 81f9 203f
00000140: 77db 18bd fc1b 80bd 4309 4fbe 9f66 c6be
00000150: e820 d83d 6f54 d53d 7e2d dabd 586b 81bd
00000160: afb6 bd3e 776b a5bd e0d5 693e f4d3 bc3e
00000170: ab92 55bd 8ffb 613f 4025 5c3e 37fd 7abd
00000180: d604 a4be c3f4 82be b846 97be 7e2f 4fbe
00000190: 913d 42bd 6d62 9c3e e19a fdbd 9bed 973c
000001a0: 4937 c8bd c3f8 0c3d f087 40be 4015 b23e
000001b0: 4ac6 5abe 33c9 46be 3a73 03bd b0fd 9c3e
000001c0: 29f2 823e 5aab 92bd bc06 00bf 5ad0 51be
000001d0: 34de e83d 3a38 debd 0743 c6bc 510e 143d
000001e0: 91a0 da3d 0e54 803d 4205 323e 78f6 7e3e
000001f0: 8395 b4bb 5cc5 23bf 6e09 ed3e ff90 d9be
00000200: 4815 11bf 5a25 563f 83fa 7cbf f369 9fbe
00000210: 5fce 15be 69f8 99bd 7478 893e 1f71 5bbe
00000220: bf78 383e ee58 1dbf 8b3b fa3e 870c 943e
00000230: 61b5 75be 5cf3 8bbe 1c17 36bf befe 963e
00000240: 7347 963e a21e 30bf b99e ce3e 63f4 1e3e
00000250: e45b b73c 3592 763d 9c9e a03e a5f3 553d
00000260: a7f5 833e 3fc3 5dbe 4609 a7be 02af c43d
00000270: fefb 543f 5da1 cd3c 83cf 083f 96c0 5a3e
00000280: 84a8 153d 28da d4be 5c8e 803d 818b a23e
00000290: 75e1 02be a9c2 983d 3063 bb3e 3341 87be
000002a0: 6ac0 8a3e 62e3 81bc 3c1f ecbe e54c e53e
000002b0: ab54 cb3e 198e 97be a7f7 25be 3f2a 0ebf
000002c0: 499c 793d b49f 43bf 178b 8dbe 9184 6fbe
000002d0: 8f51 493e 9f42 0bbf e9e0 ec3d 3e74 40bb
000002e0: 9179 37be 11ca 143f f310 c53d d782 77bc
000002f0: c7d2 7ebe 830f 1dbc c18f b2bc 7b44 083d
00000300: 9715 913c ce53 12bf b7ad 3dbe e4c7 5a3e
00000310: 1c00 7abe e2cb 0b3f 3257 64be 581a 053f
00000320: d83f 66bf 9d85 043f 199b 0abf cf13 b53e
00000330: 9241 a63e e2f4 4fbd 7134 043e eb01 703e
00000340: b624 25bd 5dfb db3d 698f bb3d 12f2 893e
00000350: c720 9fbe a681 adbd cf67 84bc 356d abbe
00000360: 4719 88be 3e44 03bc 02e3 49be be60 36bf
00000370: 9800 943e 2869 03bc 7b09 e8be 8a51 d0bd
00000380: 0643 3e3e 8455 8c3f 081b 943e 78e0 0bbf
00000390: d8e1 173f 6031 893d 05ed dbbd 6dca 503f
000003a0: 9af0 bbbe 5927 a23e 1cfc 03be f07c 9cbe
000003b0: b8e0 67be 8bb2 debd 9eb0 f93d 5721 b13e
000003c0: d16c b23e 4a61 3dbe 5402 8ebb 3dfe 243f
000003d0: a827 293e c74e ee3e c9b9 a1be 3c49 293e
000003e0: 51fe 393f bdc8 2d3e 5315 253e 8f29 9abe
000003f0: 1ac8 fa3e 2015 40be f329 80bd 0c3f 37bd
0.15133747 -0.3072992 0.0512544 0.3685779 -0.0023979167 0.11857197 -0.3305902 0.14022529
-0.33886778 0.15395504 -0.2970614 0.16183901 -0.23091343 0.14199053 -0.409491 0.27861017
0.36886504 0.24203347 -0.064810805 -0.12218197 0.1356932 0.24875157 -0.2510631 -0.58277726
-0.026123438 0.20793223 0.26308915 0.11434669 0.1437204 0.20801938 -0.29544294 0.08836868
-0.39999884 0.28455544 0.42420572 -0.18072934 0.034020476 0.504671 -0.2881038 0.4252573
-0.030214293 -0.4691833 0.31910476 0.10793757 0.015510949 0.05277123 0.09228167 -0.32551312
0.07989031 -0.32023156 -0.15439679 0.19994263 0.47447777 0.042275608 -0.08475739 -0.008379578
0.44597307 0.101933464 0.4754588 -0.09354782 0.11313566 -0.53332967 -0.09037468 -0.61993223
-0.03603744 0.009874754 0.2832396 -0.3617309 0.17509127 -0.29637364 -0.23600143 -0.32655674
0.44457597 -0.16528226 -0.06840863 -0.14939563 0.2966007 -0.25405386 -0.38014376 0.6288071
-0.037318673 -0.062553376 -0.20218377 -0.3875017 0.10553151 0.10416495 -0.10653208 -0.06319302
0.3705344 -0.08077138 0.22835493 0.36880457 -0.052141827 0.8827447 0.21498585 -0.06127664
-0.3203494 -0.25577363 -0.29546142 -0.2023296 -0.047421996 0.30543843 -0.123830564 0.018545916
-0.0977617 0.034416925 -0.18801856 0.34781837 -0.21364704 -0.19412689 -0.03209231 0.30662298
0.2557538 -0.07161589 -0.50010276 -0.20489636 0.11370507 -0.10850568 -0.024201883 0.036146466
0.10675157 0.06266032 0.17384818 0.24898708 -0.0055109872 -0.6397302 0.46296257 -0.42493436
-0.566731 0.83650744 -0.9881975 -0.3113552 -0.14629506 -0.075180836 0.2684971 -0.21429871
0.18014811 -0.6146382 0.48873553 0.28915808 -0.23994972 -0.27334106 -0.7112901 0.29491228
0.29351386 -0.6879674 0.4035547 0.15522914 0.022382684 0.060198028 0.3137101 0.05223431
0.25773355 -0.21656512 -0.32624263 0.096036926 0.8319701 0.025101358 0.5344164 0.21362528
0.036537662 -0.4157269 0.06277153 0.31747058 -0.12781318 0.074590035 0.36599112 -0.2641693
0.27099925 -0.015855495 -0.4611758 0.44785228 0.39713034 -0.296006 -0.16207753 -0.5553321
0.06094006 -0.7641556 -0.2764518 -0.23390414 0.19660018 -0.5439853 0.11566336 -0.002936616
-0.17917468 0.5812083 0.096223734 -0.015106878 -0.24885093 -0.009586218 -0.021797063 0.033268433
0.01771049 -0.57159126 -0.18523298 0.21365315 -0.24414104 0.54607975 -0.22298887 0.5199332
-0.8994117 0.5176638 -0.5414291 0.35366675 0.324719 -0.050770648 0.1291063 0.23438232
-0.040318213 0.10741303 0.09158213 0.26942497 -0.31079695 -0.08471994 -0.016162781 -0.33481756
-0.26581785 -0.008011876 -0.19715503 -0.71241367 0.28906703 -0.008020677 -0.45319733 -0.10171802
0.18580255 1.0963597 0.28926873 -0.5463939 0.59328985 0.06698871 -0.10738567 0.8155888
-0.36707002 0.31670645 -0.12889141 -0.3056407 -0.22644317 -0.10873898 0.1219189 0.3459575
0.34848645 -0.18494144 -0.0043337736 0.64450437 0.16519034 0.46544477 -0.31587055 0.16531843
0.7265368 0.16971107 0.16121416 -0.30109832 0.4898079 -0.18758059 -0.06258001 -0.04473786

affine_layers.1.bias f4 [64]
00000000: e64f 523e c6e8 e73e 8bc0 843d c614 05be
00000010: d1f5 953e cddb aa3d 4cf1 e7bb 36f9 423e
00000020: f577 46be 0f1e babe 49d7 bf3e 2602 32be
00000030: 5362 64be cba9 22be eab1 dc3d c5c0 43be
00000040: 083c 0dbd 0d10 1c3d 1a1f 48be 2bab 02bf
00000050: 059f 963e 38c7 66bd 1c52 6c3e 819e 52be
00000060: ca4f cbbe 883e 8ebe 360c f6bd 4392 48be
00000070: 104f b8bb 0433 be3a 0869 5c3e c0ca 8fbe
00000080: 984f fb3e 9a96 823d a5a9 ec3d a3b4 0abd
00000090: 8ba1 f0bd 59a3 313e 2a78 633e 36d1 12bd
000000a0: 5a9c 433e 3317 513e c909 813e ab52 91bd
000000b0: 57a4 da3d 2f5f 263e 8f6d c0bc 4ff0 8f3e
000000c0: b537 953d 606b b7be 974a cb3c 8318 b1be
000000d0: 795b e43d c5a7 e73b 145d dfbe 8835 823e
000000e0: 8b26 c33e 057d bfbc e68e 7cbe fbc1 1cbe
000000f0: 400a 5cbe 6b7e 303e 5187 373d 20f4 09bf
0.20538291 0.4529478 0.06482037 -0.12996206 0.29289106 0.08342705 -0.0070783254 0.19040379
-0.19381697 -0.36351058 0.37468937 -0.17383632 -0.22303133 -0.15885083 0.10776122 -0.19116504
-0.03448108 0.038101245 -0.19543114 -0.5104243 0.29418197 -0.056342334 0.23078197 -0.20568277
-0.39709312 -0.27782083 -0.12014048 -0.19587044 -0.0056246594 0.0014511053 0.21524441 -0.28084373
0.49084163 0.06376381 0.115557946 -0.033863675 -0.11749562 0.17347468 0.22213808 -0.03584405
0.19102612 0.20419006 0.25202778 -0.07095846 0.106758766 0.16247247 -0.023489742 0.28113028
0.07286016 -0.35824108 0.02481584 -0.34589013 0.111502595 0.0070695602 -0.436257 0.25431466
0.38115343 -0.023375044 -0.24663886 -0.15308373 -0.21488285 0.17235725 0.044806782 -0.5388813

final_mean.weight f4 [1, 64]
00000000: 28f1 11be c255 a03e 44e8 c9be 74a5 f7be
00000010: f5dd 66be f222 073f 9fd0 acbe 4302 6f3e
00000020: 4233 e23e c52b 05bf 8eec d1be 1d41 9e3e
00000030: 287d eabd 9f06 c73d c05b cf3e 7b84 713e
00000040: f708 383d daf7 323e 3eea 153f 5373 edbe
00000050: 580a cebe 1255 1e3d 6624 d2be 78b3 7ebe
00000060: 19a4 463e 6775 06bf f5d2 cf3e d036 993e
00000070: afae 873c 6ac3 27bc dc43 ec3e b82c 053f
00000080: 5c7b e83e d771 a1bd ae2c 56bc 4df5 e93e
00000090: d518 583e 6151 b53e bdfb 99be a9fc e93e
000000a0: 6195 7a3e f383 29bd 5aa0 263f aa75 843e
000000b0: e878 d93e 75d4 963e e4ca 9bbd d52b 59be
000000c0: a3b8 8c3e 1b7c 9fbe ddeb 0b3d 8621 e7be
000000d0: ed80 fbbe 3d21 843e 8d4e 0a3f a6a1 973e
000000e0: 25f9 e0be cd99 a4be 9bda 0d3f 3379 c33e
000000f0: 0c2b 803e 23e5 c13e 75e0 083e 74a1 fdbe
-0.1425215 0.31315428 -0.39435017 -0.48368418 -0.22545607 0.527877 -0.33752915 0.23340707
0.44179732 -0.5201991 -0.4100079 0.30909052 -0.11449653 0.0971806 0.40499687 0.23585694
0.044930425 0.1747736 0.5856055 -0.46377048 -0.40242267 0.038655348 -0.41043395 -0.2487315
0.19398536 -0.5252289 0.40590635 0.2992463 0.016562788 -0.010239461 0.46145523 0.5202136
0.45406616 -0.07883041 -0.013072176 0.45694962 0.21103223 0.3541365 -0.30074874 0.45700577
0.24471046 -0.041385602 0.6508843 0.2587102 0.42475057 0.29458967 -0.07607058 -0.21208127
0.27484617 -0.31149372 0.034160484 -0.45142764 -0.491218 0.2580661 0.5402611 0.29615515
-0.43940082 -0.3214859 0.5541169 0.38178405 0.25032842 0.3787013 0.13366874 -0.4953724

exp_avg f4 [64, 3]
00000000: e0a2 5e3a e666 35ba 027c 9239 bc16 f23a
00000010: a839 5539 9e8a a33a df75 b4ba 9557 ec39
00000020: 252a 1cbb 26d8 c73a a380 89b5 1b7e dc3a
00000030: 4328 5aba ac07 a739 9a74 a1b9 3ec9 3eba
00000040: 1d2b 00ba f17c bbb8 4d0b 963a a63c 48b9
00000050: c83d 7637 f045 873a 9c54 ff38 47eb 27ba
00000060: 0735 a9ba 0c28 9439 7b40 d1b9 3367 313a
00000070: 4e68 9db9 b78f 0439 3c71 0b3c 84eb 5bbb
00000080: 5c95 cf3b 7e7b 9bba 4d86 11b9 24e2 6bba
00000090: 3ffb 29bb fbdb bbba cd42 153a 5be4 57bb
000000a0: 5625 753a 9255 d6ba f307 f739 57b1 5a39
000000b0: b5fa afb9 ab5e f43a 1972 ef38 8bb4 b939
000000c0: b0e5 2dba f5fe 773a 5745 e5b9 e8e0 8ebb
000000d0: 3e73 293b 7316 a3ba fc08 08bc 29fc 543b
000000e0: b591 cabb aaec b3b9 9ca0 41b9 d3c5 4eb9
000000f0: b2b9 94ba 2f8a 9338 3713 933a 5c73 6a38
00000100: 8c71 843a 6067 82ba b99f 20bb e7c9 6a3a
00000110: bcce 9bba 2271 673a e3dd 0d3a 8f2a 85b9
00000120: 7f06 cfba 7f4a 853a 6864 cbba 6e26 583b
00000130: d903 aeb9 9a30 f83a 9259 3a3b e36d fcba
00000140: 512a 3f3b 5c21 86ba 0896 333a f197 09b8
00000150: 1897 59ba 9afa 7bb9 89b5 bd39 a46d f2ba
00000160: 352e 0439 84a3 9239 209c b43a 7a77 86b9
00000170: bbd7 ae39 7fb2 9aba 56fd ef3a b1e2 aeba
00000180: aba0 9139 6cb8 293a 261a f9b9 16ad 9cb9
00000190: b175 9039 6539 01ba 2098 8a3b 8321 c7ba
000001a0: ced5 c73a ea00 20b8 a325 09b7 a61b 083a
000001b0: 31bc a239 a2c3 0bba 2e12 363a c0fa 58ba
000001c0: f717 e939 b184 83ba 2fbc 8239 25b6 f736
000001d0: 74e2 a9b9 933f 0eb9 79e1 2239 7e30 af39
000001e0: 4de4 c63a 6de9 4e3a 2611 73b9 0bf1 a738
000001f0: 88b5 e839 4a06 49b9 0d86 223b d2ff 16bb
00000200: 0d8d df3a d413 d5b9 4e34 85b9 d0f5 9c38
00000210: 3f9c 163b 96f7 06ba 361e c23a 185a 9a39
00000220: e701 2bb8 9c41 82b8 4d08 fa38 e101 3f3a
00000230: f1f6 3dba 2c0a e33a 337c 4a3a 91dc 52ba
00000240: a9c0 9b3a 4cbb 87b7 bcd1 83b9 7e75 a4bb
00000250: 7128 7a3b 09c3 8dbb 7aba d0ba eb67 94b9
00000260: 3cae 9839 0fb9 003a ac13 d7ba 5e99 8d3a
00000270: 1b9b 4e3b 5225 d33a 49d6 3aba a825 72bb
00000280: 78d2 033b 87ee baba 51e6 9639 f37d 77ba
00000290: 6077 583a edf1 f6b9 cf97 613a d322 9cba
000002a0: 4fb0 4d39 32d7 4539 f161 efb8 898e dd3b
000002b0: 9d86 57bb 4faf a53b 3d21 9f39 1135 71b9
000002c0: c579 8bb9 f0d7 46b8 ff72 2538 6e07 e6b9
000002d0: f45f f3bb 94b4 7f3b bd78 bcbb d1ac 10bb
000002e0: 1efe 3d39 431f 5337 354e efb9 aaa6 83b9
000002f0: 15e5 a7ba 3573 c13a de4c 123a dae5 243a
0.0008492898 -0.0006919935 0.00027939683 0.001846991 0.00020334742 0.0012477224 -0.0013768038 0.0004507868
-0.002382883 0.0015246912 -1.0244734e-06 0.001682225 -0.00083220395 0.00031858438 -0.00030795188 -0.0007277912
-0.0004889237 -8.940127e-05 0.001144746 -0.0001909608 1.4677127e-05 0.0010320526 0.00012175107 -0.00064056035
-0.001290948 0.00028258597 -0.00039911628 0.0006767392 -0.00030023087 0.00012642039 0.008510884 -0.0033557126
0.0063349437 -0.0011862365 -0.00013878309 -0.0008998236 -0.0025937108 -0.0014332527 0.0005693853 -0.0032942507
0.0009351572 -0.0016352406 0.00047117434 0.00020856164 -0.00033565392 0.0018643936 0.000114176604 0.00035420465
-0.00066336524 0.0009460294 -0.00043729946 -0.004360307 0.0025856043 -0.0012442603 -0.008302923 0.0032498932
-0.0061819204 -0.0003431787 -0.00018465746 -0.00019719386 -0.0011346845 7.035245e-05 0.0011220936 5.5897384e-05
0.001010464 -0.0009949021 -0.0024509265 0.00089564774 -0.0011887173 0.0008828809 0.0005411787 -0.00025399445
-0.0015794783 0.0010169296 -0.0015517594 0.003298189 -0.00033190733 0.0018935383 0.0028434736 -0.0019258823
0.002916951 -0.001023333 0.00068506645 -3.280485e-05 -0.0008300408 -0.00024030582 0.00036184143 -0.001849581
0.00012605714 0.0002796912 0.0013779439 -0.0002564749 0.00033348598 -0.0011802464 0.0018309753 -0.0013342706
0.00027776262 0.00064743194 -0.00047512463 -0.00029883598 0.00027553507 -0.0004929512 0.0042295605 -0.0015192482
0.0015246214 -3.8147824e-05 -8.174599e-06 0.0005192108 0.0003103926 -0.0005331581 0.0006945458 -0.0008277111
0.00044459078 -0.0010034052 0.0002493574 7.382378e-06 -0.00032402913 -0.00013565859 0.00015533519 0.0003341473
0.001517424 0.00078930595 -0.00023180674 8.008078e-05 0.0004438574 -0.00019171197 0.0024799139 -0.0023040664
0.0017055586 -0.000406413 -0.00025406707 7.484446e-05 0.0022981314 -0.00051485875 0.0014810029 0.00029440294
-4.077135e-05 -6.211104e-05 0.00011922475 0.0007286352 -0.0007246575 0.0017321757 0.00077241956 -0.0008043731
0.0011882979 -1.6180471e-05 -0.0002514253 -0.005018889 0.0038171078 -0.0043262285 -0.0015924715 -0.00028306185
0.00029121514 0.00049103884 -0.0016409061 0.0010803153 0.0031525556 0.0016109145 -0.0007127268 -0.0036948714
0.0020114463 -0.001426176 0.0002878183 -0.000944107 0.00082575344 -0.00047101025 0.000860569 -0.0011912234
0.00019616004 0.0001886755 -0.00011414651 0.0067613763 -0.0032886632 0.005056299 0.00030351608 -0.0002300332
-0.0002660287 -4.7407986e-05 3.9446164e-05 -0.00043874554 -0.00742721 0.0039017545 -0.005751698 -0.0022075663
0.0001811911 1.2583859e-05 -0.000456439 -0.00025110441 -0.0012809361 0.0014759066 0.0005580912 0.0006290354

exp_avg_sq f4 [64, 3]
00000000: 6501 5036 3f0f a435 4797 3235 f0e8 c736
00000010: 64d6 5236 fd67 2e36 278d 3d37 b303 e736
00000020: 0726 e836 e1d5 d536 e640 0336 f368 6136
00000030: 04a1 5b35 e3a9 1f34 30f5 4934 9bc7 a635
00000040: 0598 a335 19bf 1b34 390b 8a35 ceb8 0d35
00000050: 6327 8b34 289f 4c36 7ca5 0136 e7bf 8a35
00000060: b958 0436 6846 9b35 9e19 0935 a8ad 3036
00000070: 3306 6536 f6e0 0636 f1df 3438 cebf ed37
00000080: 0a15 da37 ead9 f035 8fbb 6f35 9758 6035
00000090: 5c95 1f37 de10 7c36 e86b 8a35 4b0e 9236
000000a0: 469d a335 45f3 ab35 c8bc 2436 9b13 b535
000000b0: c332 2a35 5b4a 1136 161e f434 e055 7e34
000000c0: 7076 1436 da8f 4236 b3af e135 9462 2b37
000000d0: ffaa 9236 b050 5d35 6429 3c38 81f5 e637
000000e0: 2a68 e237 8163 1735 8023 dd34 4636 9734
000000f0: fa15 9036 a5f2 df35 46bb a735 ecf4 9035
00000100: c604 d935 ede6 5335 89d5 8a36 8f8f 7035
00000110: 3df6 da35 9f46 c035 4b42 2435 1083 8034
00000120: 68e1 f736 ddec 9536 69fe af36 50b5 df36
00000130: bd0e a335 5858 0236 11d6 2537 2f4e 1037
00000140: 8e16 0037 f960 c635 1499 2335 b751 1634
00000150: f09d e435 77f3 1d35 3d79 a734 7ea0 6f36
00000160: 5739 4f35 aef3 d334 e145 bb36 74f9 b636
00000170: e009 5f36 7ba7 6436 f314 8836 a368 c535
00000180: 4fbf 4535 646d 6f35 9873 0d35 1519 1135
00000190: c96e 2f35 6940 ae34 bf63 1337 b918 4c36
000001a0: 3f89 8b35 6d02 a236 5ea1 1136 2e5f 7b35
000001b0: da44 2a35 4702 7635 53c7 de34 a33a 0136
000001c0: 64f1 c235 e505 a535 b024 8a35 36eb a834
000001d0: 89e3 c734 6fba 9c35 1070 0135 5af1 0935
000001e0: 4e92 3136 f90a c035 388b 5834 8137 d136
000001f0: bc46 0137 ee6c b036 5fe3 be36 4dcb fc36
00000200: 07d5 6536 d476 0535 782e 2434 5a79 c633
00000210: 887c 5536 aaf3 bf35 a589 b735 4fb4 fb35
00000220: f27e c735 a8d0 a935 6ce5 2036 1bca 6735
00000230: 342b 1735 c850 9036 69ed b635 28b8 3d35
00000240: eb14 3a36 8e14 9e35 5db9 2335 1d88 c837
00000250: 4d48 c437 db40 9a37 ef30 9f36 2d91 2836
00000260: df78 3135 ba14 db35 bb7a 6536 2ba9 c935
00000270: 948f 4b37 1af0 a936 a4cc 8d35 f502 eb36
00000280: a9c3 9a36 bcd6 0036 708e 2436 5ad2 1b36
00000290: 363b f535 0a46 2136 00dd 3936 e5ae e835
000002a0: 2821 a635 e8f0 c835 beb4 9235 7f09 0138
000002b0: e995 b937 abd1 a937 8d59 b235 73d6 e333
000002c0: a9a1 b533 343c b635 e787 a733 860f 1234
000002d0: b7c5 0c38 9458 0438 409d bd37 a7e1 8f36
000002e0: 2962 b735 4056 ff34 4af2 9736 ae29 4636
000002f0: 5316 0b36 e5d9 0236 d37d 1a35 1a1a 0935
3.0995227e-06 1.2223389e-06 6.6530305e-07 5.9577796e-06 3.141723e-06 2.598855e-06 1.1298142e-05 6.884767e-06
6.9185658e-06 6.3727935e-06 1.9558297e-06 3.3588701e-06 8.1818166e-07 1.4869833e-07 1.8808782e-07 1.2426057e-06
1.218869e-06 1.4505021e-07 1.0285067e-06 5.279552e-07 2.5919425e-07 3.049101e-06 1.9318823e-06 1.0337652e-06
1.9721176e-06 1.1568891e-06 5.1073755e-07 2.6327125e-06 3.4127268e-06 2.00985e-06 4.3123906e-05 2.8341918e-05
2.5997422e-05 1.7944815e-06 8.930737e-07 8.357542e-07 9.511914e-06 3.7560744e-06 1.0313206e-06 4.352803e-06
1.2190219e-06 1.2811294e-06 2.454779e-06 1.3491257e-06 6.3403803e-07 2.1649964e-06 4.5470432e-07 2.3686835e-07
2.2122658e-06 2.8991985e-06 1.6814942e-06 1.0215346e-05 4.3710456e-06 8.244633e-07 4.486124e-05 2.7532458e-05
2.6989805e-05 5.639668e-07 4.1190287e-07 2.816543e-07 4.294093e-06 1.6685414e-06 1.2496973e-06 1.0800118e-06
1.6169149e-06 7.8939667e-07 4.1375793e-06 8.961587e-07 1.631393e-06 1.4325668e-06 6.119123e-07 2.3937218e-07
7.3874144e-06 4.4681206e-06 5.2450237e-06 6.6670254e-06 1.2148736e-06 1.9422932e-06 9.884608e-06 8.601272e-06
7.634646e-06 1.4780372e-06 6.094499e-07 1.3999566e-07 1.703329e-06 5.8841346e-07 3.1194386e-07 3.5707194e-06
7.719695e-07 3.9479113e-07 5.5811693e-06 5.453063e-06 3.3235337e-06 3.4072134e-06 4.0555547e-06 1.4708097e-06
7.366661e-07 8.919362e-07 5.2694804e-07 5.405321e-07 6.5353794e-07 3.245689e-07 8.785107e-06 3.041276e-06
1.0396251e-06 4.8282586e-06 2.1700612e-06 9.364329e-07 6.343013e-07 9.1645455e-07 4.149575e-07 1.925663e-06
1.452438e-06 1.2295174e-06 1.0292479e-06 3.1463577e-07 3.7232192e-07 1.1677165e-06 4.821932e-07 5.138769e-07
2.6460216e-06 1.4308308e-06 2.0167215e-07 6.235147e-06 7.705468e-06 5.25789e-06 5.6889107e-06 7.5338526e-06
3.4247657e-06 4.971928e-07 1.5290595e-07 9.242167e-08 3.181196e-06 1.4301525e-06 1.3674622e-06 1.8753434e-06
1.4863601e-06 1.2652208e-06 2.39754e-06 8.634831e-07 5.631475e-07 4.3009386e-06 1.3629152e-06 7.067597e-07
2.7728336e-06 1.17779e-06 6.099197e-07 2.390524e-05 2.3398688e-05 1.8388431e-05 4.744266e-06 2.5118454e-06
6.611353e-07 1.6322804e-06 3.4195098e-06 1.5024901e-06 1.2133172e-05 5.064544e-06 1.0564877e-06 7.00389e-06
4.6123355e-06 1.9198478e-06 2.4520814e-06 2.321924e-06 1.8271155e-06 2.4031638e-06 2.7695787e-06 1.7336248e-06
1.2377614e-06 1.4971274e-06 1.0930451e-06 3.076484e-05 2.2123526e-05 2.0244004e-05 1.3288096e-06 1.0609519e-07
8.457875e-08 1.3577578e-06 7.801264e-08 1.3602957e-07 3.3562737e-05 3.1553747e-05 2.2603781e-05 4.2880015e-06
1.3663131e-06 4.7560206e-07 4.528357e-06 2.952856e-06 2.0725608e-06 1.949834e-06 5.755257e-07 5.107446e-07

exp_avg f4 [64]
00000000: 2d3c 8db9 da72 54ba 2e67 333a 819d 01ba
00000010: 2f15 9a39 576a 8339 94a7 afb9 0522 adb9
00000020: 2b05 0f3a 12d5 a9b9 df28 5dbb 8737 013a
00000030: 986d 6a3a 12c1 913a 254d 55b9 b5e5 26ba
00000040: 3bbb a139 554e bb3a f4c8 533b ca3c 1439
00000050: f1d8 7739 55ce 2039 540a 4a3a 2662 96b9
00000060: f4b4 223a 1fc8 8fba a191 a0ba 412f a339
00000070: 17d4 9139 deb4 203a fa31 08ba b1a8 2c3a
00000080: 17d1 9bb8 995d 4239 7b6d acba a6a0 b538
00000090: d3ea 86b9 168d d239 90b9 8db8 a1e2 0f38
000000a0: 2a5d 05ba f1b8 17b9 c536 97ba 5c27 0039
000000b0: 8058 5dba 3727 9ab8 a736 9a35 0601 e8b9
000000c0: 0399 cfb9 fb46 0f3b 86dc 3d3a 5b0e d8b9
000000d0: b1bc 89ba 349b be3a d2d9 06b9 cfe7 9139
000000e0: 1ed6 aab8 d926 30bb d2fa f4b8 11c4 7a38
000000f0: 486c 4d3b a572 1a3a c1bf b939 241b e6b9
-0.0002693845 -0.00081042724 0.0006843683 -0.00049444294 0.00029388952 0.00025065496 -0.00033503457 -0.00033022478
0.0005455787 -0.00032392942 -0.0033746285 0.00049292337 0.00089427223 0.0011120162 -0.00020342002 -0.00063666265
0.0003084781 0.0014290313 0.0032315822 0.00014137026 0.00023636573 0.00015335654 0.00077072275 -0.00028683356
0.00062067737 -0.0010969675 -0.0012250432 0.0003112499 0.00027814574 0.0006130467 -0.00051954354 0.0006586416
-7.429922e-05 0.0001853615 -0.0013155186 8.660676e-05 -0.0002573343 0.00040159439 -6.757968e-05 3.430492e-05
-0.000508743 -0.00014469378 -0.0011536708 0.00012221694 -0.00084436685 -7.3505966e-05 1.14898e-06 -0.0004425125
-0.0003959612 0.0021862376 0.00072426384 -0.00041209426 -0.0010508505 0.0014542104 -0.0001286038 0.00027829266
-8.146114e-05 -0.0026878624 -0.000116815456 5.9787246e-05 0.0031345058 0.0005891717 0.00035428818 -0.0004388924

exp_avg_sq f4 [64]
00000000: 3bc1 c434 97f7 7135 d1cc ef35 10dd 4235
00000010: 6bfe c933 e3e9 3c35 d8ff 2c34 9320 1635
00000020: bf7e d534 d9eb 3c35 73fc 1137 8a87 c034
00000030: 6c61 b535 8c74 5f35 ceea c834 dca3 8534
00000040: ef0c 1035 1fec a935 b5c2 1737 5d16 1134
00000050: 3e57 0335 eede 6234 8d24 0f35 229f 5634
00000060: f5a9 ea35 dec9 9335 4bdf 1936 de6b c434
00000070: 0166 5334 8ab3 c634 8725 aa35 da70 6735
00000080: d6be 3b34 f4c1 7a34 94f6 ca35 0d11 3735
00000090: d6c6 8c34 139a d334 1f0b 3434 7fb8 3734
000000a0: a617 1335 6fca e435 c93d 2036 9a2f 9f33
000000b0: 9e83 1935 384b 1835 9c05 9f34 2c27 1535
000000c0: c697 c734 e3c1 eb36 99ef 5e35 003a 0d35
000000d0: d9dd 2136 adbc ad35 9f22 0d35 3c0c 8135
000000e0: 5335 b134 1ddc d436 a700 2f34 a531 3534
000000f0: a04d 1337 652c f434 3a42 4235 d53c ae34
3.664844e-07 9.0139787e-07 1.7866497e-06 7.259232e-07 9.40607e-08 7.037581e-07 1.6111824e-07 5.5926756e-07
3.9766562e-07 7.037866e-07 8.701451e-06 3.5861405e-07 1.3513904e-06 8.324357e-07 3.7423746e-07 2.4892404e-07
5.3663e-07 1.2660201e-06 9.045635e-06 1.3512313e-07 4.8928257e-07 2.1128992e-07 5.332484e-07 1.9988195e-07
1.7483823e-06 1.1011105e-06 2.292875e-06 3.658633e-07 1.9688015e-07 3.7011006e-07 1.2676909e-06 8.6218427e-07
1.7485158e-07 2.3353624e-07 1.5121936e-06 6.8197625e-07 2.6221704e-07 3.9413916e-07 1.6767852e-07 1.7110322e-07
5.479618e-07 1.704624e-06 2.3877822e-06 7.412673e-08 5.718847e-07 5.673387e-07 2.962014e-07 5.556383e-07
3.7177068e-07 7.026117e-06 8.3050105e-07 5.2610994e-07 2.4120002e-06 1.2944416e-06 5.2576974e-07 9.61481e-07
3.3007618e-07 6.343717e-06 1.6298382e-07 1.6874999e-07 8.779956e-06 4.5480843e-07 7.2367004e-07 3.2454287e-07
