ATLA_robust_RL/src/models/atla_release/ATLA-PPO/attack-atla-ppo-pendulum.-eps0.15-no-norm.model (torch, 249961 bytes, 66 tensors)

affine_layers.0.weight f4 [64, 3]
0	0x3effd033	0.4996353
1	0x3ee87184	0.45399106
2	0x3eb94fd0	0.36193705
3	0xbdb84d92	-0.0899917
4	0x3f35d3c5	0.7102626
5	0x3e92896e	0.28620476
6	0xbf809687	-1.0045937
7	0xbf3e71f8	-0.7439265
8	0xbedcd0b3	-0.43127975
9	0x3f46daaf	0.77677435
10	0x3fd733fc	1.6812739
11	0xbe4c754a	-0.19966617
12	0xbf3bbdd0	-0.73336506
13	0xbf4ac32d	-0.79204065
14	0xbea08c81	-0.31357196
15	0xbdd27581	-0.10276318
16	0x3d3b44c9	0.045719896
17	0xbe3b5a36	-0.18296131
18	0xbf8cff39	-1.1015388
19	0x3fe6c4ee	1.8028848
20	0xbe18e75e	-0.1493201
21	0x3f38caa9	0.72184235
22	0x3e9aa9c0	0.30207634
23	0xbecbe1e0	-0.39820766
24	0xbe4caf5a	-0.19988766
25	0xbdbab584	-0.091166526
26	0xbdcaaa9d	-0.09895823
27	0xb9a1fb3f	-0.00030895506
28	0x3efe2fa8	0.49645734
29	0xbe86e53b	-0.26346764
30	0x3dcbd993	0.09953608
31	0xbfa36f7c	-1.2768397
32	0xbedcc3f5	-0.43118253
33	0x3e88852c	0.26664102
34	0xbedca0ef	-0.43091533
35	0x3ddd4c9b	0.10805627
36	0xbf362cbb	-0.71162003
37	0x3f7a8dcc	0.97872615
38	0x3ea81fbc	0.3283671
39	0xbdbcd463	-0.09220197
40	0xbea8fff4	-0.33007777
41	0x3d2e23b8	0.042514533
42	0x3ead1e75	0.338123
43	0x3fac442b	1.3458303
44	0xbf13a958	-0.57680273
45	0xbc32b2b3	-0.010906863
46	0xbea5b991	-0.32368138
47	0x3e1efa1d	0.15525098
48	0x3efe7e43	0.49705705
49	0x3f87f528	1.0621691
50	0x3c187eb1	0.009307549
51	0xbecc490c	-0.3989948
52	0x3f99bdf7	1.2011098
53	0x3effaacb	0.49934992
54	0xbe1dc8b1	-0.15408589
55	0xbda884eb	-0.08228477
56	0x3d82ea57	0.06392353
57	0xbedd8c22	-0.43270975
58	0xbecde3dc	-0.40212905
59	0xbf4c8f5c	-0.7990625
60	0xbebfbfba	-0.37450963
61	0xbca85807	-0.020549787
62	0xbc0ae14a	-0.008476565
63	0xbe80aff0	-0.2513423
64	0x3e84dc71	0.25949433
65	0x3ea84c08	0.32870507
66	0x3ea4080a	0.32037383
67	0x3f380c42	0.71893704
68	0xbe96e57b	-0.29471955
69	0x3f108027	0.56445545
70	0x3f169288	0.5881734
71	0xbed77e38	-0.42088485
72	0x3de04f66	0.10952644
73	0xbe848824	-0.25885117
74	0x3d79f35d	0.061023105
75	0x3e9243f8	0.2856748
76	0x3fa2de8b	1.2724165
77	0x3ef51e2a	0.47874576
78	0x3fd16947	1.6360253
79	0xbe98a23f	-0.29811284
80	0x3c8a3c20	0.016874373
81	0xbe8ad420	-0.27114964
82	0xbd678170	-0.056519926
83	0xbdf712bc	-0.1206412
84	0xbf86075f	-1.0471
85	0x3f924c96	1.1429622
86	0x3efe81a1	0.49708274
87	0xbf96c85d	-1.1779896
88	0x3f45db62	0.77287877
89	0x3eb3812a	0.35059482
90	0xbf819503	-1.01236
91	0x3fa8507c	1.3149562
92	0xbe9a6666	-0.3015625
93	0x3f18814d	0.595723
94	0x3f0883da	0.5332619
95	0x3e954d7b	0.29160675
96	0xbf4705eb	-0.77743405
97	0x3f29e2ea	0.6636187
98	0x3ec4f0b3	0.3846489
99	0x3ebe3d91	0.37156346
100	0x3e52a28b	0.20569818
101	0xbd093a8e	-0.033503108
102	0x3f167f31	0.5878783
103	0xbed080e5	-0.4072334
104	0x3e3390f5	0.17535765
105	0x3f1a828c	0.6035545
106	0x3f0bf145	0.54665023
107	0x3e849f3c	0.25902736
108	0x3e7f5083	0.24933057
109	0x3fc9e98a	1.5774395
110	0x3e0d72de	0.1381335
111	0x3e467c59	0.19383372
112	0xbf55e563	-0.8355314
113	0x3ee9e579	0.45682886
114	0xbfbf4012	-1.4941428
115	0x3f398088	0.7246175
116	0xbe8ee635	-0.2791001
117	0x3f173ae0	0.5907421
118	0xbfb61e7f	-1.4228057
119	0x3e981e68	0.29710698
120	0x3e55e6ff	0.208889
121	0xbec787eb	-0.38970885
122	0x3d985115	0.0743734
123	0xbef2eed9	-0.4744785
124	0xc01f6f8d	-2.4911835
125	0x3da92090	0.08258164
126	0xbf6abfdd	-0.9169901
127	0xbf222f90	-0.63353825
128	0xbebb47d4	-0.36578238
129	0x3f6109f3	0.87905806
130	0xbf627507	-0.8845982
131	0xbeb6a96e	-0.3567614
132	0xbe51a80c	-0.20474261
133	0x3f4fbf0d	0.81150895
134	0x3e7b318e	0.24530622
135	0x3e65ea24	0.22452599
136	0x3f4b8222	0.7949544
137	0xbd024678	-0.031805485
138	0xbf6d9602	-0.9280702
139	0x3efa77b5	0.48919454
140	0x3ec742f7	0.38918278
141	0xbf8d4175	-1.1035601
142	0x3f784457	0.9697928
143	0x3efd463c	0.49467647
144	0x3f7ff8ac	0.9998882
145	0x3e4a0501	0.19728471
146	0x3ee53b68	0.44771886
147	0xbdf4063c	-0.119152516
148	0xbe63fa0f	-0.22263359
149	0x3d946a9b	0.07246896
150	0x3f86bb6e	1.0525949
151	0x3dcb5a43	0.099293254
152	0xbf17130c	-0.5901344
153	0xbe065631	-0.13118817
154	0xbd2f1f69	-0.042754564
155	0x3cae85e6	0.021304082
156	0x3eec40c7	0.4614317
157	0xbf555105	-0.8332675
158	0xbe488d2b	-0.19585101
159	0x3fa7cc10	1.310915
160	0x3f81968c	1.0124068
161	0x3dd9347d	0.106057145
162	0xbf9eabf2	-1.2396224
163	0x3e8e3c2f	0.2778029
164	0xbebf3364	-0.37343895
165	0x3d2967eb	0.04135887
166	0x3f1309fd	0.57437116
167	0x3c954b3c	0.018224351
168	0x3e3ace86	0.18242845
169	0xbf13d059	-0.5773979
170	0x3e4e4b02	0.201458
171	0x3f7c5a39	0.9857517
172	0x3f24de58	0.6440177
173	0xbebad20a	-0.36488372
174	0xbe965859	-0.2936428
175	0x3dbc0ca4	0.091820985
176	0x3d03edde	0.03220927
177	0xbf1ede34	-0.62057805
178	0x3e849c15	0.2590033
179	0xbec1aebc	-0.37828624
180	0xbf5ccb23	-0.8624746
181	0xbf0ea17e	-0.5571517
182	0xbe2da809	-0.16958632
183	0x3edddfe6	0.43334883
184	0xbe3ac51d	-0.18239255
185	0x3d812954	0.06306711
186	0x3e456caf	0.19279741
187	0xbe81c435	-0.25345007
188	0x3dcd1bfc	0.10015103
189	0xbe7b8e3c	-0.24565977
190	0x3dccee99	0.100064464
191	0x3cd6e28f	0.026231078

affine_layers.0.bias f4 [64]
0	0xbeae910c	-0.34095037
1	0x3f5fe050	0.8745165
2	0x3f3c5061	0.7356015
3	0xbf3070b1	-0.68921953
4	0x3e3ddf8c	0.18542308
5	0x3e0e631d	0.13904996
6	0x3df4d88f	0.11955368
7	0xbf592f0b	-0.84837407
8	0xbea57ada	-0.3232029
9	0x3ea65d73	0.3249317
10	0x3c9fa0eb	0.019485911
11	0x3f49cb92	0.7882625
12	0x3e14ccd6	0.14531264
13	0xbebf2612	-0.37333733
14	0x3d883a4b	0.066517435
15	0x3f6462c1	0.89213187
16	0xbe3c49d7	-0.18387543
17	0x3eb77506	0.3583147
18	0xbf029218	-0.5100417
19	0x3e99dd55	0.30051675
20	0xbf59074c	-0.8477676
21	0x3e6d38fe	0.23166272
22	0xbe8a2608	-0.2698214
23	0xbe5e657b	-0.21718399
24	0x3f2e3045	0.68042403
25	0xbf93fb67	-1.1561097
26	0x3f6d7f5f	0.9277248
27	0xbe868224	-0.26271164
28	0x3f3c2c7a	0.73505366
29	0xbe567771	-0.20944001
30	0xbd504440	-0.05084634
31	0xbea9faa9	-0.3319905
32	0x3f075553	0.5286457
33	0xbf02e9fd	-0.5113829
34	0x3d8279a1	0.06370855
35	0xbe5405b4	-0.207053
36	0x3f2aa9f2	0.66665566
37	0xbd9cb9c3	-0.07652619
38	0xbf5bed31	-0.859088
39	0xbe0b4720	-0.13601351
40	0x3f1d3c50	0.61420155
41	0xbed9efe2	-0.4256583
42	0x3f0ffbba	0.5624348
43	0xbe9bffb4	-0.30468524
44	0x3df04d82	0.117335334
45	0xbea67a8a	-0.32515365
46	0xbd0d8dc5	-0.03455903
47	0x3f666da4	0.9001105
48	0xbe1f9b25	-0.15586527
49	0xbeebae44	-0.46031392
50	0x3deba4bd	0.11506031
51	0xbf4d5087	-0.80201
52	0xbf0a896e	-0.5411595
53	0xbe210377	-0.15723978
54	0x3f207cf1	0.62690645
55	0xbeb3d890	-0.35126162
56	0x3edeeda6	0.43540686
57	0xbfabdcb3	-1.3426727
58	0xbea96d26	-0.33091086
59	0x3f660f02	0.8986665
60	0xbe38848f	-0.18019317
61	0x3f48bd77	0.784141
62	0x3f1bfc60	0.6093197
63	0xbf8d6e27	-1.1049241

affine_layers.1.weight f4 [64, 64]
0	0xbbe306c4	-0.0069282968
1	0x3f202b79	0.62566334
2	0xbe42c4b6	-0.19020352
3	0xbf4781b4	-0.77932286
4	0xbe24ddd6	-0.16100249
5	0x3dd0cd17	0.10195368
6	0x3e6a98f5	0.22909911
7	0xbed5d39f	-0.41763017
8	0xbeaf3495	-0.34219804
9	0x3ef51205	0.4786531
10	0xbddae7c5	-0.10688738
11	0x3df2560c	0.118328184
12	0x3f35184e	0.7074021
13	0xbeaedf4a	-0.3415473
14	0x3e7607f0	0.24026465
15	0x3f327a76	0.6971811
16	0xbd4230e0	-0.047409892
17	0xbd8a3455	-0.06748263
18	0xbe2b423c	-0.16724485
19	0x3c19a0dd	0.009376732
20	0xbf14e9ce	-0.5816926
21	0x3eb414e4	0.35172188
22	0xbec7cd5f	-0.39023873
23	0xbdff7626	-0.12473707
24	0x3eefead2	0.4685884
25	0xbeeecac7	-0.46639082
26	0xbf5ad2a1	-0.85477644
27	0xbef0c0c7	-0.47022077
28	0x3f304b85	0.68865234
29	0x3f844461	1.0333368
30	0xbe4a914e	-0.19781992
31	0x3e1f0992	0.15530995
32	0x3f5c7948	0.8612256
33	0xbf17888e	-0.5919274
34	0x3e897e50	0.2685418
35	0x3df5ed74	0.12008181
36	0x3f43ecac	0.7653301
37	0xbf19cc58	-0.6007743
38	0x3f84f840	1.038826
39	0xbe226cfe	-0.1586189
40	0x3d481193	0.048844885
41	0xbf49c5a6	-0.7881721
42	0xbc80e5e3	-0.015734619
43	0xbf8704f9	-1.0548393
44	0x3ed34a38	0.41267562
45	0xbf15baf5	-0.584884
46	0x3ecb8c30	0.39755392
47	0x3f9228cc	1.14187
48	0x3ec98da5	0.3936588
49	0xbeed6950	-0.4636941
50	0x3d75f6c6	0.060049795
51	0xbe9a6574	-0.30155528
52	0xbfba773d	-1.4567639
53	0xbda51157	-0.08059948
54	0xbf00cca8	-0.5031228
55	0xbed1184d	-0.40838853
56	0x3e5bfd63	0.21483378
57	0xbf50bc1e	-0.81537044
58	0xbec31562	-0.3810225
59	0x3e1d2a13	0.15348081
60	0x3e1d33a1	0.15351726
61	0x3c024680	0.007951379
62	0x3e0dde80	0.13854408
63	0x3b56dba9	0.0032784736
64	0x3e316290	0.17322755
65	0x3e16bfc5	0.14721592
66	0xbe89073c	-0.26763332
67	0x3db1a9d1	0.08674968
68	0xbed386a2	-0.41313654
69	0x3e67db0c	0.22642154
70	0x3e5d78d2	0.2162812
71	0x3e95678b	0.2918056
72	0xbdef6f53	-0.11691155
73	0xbd9d08bf	-0.07667684
74	0x3cc5c013	0.02413944
75	0x3e5cce3c	0.21563047
76	0xbe068ccb	-0.13139646
77	0xbe929c5f	-0.28634927
78	0xbeb7c706	-0.3589403
79	0x3d37e7f8	0.044898957
80	0x3cc5468f	0.024081497
81	0xbebda6a6	-0.37041205
82	0xbdb59b09	-0.08867461
83	0xbf106edc	-0.5641916
84	0xbedc0361	-0.42971328
85	0xbdabb2d2	-0.08383717
86	0x3d93fcc9	0.07225949
87	0xbe024b5c	-0.1272406
88	0x3e953ab1	0.2914634
89	0x3d06628a	0.032808818
90	0x3eb48a54	0.35261786
91	0xbeb68251	-0.356463
92	0xbeb062fe	-0.34450525
93	0xbeac07d8	-0.33599734
94	0x3ec6fb75	0.3886372
95	0xbd6dda55	-0.058069546
96	0xbe0a4e05	-0.13506325
97	0xbecb9f04	-0.39769757
98	0xbdd8d5b9	-0.10587639
99	0x3e9dd38d	0.30825463
100	0x3e833b74	0.25631297
101	0xbe1b9703	-0.15194325
102	0xbe06ec48	-0.13176072
103	0x3c0e2246	0.008675164
104	0x3ec80da4	0.39072907
105	0xbef58c9f	-0.47958848
106	0x3dc6e764	0.09712103
107	0x3edb624a	0.42848426
108	0xbe6a84c5	-0.2290221
109	0xbe0c28b5	-0.13687404
110	0xbe3c379a	-0.18380585
111	0xbf6066da	-0.8765694
112	0x3f0f69e9	0.5602098
113	0xbe60e0e0	-0.21960783
114	0xbe9db6e7	-0.30803606
115	0xbdc78753	-0.09742608
116	0xbca2ee01	-0.01988888
117	0x3e4e44af	0.20143388
118	0xbdf2eff7	-0.11862176
119	0xbeed72bc	-0.46376598
120	0x3e0bb006	0.13641366
121	0x3e8d4df4	0.27598536
122	0xbd9aa0d2	-0.07550205
123	0xbe9c6d3b	-0.30552086
124	0xbe743c98	-0.2385124
125	0x3e958714	0.2920462
126	0x3f34e9ad	0.7066906
127	0xbecb62ad	-0.3972372
128	0x3f5b255c	0.8560388
129	0x3eb60f29	0.3555844
130	0xbd8c2179	-0.06842322
131	0xbe1099e0	-0.14121199
132	0xbf3e492c	-0.743304
133	0xbf14815a	-0.58009875
134	0x3d6b02cd	0.057375718
135	0xbf09e41a	-0.5386368
136	0xbeb189bb	-0.34675393
137	0xbe0027e0	-0.12515211
138	0x3e1b6758	0.15176141
139	0x3f265bb6	0.6498369
140	0xbf258ab3	-0.64664763
141	0xbdb17a34	-0.086658865
142	0x3ec06e52	0.37584168
143	0x3e77f275	0.24213584
144	0x3cfac6c4	0.030612357
145	0xbe286196	-0.16443476
146	0xbe209576	-0.15682015
147	0xbd12cd32	-0.03584022
148	0xbeb39598	-0.35075068
149	0xbd80cd11	-0.06289113
150	0xbe19f4fd	-0.15034862
151	0x3ed0e055	0.40796152
152	0x3f0781d4	0.52932477
153	0xbf082900	-0.5318756
154	0x3fe26e95	1.7689997
155	0xbf0e77ca	-0.55651534
156	0xbef0468b	-0.4692882
157	0xbf2e76cb	-0.68150014
158	0xbf01e7c1	-0.50744253
159	0x3e0e6b97	0.1390823
160	0x3c26c245	0.010178153
161	0xbe5fcb26	-0.21854839
162	0x3f8711cd	1.0552307
163	0x3f2a21d0	0.66457844
164	0x3e9c4b76	0.30526322
165	0x3e73f1e9	0.2382275
166	0xbf9ed7e8	-1.2409639
167	0x3f0a1a85	0.53946716
168	0x3eda4ae2	0.42635256
169	0xbd951287	-0.072789244
170	0xbee2810c	-0.4423908
171	0x3f439cda	0.7641121
172	0x3eb551ee	0.3541407
173	0xbe984f83	-0.29748163
174	0xbf0457a2	-0.5169622
175	0x3e789a44	0.24277598
176	0x3f01061e	0.5039996
177	0xbe9f2baa	-0.31088
178	0x3fa63ecb	1.2987913
179	0xbed1f145	-0.41004387
180	0x3c15c199	0.009140396
181	0x3ebc7a9b	0.3681229
182	0xbef408b1	-0.4766288
183	0xbe9c186f	-0.3048739
184	0x3e7fff0b	0.24999635
185	0xbf24a1f9	-0.6430965
186	0xbef5b542	-0.4798985
187	0x3e8a0ff5	0.269653
188	0xbf1cc37c	-0.61235785
189	0x3ef8f5c7	0.48625013
190	0x3f25970c	0.64683604
191	0xbf465af4	-0.77482533
192	0xbf1ad160	-0.6047573
193	0x3c3e7e92	0.011626856
194	0x3e5f6e28	0.21819365
195	0xbf049281	-0.5178605
196	0xbe92ef6b	-0.28698286
197	0x3edfb42b	0.43692145
198	0x3f01e833	0.5074493
199	0x3ef0b5b6	0.47013634
200	0xbeffda14	-0.49971068
201	0x3ef3f053	0.4764429
202	0xbe8b70bc	-0.27234447
203	0x3f425ce8	0.75923014
204	0xbe87d6ac	-0.2653097
205	0xbfb360ea	-1.4013951
206	0xbec7aecc	-0.39000547
207	0x3e378c3c	0.17924589
208	0xbe946160	-0.2898054
209	0xbe1a8aef	-0.15092061
210	0xbeee8a40	-0.4658985
211	0x3e948635	0.29008642
212	0xbef04c21	-0.46933082
213	0x3ebe42cd	0.3716034
214	0xbe05ee79	-0.13079251
215	0xbd0fb1b7	-0.03508159
216	0x3ef88ab8	0.48543334
217	0xbdfeacc7	-0.124352984
218	0xbda2be70	-0.07946479
219	0x3e091116	0.13385424
220	0xbe77617f	-0.24158286
221	0xbec1bf4a	-0.37841254
222	0x3da5efab	0.08102354
223	0xbd693dbe	-0.056943648
224	0x3e023c55	0.12718327
225	0x3bd1c9c6	0.006402227
226	0xbed95d91	-0.42454198
227	0x3e12d3d2	0.14338616
228	0x3f01e926	0.5074638
229	0xbed08f0d	-0.4073414
230	0xbe50d46a	-0.2039353
231	0xbf08358b	-0.532067
232	0x3d9250a0	0.07144284
233	0xbf307f0c	-0.6894386
234	0x3e378604	0.17922217
235	0x3e211a03	0.15732579
236	0x3ddc482b	0.107559524
237	0xbefd5366	-0.4947769
238	0xbd77a513	-0.06046016
239	0xbeefcec5	-0.4683744
240	0xbdc2f82d	-0.09519992
241	0xbf11dd7b	-0.5697858
242	0xbe247329	-0.16059555
243	0xbf3b7aa3	-0.73234004
244	0x3dad3c8c	0.08458814
245	0x3d9b6b05	0.07588772
246	0x3f10f3f8	0.56622267
247	0xbeba804b	-0.36426005
248	0x3eac0f0e	0.33605236
249	0xbe9cef19	-0.30651167
250	0xbd1acefb	-0.03779505
251	0x3ea166f3	0.31523857
252	0x3dbac805	0.09120182
253	0x3f176d5f	0.5915126
254	0x3eafcbde	0.34335226
255	0xbf360cbd	-0.7111319

affine_layers.1.bias f4 [64]
0	0x3eb24b3c	0.34823024
1	0x3ed7ae87	0.4212534
2	0x3e51bba4	0.20481735
3	0x3f161e56	0.5864004
4	0xbeff341a	-0.49844438
5	0xbdcb26ef	-0.09919535
6	0xbda50cf5	-0.08059112
7	0xbde61425	-0.11234311
8	0xbe1f45db	-0.15553991
9	0xbde6c89f	-0.11268734
10	0xbea46eed	-0.3211588
11	0xbedcc888	-0.43121743
12	0x3cb643ee	0.022249188
13	0xbedd0973	-0.43171272
14	0x3dacc8b7	0.08436721
15	0x3f07fe16	0.5312208
16	0x3e30ac55	0.1725324
17	0xbeb1fc44	-0.34762776
18	0x3d1d8a50	0.038461983
19	0xbf0f1aa1	-0.5590001
20	0x3e9963d6	0.2995898
21	0xbe85485b	-0.26031765
22	0xbd202330	-0.039096057
23	0xbe1a52c3	-0.15070634
24	0x3ee8d4bf	0.45474812
25	0xbee87c6c	-0.45407426
26	0x3eb578ab	0.35443625
27	0x3e9c5e77	0.3054082
28	0x3eba1539	0.36344317
29	0x3eafe549	0.34354618
30	0xbe4ec100	-0.20190811
31	0xbdaa39a6	-0.08311777
32	0xbd4530b7	-0.04814216
33	0x3ba13871	0.0049200584
34	0xbea389f2	-0.3194118
35	0x3e150a87	0.14554797
36	0x3e3d2db9	0.18474473
37	0x3e43754f	0.19087718
38	0xbe87e181	-0.26539233
39	0xbeb33f1f	-0.35009095
40	0xbf1fc537	-0.624103
41	0x3f17b895	0.59266025
42	0xbe1fa1d2	-0.15589073
43	0x3de12f53	0.109953545
44	0xbe7d3f8a	-0.2473127
45	0xbce0363c	-0.027369611
46	0xbe38e9cf	-0.18057941
47	0xbeed4f72	-0.46349674
48	0x3ecdc0b2	0.40186077
49	0xbf03b316	-0.5144514
50	0xbebd28d3	-0.3694521
51	0xbe1aa0fb	-0.15100472
52	0x3e0cb1ca	0.13739696
53	0x3e898561	0.26859573
54	0x3ec28430	0.37991476
55	0x3e139228	0.14411223
56	0x3eceb890	0.40375185
57	0x3ca369dd	0.01994794
58	0xbf02053f	-0.50789255
59	0x3f02c338	0.5107913
60	0xbe13d029	-0.14434876
61	0xbcc73216	-0.024315875
62	0xbeaed92a	-0.34150058
63	0x3a9329ed	0.0011227705

final.weight f4 [1, 64]
0	0xc0ebd168	-7.3693123
1	0xc0f57f4d	-7.6717896
2	0x410c2c6c	8.760845
3	0xc0f00ceb	-7.501577
4	0x40f38e74	7.6111393
5	0xc101d1df	-8.113738
6	0x40fafad5	7.843119
7	0x410534d2	8.325396
8	0x40fcd905	7.9014916
9	0xc0f3dada	-7.6204653
10	0x40efb743	7.491121
11	0x40f753b2	7.7289667
12	0x4105ce21	8.362824
13	0xc11abe2a	-9.671427
14	0x40fee984	7.9660053
15	0x41077caa	8.467936
16	0xc0f44077	-7.6328692
17	0x40f646d0	7.696144
18	0x40f6344e	7.693885
19	0x40fd4105	7.914187
20	0xc0eeabf4	-7.4584904
21	0x40fe7d2c	7.95278
22	0x41030430	8.188522
23	0xc0f23dc8	-7.5700417
24	0xc0f07a79	-7.5149503
25	0x410ed71c	8.927517
26	0xc0f2bc8b	-7.5855155
27	0x410456b2	8.271166
28	0xc0f06be3	-7.51317
29	0xc10cdcee	-8.803938
30	0x40fb7a6e	7.858695
31	0xc0eea849	-7.4580426
32	0x410b829c	8.719387
33	0x40fb1469	7.8462415
34	0x41147c28	9.280312
35	0x40f241a2	7.570512
36	0xc12a0675	-10.626576
37	0x4104b956	8.295248
38	0x40f082b3	7.5159545
39	0x40fc581f	7.885757
40	0x40ea5f6e	7.324149
41	0x4120a0a6	10.039221
42	0x40fef934	7.9679203
43	0xc0e48402	-7.141114
44	0x40e77796	7.233348
45	0xc100d0e8	-8.0510025
46	0x410f1c78	8.94445
47	0x40ed2ed9	7.4119687
48	0xc0f0aee7	-7.5213504
49	0x41022198	8.133202
50	0x40f4b390	7.6469193
51	0x40fd9412	7.924325
52	0xc0e56e14	-7.1696873
53	0xc1165555	-9.395833
54	0xc0eb7178	-7.357601
55	0x410756ef	8.458724
56	0xc0e97b25	-7.2962823
57	0x40f4af0a	7.646367
58	0x40e5a9c9	7.1769757
59	0xc0f50533	-7.6568847
60	0xc1147aa2	-9.27994
61	0x40e0897c	7.0167828
62	0x40efc35b	7.492597
63	0xc0e1d053	-7.05668

affine_layers.0.weight f4 [64, 3]
0	0x3f16c07a	0.58887446
1	0xbf1701f1	-0.5898734
2	0xbe124b84	-0.1428662
3	0xbdcbe8bd	-0.09956501
4	0xbf6e9810	-0.9320078
5	0x3daffdf4	0.085933596
6	0x3e1dd72d	0.15414114
7	0x3ebee30e	0.37282604
8	0x3f2c482b	0.6729762
9	0xbd83db90	-0.064383626
10	0x3ebd71a9	0.37000778
11	0x3f161eea	0.5864092
12	0x3d4a97d2	0.049461193
13	0x3f85841b	1.043094
14	0xbc77a1ae	-0.015114231
15	0xbedb196e	-0.4279284
16	0xbe361453	-0.1778119
17	0xbd9629dc	-0.07332203
18	0xbeb05b75	-0.34444776
19	0x3f1c0d7f	0.60958093
20	0x3e4978c5	0.19674976
21	0x3dea7f40	0.11450052
22	0xbe082ea6	-0.13299045
23	0xbf14fd9b	-0.5819947
24	0x3f007135	0.5017274
25	0xbc184449	-0.009293624
26	0xbd8b2bc1	-0.06795455
27	0xbf011842	-0.5042764
28	0x3e93118c	0.28724325
29	0x3de56137	0.11200183
30	0xbe46ea5c	-0.19425339
31	0x3f8efad2	1.1170294
32	0x3f505d9f	0.81392854
33	0x3e03a72e	0.12856743
34	0x3f8076e4	1.0036283
35	0xbc111709	-0.00885559
36	0x3ea2cb3f	0.3179569
37	0xbec2e3af	-0.38064334
38	0xbd75cb1f	-0.060008164
39	0x3e427fbe	0.18994042
40	0x3f46f212	0.7771312
41	0xbd5d6324	-0.054049626
42	0x3eab60ea	0.33472377
43	0x3f251ea7	0.64499897
44	0x3e3e5b97	0.18589626
45	0xbee60441	-0.4492512
46	0x3eea0970	0.45710325
47	0x3e3aa8e0	0.18228483
48	0xbe5b5eca	-0.21422878
49	0x3f4ab794	0.7918637
50	0x3e4e9c17	0.20176731
51	0x3b226902	0.0024781828
52	0xbe2338c8	-0.15939629
53	0xbf2493fb	-0.642883
54	0x3e29108a	0.16510215
55	0x3f440758	0.76573706
56	0x3e5227c3	0.2052298
57	0xbf30cf54	-0.6906636
58	0xbe28f04e	-0.16497919
59	0x3d2a0d97	0.041516867
60	0x3e3f209d	0.18664785
61	0x3e8d5c9c	0.27609718
62	0x3f3cdb5f	0.73772234
63	0x3effecb3	0.49985275
64	0xbf12f95d	-0.5741175
65	0xbe4eb595	-0.20186456
66	0xbf5f5123	-0.8723318
67	0x3f2f2948	0.68422365
68	0xbda99f7a	-0.08282371
69	0xbe65f849	-0.22457995
70	0xbf2b5479	-0.6692577
71	0x3d6ce178	0.05783221
72	0xbf2d8a48	-0.67789125
73	0xbe829dc5	-0.25510994
74	0x3afdd111	0.0019364675
75	0x3dbcb7fb	0.09214779
76	0x3f2be020	0.6713886
77	0x3e1a7316	0.15082964
78	0xbdb48282	-0.08813955
79	0x3ec66bd4	0.3875414
80	0xbece2008	-0.40258813
81	0xbdf0e7e5	-0.1176298
82	0x3f48b9cc	0.78408504
83	0x3e1d080b	0.153351
84	0xbebd2355	-0.3694102
85	0x3efdda10	0.4958043
86	0x3e03e04a	0.12878528
87	0xbf8826ce	-1.0636842
88	0xbe6f1515	-0.23347886
89	0x3d67a640	0.056555033
90	0x3f351320	0.7073231
91	0xbeceec48	-0.40414643
92	0xbe348d3f	-0.17632006
93	0xbf05da32	-0.52286065
94	0xbed3d300	-0.41371918
95	0xbe4b81ec	-0.1987378
96	0xbe1a8c0a	-0.15092483
97	0x3cec6221	0.028855385
98	0x3f0bf011	0.5466319
99	0xbedeb828	-0.43499875
100	0x3f03d015	0.51489383
101	0x3e446b1a	0.19181481
102	0x3df50727	0.11964255
103	0x3f538a80	0.8263321
104	0x3e3a469e	0.18191001
105	0xbf2c0bc5	-0.6720546
106	0xbf1b5759	-0.60680157
107	0x3cce4b49	0.025182383
108	0xbdb2caf3	-0.08730116
109	0x3f13a094	0.576669
110	0xbddf2a15	-0.108966984
111	0x3f22147b	0.633125
112	0xbe7682b1	-0.24073292
113	0xbe293c9b	-0.16527025
114	0xbe2beb77	-0.16789041
115	0x3f6ea812	0.93225205
116	0x3f68540a	0.90753233
117	0xbdc34079	-0.095337816
118	0xbf339c7a	-0.7016064
119	0xbdf2e460	-0.11859965
120	0x3d8109b5	0.063006796
121	0x3f3c0888	0.7345052
122	0xbdf3dda6	-0.119075105
123	0x3f0a17ff	0.53942865
124	0xbbbdd9b0	-0.0057937726
125	0x3ebd020e	0.3691563
126	0x3f85cd3e	1.045326
127	0xbd66527b	-0.056231003
128	0x3e140f4e	0.14458963
129	0x3e34b5e7	0.17647515
130	0x3f34f315	0.70683414
131	0x3e3cb76b	0.18429343
132	0x3f00cb8e	0.503106
133	0xbe2d8f04	-0.16949087
134	0x3d5f4dde	0.05451762
135	0xbef345eb	-0.4751428
136	0x3d8a63ff	0.06757354
137	0xbef2d081	-0.474247
138	0x3e3e4b47	0.18583404
139	0xbf3f5cce	-0.74750984
140	0xbe3e7e73	-0.18602924
141	0x3d28bc86	0.041195415
142	0x3f1057be	0.56383884
143	0x3e00f29a	0.12592545
144	0xbe326aea	-0.17423597
145	0xbcc17cbf	-0.023619054
146	0x3efebec2	0.49754912
147	0xbd3397ed	-0.04384606
148	0x3f5aa1f2	0.8540336
149	0x3e8ae4ff	0.27127835
150	0xbd7c16d3	-0.061545204
151	0x3ee60c7f	0.4493141
152	0x3f234979	0.63783985
153	0xbf062beb	-0.52410764
154	0x3df4ce9b	0.11953469
155	0x3be8c183	0.0071031465
156	0x3f4d34b7	0.8015856
157	0x3eca16a9	0.39470413
158	0x3e4c9487	0.19978534
159	0x3da1286e	0.078690395
160	0xbef48132	-0.47754818
161	0xbdbcf1e3	-0.09225824
162	0xbf01f7aa	-0.5076853
163	0x3e17d2bb	0.14826481
164	0x3d9d0a59	0.07667989
165	0x3f2e38b6	0.68055284
166	0x3e8b0589	0.2715266
167	0x3ef37886	0.4755289
168	0xbd906227	-0.07049971
169	0x3f534c1d	0.82538015
170	0x3e3f6626	0.1869131
171	0x3f24f36d	0.6443394
172	0xbe4162ea	-0.18885389
173	0x3b481ed6	0.0030535958
174	0xbe888009	-0.26660183
175	0xbd90dbc5	-0.07073168
176	0xbee79285	-0.45228973
177	0x3ee7d4ad	0.45279446
178	0xbf2c8812	-0.67395127
179	0xbe65d06b	-0.22442786
180	0x3baba606	0.0052382974
181	0xbf4f13ba	-0.80889475
182	0xbe3c925d	-0.18415208
183	0x3e9d464f	0.30717704
184	0xbf2dcd65	-0.6789153
185	0xbe32cf48	-0.17461884
186	0xbe08acf9	-0.13347234
187	0xbb54b175	-0.0032454405
188	0xbddb9fc0	-0.10723829
189	0x3eb8bb05	0.36080185
190	0xbf346855	-0.704717
191	0xbd01ed94	-0.031720713

affine_layers.0.bias f4 [64]
0	0x3c0c970a	0.008580932
1	0xbef4c2a2	-0.47804743
2	0x3e3e71d5	0.18598111
3	0x3de9f808	0.11424261
4	0x3dd3a0f2	0.10333432
5	0xbeb9089b	-0.36139378
6	0x3e73a6fd	0.2379417
7	0x3dee5748	0.11637741
8	0x3e8b1ca1	0.2717028
9	0xbd415706	-0.047202133
10	0x3d726925	0.059182305
11	0x3d8d0452	0.0688559
12	0x3e468aaf	0.19388841
13	0x3e9af41f	0.30264375
14	0xbe4fa874	-0.20279104
15	0x3e327aa9	0.17429604
16	0x3db74a02	0.08949663
17	0x3bab9e0a	0.0052373456
18	0xbe6405eb	-0.22267883
19	0xbde34f48	-0.11099106
20	0x3eb5b69c	0.35490882
21	0xbe2a3c7a	-0.16624632
22	0xbd76eb32	-0.060282893
23	0xbebbb4ee	-0.36661476
24	0xbe0d78ac	-0.13815564
25	0xbe12e80c	-0.14346331
26	0x3ed6e6bf	0.4197292
27	0x3dad8829	0.08473236
28	0x3df10ef5	0.11770431
29	0xbe041c34	-0.12901384
30	0xbdbbd0e7	-0.09170704
31	0x3e991478	0.2989843
32	0xbc9e6194	-0.019333638
33	0x3e78db35	0.24302371
34	0x3dd46925	0.10371617
35	0x3c7b6870	0.015344724
36	0x3ef0b8de	0.47016042
37	0xbe94edcf	-0.29087684
38	0x3dc19a36	0.094532415
39	0xbd89b37e	-0.067236885
40	0x3ec286c5	0.37993446
41	0x3e9c9489	0.30582073
42	0xbd9fabaa	-0.07796414
43	0xbe1ea7ee	-0.15493748
44	0x3f14c275	0.5810922
45	0xbeb6d691	-0.35710576
46	0xbd9d8e3f	-0.07693147
47	0x3e631084	0.22174269
48	0xbe3f3016	-0.18670687
49	0x3df3d309	0.11905486
50	0xbdf1e4aa	-0.11811192
51	0xbecec542	-0.4038487
52	0xbe78a77e	-0.24282643
53	0x3e1ba84d	0.1520092
54	0xbe9246d8	-0.28569674
55	0x3efd9a59	0.4953182
56	0x3db2168d	0.086957075
57	0x3e9f0033	0.3105484
58	0xbec01ac3	-0.37520418
59	0xbe1c30e7	-0.1525303
60	0xbce8479c	-0.028354459
61	0xbe382af2	-0.17985132
62	0x3f4f82db	0.81059045
63	0x3e71ce71	0.23613907

affine_layers.1.weight f4 [64, 64]
0	0x3e606715	0.21914323
1	0xbed0341f	-0.40664765
2	0xbe84f199	-0.25965574
3	0xbe9c0702	-0.30474097
4	0xbd55146d	-0.052021433
5	0xbe280150	-0.1640675
6	0xbd8574e6	-0.06516437
7	0xbe208503	-0.1567574
8	0x3f1ba4fe	0.60798633
9	0xbefe073e	-0.496149
10	0xbf28ca35	-0.65933543
11	0xbdfef455	-0.124489464
12	0x3ea73b68	0.3266251
13	0x3e978824	0.29596055
14	0x3da61c0d	0.08110819
15	0xbf1de366	-0.6167511
16	0xbe70f181	-0.23529626
17	0x3d82cdd3	0.06386914
18	0x3df4d8e5	0.11955432
19	0xbec6de81	-0.38841632
20	0xbeaf16c8	-0.34197068
21	0x3ed3b7a8	0.41351056
22	0xbf2a7adb	-0.6659371
23	0xbec7391d	-0.3891076
24	0xbdaa23b2	-0.083075896
25	0x3e455f11	0.19274546
26	0xbe72875f	-0.23684452
27	0xbe125080	-0.14288521
28	0xbed3e781	-0.4138756
29	0xbf66af28	-0.9011102
30	0x3f085b47	0.5326428
31	0xbecdc9e7	-0.40193102
32	0xbe35af1d	-0.17742582
33	0xbebf0ec4	-0.37315953
34	0xbe858d83	-0.26084527
35	0xbec67312	-0.38759667
36	0xbdcd0f76	-0.100127146
37	0x3ed0b718	0.4076469
38	0xbea272c6	-0.3172819
39	0xbd7f3cf6	-0.062313996
40	0x3e9fbc2d	0.31198254
41	0x3e47fb0d	0.19529362
42	0x3f0ff24a	0.5622908
43	0xbd32efc6	-0.043685697
44	0x3ea09b7e	0.3136863
45	0x3e479b26	0.19492778
46	0x3e64cd00	0.22343826
47	0xbcce0767	-0.025150014
48	0xbe390aaa	-0.18070474
49	0x3e01ab75	0.12663062
50	0xbeac2578	-0.33622336
51	0xbef3f28f	-0.47645995
52	0x3e93b258	0.28847003
53	0x3e913b75	0.28365675
54	0xbf07ea18	-0.53091574
55	0xbdadc2c2	-0.08484413
56	0xbea4d6af	-0.3219504
57	0x3d959d64	0.073054105
58	0x3a210b80	0.0006143376
59	0x3ead0fd0	0.33801126
60	0x3ca88192	0.020569596
61	0x3d8f7b38	0.07005924
62	0xbd5afd40	-0.053464174
63	0x3e7337cf	0.23751758
64	0x3f0729f1	0.5279837
65	0x3eb1d9ca	0.34736472
66	0xbe388d3e	-0.1802263
67	0x3c6688da	0.014070714
68	0xbf3d6ba1	-0.73992354
69	0x3ea809b2	0.32819897
70	0xbf1dcad2	-0.61637604
71	0xbe8e4e58	-0.27794147
72	0xbe23777d	-0.1596355
73	0xbd2af544	-0.04173781
74	0xbe7d5aa9	-0.24741615
75	0xbef8d0ab	-0.485967
76	0x3ea94bf3	0.33065757
77	0xbe3c7c4f	-0.18406795
78	0xbf021cbc	-0.50825095
79	0xbf1d6eec	-0.6149738
80	0xbef4334c	-0.47695386
81	0x3e0f63d4	0.14002925
82	0xbe16442b	-0.14674442
83	0xbc4d6e60	-0.0125385225
84	0xbdaacc40	-0.08339739
85	0x3f3a50ea	0.72779715
86	0xbe540429	-0.20704712
87	0x3e876d57	0.26450607
88	0x3e6928cb	0.22769468
89	0xbe2c347d	-0.16816898
90	0xbec761cd	-0.38941804
91	0xbfa428b0	-1.2824917
92	0xbe9235e9	-0.28556755
93	0x3ea75ffb	0.32690415
94	0x3ebd4727	0.36968347
95	0xbc79f599	-0.015256309
96	0x3e54761e	0.20748183
97	0xbf0fdaea	-0.5619341
98	0xbeaff54d	-0.34366837
99	0x3e5fe685	0.2186528
100	0xbc7297be	-0.014806686
101	0x3e0f26ef	0.13979696
102	0xbc1f3aa4	-0.009718571
103	0x3f191316	0.5979475
104	0xbea0e96f	-0.31428096
105	0xbea3caf1	-0.3199077
106	0xbe9118c4	-0.28339207
107	0xbf4205c6	-0.7579006
108	0x3e387a46	0.18015394
109	0xbea62915	-0.32453218
110	0x3f6da505	0.92829925
111	0xbea8b6a0	-0.32951832
112	0xbec085a4	-0.3760196
113	0xbf25a0d4	-0.6469853
114	0x3c919c66	0.017774772
115	0xbd438814	-0.047737196
116	0xbebc551d	-0.36783686
117	0x3ec0c065	0.37646785
118	0x3ca85bca	0.020551581
119	0xbe7e62ff	-0.24842452
120	0xbf7665db	-0.9624917
121	0xbc8854ec	-0.016642056
122	0xbbe1069c	-0.006867243
123	0x3f23fad3	0.640546
124	0x3fb563ca	1.4171078
125	0x3f71f723	0.94517726
126	0xbe0801a1	-0.13281871
127	0x3e7a216c	0.24426812
128	0x3d6c659e	0.057714097
129	0x3e606515	0.2191356
130	0xbe1de49d	-0.1541924
131	0xbe16cd12	-0.14726666
132	0x3e43fd80	0.19139671
133	0xbe0bb5f0	-0.13643622
134	0x3ea7bf49	0.32763126
135	0x3c74a6e3	0.014932367
136	0x3e0bf7a0	0.1366868
137	0xbd10e671	-0.035376016
138	0xbdc40a42	-0.09572269
139	0x3eccd1f6	0.40003937
140	0xbebb8899	-0.36627653
141	0xbcce76d2	-0.025203142
142	0x3f3fed48	0.7497144
143	0x3d87c764	0.066298276
144	0x3edd30be	0.4320125
145	0x3e8f6eaf	0.28014132
146	0x3f158446	0.5840496
147	0xbdf2555b	-0.118326865
148	0xbed3418e	-0.41260952
149	0x3ebfe1ae	0.37476867
150	0xbe7c7761	-0.24654914
151	0xbc39bf8f	-0.011337175
152	0xbe015719	-0.12630881
153	0x3f359fcf	0.70946974
154	0xbe3dc13b	-0.18530743
155	0xbda2b882	-0.07945348
156	0xbd5bd2b9	-0.053667758
157	0xbda8ba86	-0.082387015
158	0xbe21f13f	-0.15814684
159	0xbf815175	-1.0102984
160	0xbef09c2b	-0.46994147
161	0xbe11d0a4	-0.14239746
162	0x3e40c955	0.18826802
163	0xbe963832	-0.2933975
164	0xbf1234be	-0.5711173
165	0x3e787ba3	0.24265914
166	0x3e5fa084	0.21838576
167	0xbd533e02	-0.051572807
168	0xbe8d1a8b	-0.27559313
169	0xbe2f43b7	-0.17115675
170	0x3f001dfe	0.50045764
171	0x3f3ea3af	0.7446851
172	0xbeb47126	-0.35242575
173	0x3e26fa11	0.1630633
174	0xbccc1811	-0.02491382
175	0x3e42099d	0.1894898
176	0x3c4954e7	0.012288309
177	0xbc862f54	-0.01637999
178	0x3e316f69	0.17327656
179	0xbe30839e	-0.17237708
180	0x3f7e480e	0.99328697
181	0xbe761b0f	-0.2403376
182	0x3e7eaa03	0.24869542
183	0xbc8c540c	-0.01712992
184	0x3e9013bf	0.28140065
185	0x3e9cc0cf	0.3061585
186	0x3e870a80	0.26375198
187	0xbdd56722	-0.10420062
188	0xbef920c7	-0.4865782
189	0x3d114457	0.035465565
190	0xbf617f87	-0.88085216
191	0xbe0c31ff	-0.13690947
192	0x3d6402e6	0.055666827
193	0xbd65b368	-0.0560793
194	0x3ea0e164	0.3142196
195	0xbe000486	-0.12501726
196	0x3df7be11	0.12096799
197	0x3e216561	0.15761329
198	0xbe1b577e	-0.15170094
199	0x3d0e2e69	0.03471223
200	0xbe1f3f59	-0.15551509
201	0x3c8baedc	0.017051153
202	0xbe19f3f7	-0.15034471
203	0x3e222ca3	0.1583734
204	0x3e4322f2	0.190563
205	0x3f0ba6b5	0.5455125
206	0x3d1dee0b	0.038557094
207	0x3e0262fb	0.1273307
208	0xbe3ccc67	-0.18437348
209	0xbe4dadf5	-0.2008589
210	0x3cfbf3ff	0.030755995
211	0x3e258cd3	0.16167001
212	0x3df84d8f	0.12124168
213	0xbeb3fca0	-0.35153675
214	0x3e72a74a	0.23696628
215	0xbe90f066	-0.2830841
216	0xbdeb4c21	-0.1148913
217	0xbed0e7fb	-0.40801987
218	0x3dfd5741	0.12370158
219	0x3c9a8251	0.018860968
220	0x3d010f38	0.031508654
221	0x3e3d3275	0.18476279
222	0x3cc8d267	0.02451439
223	0x3cabd611	0.020976098
224	0x3db1dbb2	0.08684482
225	0xbe8c6ece	-0.27428287
226	0x3d9d7e9e	0.07690166
227	0xbeecb263	-0.46229848
228	0xbe5ff5ad	-0.21871062
229	0x3e4371ff	0.19086455
230	0x3ea15948	0.3151343
231	0x3f0cfda1	0.55074507
232	0x3e3deb4f	0.18546794
233	0x3d08359b	0.033254247
234	0xbe34c9de	-0.17655131
235	0xbe2c9385	-0.16853149
236	0xbeb66ef4	-0.35631526
237	0xbe9ff8de	-0.31244558
238	0x3e00f2f7	0.12592684
239	0xbdb5751d	-0.08860228
240	0xbe1efdbb	-0.15526478
241	0x3e0e8fe3	0.13922076
242	0x3e6c8cf0	0.23100638
243	0x3ea0d5e7	0.31413195
244	0xbd9f5841	-0.07780505
245	0x3e82b538	0.25528884
246	0x3e92287c	0.28546512
247	0x3d8910ad	0.06692634
248	0xbe459024	-0.19293267
249	0xbd14fdc0	-0.036374807
250	0xbea32777	-0.31866047
251	0x3d068d73	0.03284974
252	0x3e0d4b96	0.13798365
253	0x3d9776ea	0.07395728
254	0x3e0baa3b	0.13639157
255	0xbcdf3153	-0.0272452

affine_layers.1.bias f4 [64]
0	0x3de90f10	0.11379826
1	0xbdfceac8	-0.123494685
2	0xbeee01ec	-0.4648584
3	0xbd88e058	-0.06683415
4	0xbe674ec8	-0.22588646
5	0xbe8981ab	-0.2685674
6	0xbe21ba45	-0.15793712
7	0x3e74df09	0.23913206
8	0xbe3c0fcc	-0.18365401
9	0xbbb151c7	-0.00541136
10	0xbe97dc61	-0.29660323
11	0x3e279afb	0.16367714
12	0xbe375ea7	-0.17907201
13	0xbe604916	-0.2190288
14	0xbebc5196	-0.36780995
15	0xbe7f30d2	-0.24920967
16	0xbe588be6	-0.21147117
17	0x3e9fe427	0.31228754
18	0xbca3a3ff	-0.01997566
19	0x3ed2ee58	0.41197467
20	0xbe83cf00	-0.25743866
21	0x3e81c3bf	0.25344655
22	0xbf049027	-0.5178246
23	0xbebb2727	-0.36553308
24	0xbe85be20	-0.26121616
25	0xbcc2bccd	-0.023771668
26	0xbe128a69	-0.14310612
27	0x3ec0effe	0.376831
28	0x3e05baa6	0.13059482
29	0x3e827615	0.25480714
30	0xbc1c355e	-0.009534208
31	0x3d4f19a6	0.05056157
32	0xbecf98ea	-0.40546352
33	0x3ed9e4bc	0.42557323
34	0xbd041cfd	-0.032254208
35	0x3ede6d27	0.43442652
36	0x3d9fa0dd	0.07794354
37	0xbe80c7b3	-0.25152358
38	0xbe986118	-0.29761577
39	0xbedf1119	-0.43567732
40	0x3e7e3116	0.24823412
41	0xbee34ea1	-0.44395927
42	0xbe1184ee	-0.14210865
43	0x3e2f8afb	0.1714286
44	0x3daa0151	0.08301032
45	0xbd7cdb01	-0.061732296
46	0x3d6f4ad5	0.058420975
47	0x3ed61270	0.41810942
48	0xbe06026c	-0.13086861
49	0x3e7166e6	0.23574409
50	0x3de7ea58	0.113239944
51	0xbc876be5	-0.01653094
52	0xbddc12e9	-0.10745794
53	0x3e2ed3ca	0.17072979
54	0xbe6207a4	-0.22073227
55	0x3ebc68e8	0.36798787
56	0x3ccbe77a	0.02489065
57	0xbeb5de7d	-0.35521308
58	0xbd2c9503	-0.042134296
59	0x3e746138	0.23865211
60	0xbecfd886	-0.40594882
61	0xbdd028ae	-0.10164009
62	0x3d9969fb	0.07490917
63	0x3edb8a66	0.42879027

final_mean.weight f4 [1, 64]
0	0xbf065dee	-0.52487075
1	0x3eac6842	0.33673292
2	0xbf201e72	-0.62546456
3	0x3d8de8c5	0.06929163
4	0x3db7a9c6	0.089679286
5	0xbeba416a	-0.36378032
6	0x3e8f1d5d	0.2795209
7	0x3ebbdd21	0.36692145
8	0x3eb4d4ad	0.3531851
9	0xbecd4606	-0.40092486
10	0x3ebb7089	0.36609295
11	0xbce20b13	-0.027593171
12	0x3e291145	0.16510494
13	0x3ed5c0f8	0.41748786
14	0x3ec87dd5	0.39158502
15	0x3e1ea9b5	0.15494426
16	0x3e45ef7c	0.19329637
17	0xbed1bcbb	-0.40964302
18	0x3dd9d6d0	0.10636675
19	0xbeefbc22	-0.4682322
20	0xbeca15a7	-0.39469644
21	0x3edee715	0.43535677
22	0x3ee4070d	0.4453663
23	0x3e65b752	0.22433212
24	0xbee6073b	-0.4492739
25	0xbeaa6dbb	-0.33286843
26	0x3e552a38	0.20816886
27	0x3eb12191	0.34595922
28	0xbeb5ce6d	-0.35509053
29	0x3f040c20	0.51581
30	0xbed531af	-0.41639468
31	0xbef1c164	-0.47217858
32	0x3edff737	0.43743297
33	0xbeba5ffd	-0.36401358
34	0x3dab6041	0.08367968
35	0xbe233c2b	-0.15940921
36	0xbd815b1e	-0.06316207
37	0x3ec154cf	0.37760016
38	0x3e503e55	0.20336278
39	0xbe894046	-0.2680685
40	0x3eeb4f28	0.4595883
41	0x3eb3ee24	0.35142624
42	0x3db4ea0e	0.08833705
43	0xbe9b7825	-0.303651
44	0xbe700d26	-0.23442516
45	0x3e160010	0.14648461
46	0x3ea969eb	0.33088621
47	0xbeb5303f	-0.3538837
48	0x3e87c3df	0.26516625
49	0xbec99a9d	-0.39375773
50	0xbda4ddc5	-0.08050112
51	0x3f2115d8	0.62923956
52	0x3ea646b4	0.32475817
53	0xbe8c1c54	-0.27365363
54	0x3eca318b	0.39490923
55	0x3d421de0	0.047391772
56	0xbef96fc1	-0.48718074
57	0xbe4dc39b	-0.20094149
58	0xbbd2da95	-0.0064347484
59	0x3ede0766	0.4336502
60	0x3e94f1d5	0.29090753
61	0x3eaf0dab	0.34190115
62	0xbeb150ff	-0.34632108
63	0xbe9befac	-0.30456293

exp_avg f4 [64, 3]
0	0x40ab6bb4	5.3568974
1	0xc07ccf63	-3.9501579
2	0xbe794c7f	-0.24345587
3	0x3fe72487	1.8058022
4	0xc042cfc3	-3.0439308
5	0x40832076	4.0977125
6	0xc196579f	-18.792784
7	0x40a7dc8b	5.2456717
8	0x411dee32	9.870653
9	0x40debe76	6.9607496
10	0xbfdfc678	-1.7482443
11	0xc1393970	-11.576523
12	0xc1958026	-18.687572
13	0x40defac3	6.9681106
14	0x410e498f	8.892959
15	0x3f02a947	0.51039547
16	0x40a004d9	5.0005918
17	0x40866cd7	4.200786
18	0x402d9b68	2.7126102
19	0x4007ae44	2.1200113
20	0x40884524	4.25844
21	0xbfa33a68	-1.2752199
22	0x3fca2a2c	1.579412
23	0x3fdb3086	1.7124183
24	0xc060e77e	-3.5141292
25	0xbec78576	-0.3896901
26	0xc1269eda	-10.413782
27	0x3f6b970b	0.9202735
28	0x400a505d	2.161155
29	0x401d08cf	2.4536626
30	0xc0047112	-2.0694013
31	0xbecd35a7	-0.40079996
32	0xc087bc89	-4.2417645
33	0x3ff52c2f	1.9154109
34	0x3e9850f5	0.29749265
35	0x417662cc	15.39912
36	0x40899933	4.299951
37	0xbf178951	-0.59193903
38	0x41c0985b	24.074392
39	0xc01c6b29	-2.4440405
40	0xc02a9bf3	-2.6657684
41	0xc0e6fef8	-7.218624
42	0x41243e6a	10.265238
43	0xc0812410	-4.035652
44	0xc0d6d251	-6.7131734
45	0x3f01309f	0.50464815
46	0x3dbd99a7	0.092578225
47	0x414476d4	12.279011
48	0x4111e1ae	9.117598
49	0xc04d5e22	-3.2088704
50	0xc1534337	-13.20391
51	0x40cffa9d	6.4993424
52	0xbfe0f247	-1.7573937
53	0x40641319	3.5636656
54	0x3f29c394	0.66314054
55	0xc027ee59	-2.6239226
56	0xc0f7eb96	-7.747508
57	0xbfff5963	-1.9949154
58	0x3fe63d91	1.7987539
59	0xbf56dc59	-0.83929974
60	0xbf906950	-1.1282139
61	0x3ea3ac70	0.31967497
62	0xc105b71a	-8.357203
63	0x3fb0e6d6	1.3820446
64	0x3fc66023	1.5498089
65	0x40e5c259	7.179974
66	0x408b4f16	4.353404
67	0xc04b2964	-3.1744013
68	0xc115bc57	-9.358481
69	0x404aebed	3.1706498
70	0xc0822b92	-4.0678186
71	0xc12f37d5	-10.951131
72	0x3e890c8a	0.2676738
73	0x3f0c662b	0.54843396
74	0x414d67fc	12.837887
75	0x3ff87557	1.9410809
76	0x3ef5528c	0.4791454
77	0xc0055c47	-2.0837572
78	0xc10d0168	-8.812843
79	0xc09de09a	-4.933667
80	0xc17be756	-15.7439785
81	0xc06b61a4	-3.6778345
82	0xbfbaa192	-1.4580557
83	0xc111378f	-9.076064
84	0x40e1a9df	7.051986
85	0xc0461d00	-3.09552
86	0x4199e512	19.23685
87	0x4081dc42	4.058137
88	0x3fe8d625	1.8190352
89	0x4187da10	16.981476
90	0x3fbe9704	1.4889836
91	0x407971be	3.8975673
92	0x4083b353	4.11564
93	0x4178836e	15.532087
94	0xc0c02134	-6.004053
95	0xc0ec0c35	-7.37649
96	0x409f05e9	4.9694715
97	0xbf855431	-1.0416318
98	0x41c0254b	24.01821
99	0x405abd37	3.4177988
100	0xbfa260a7	-1.2685746
101	0xc12419d0	-10.256302
102	0xbf7615a6	-0.9612678
103	0xc096d466	-4.7134275
104	0xc07f43ab	-3.9885051
105	0x4181ac9b	16.20928
106	0xc0c08e86	-6.017398
107	0xc1087dc6	-8.530706
108	0x40c5dae2	6.182969
109	0xc00e8a76	-2.227201
110	0x3fe36e43	1.7768024
111	0xc09244e3	-4.570909
112	0xc02d097a	-2.7037034
113	0x3ee42bc5	0.44564644
114	0x40caae9e	6.3338156
115	0x40996dff	4.7946773
116	0x40ab37c1	5.350556
117	0xc0bb5e18	-5.855236
118	0xc018de3d	-2.3885643
119	0xc0383dbc	-2.878768
120	0x400de63b	2.2171772
121	0x3f5df04e	0.866948
122	0x417e076d	15.876813
123	0xc0d240ab	-6.570394
124	0x3fa69b33	1.3016113
125	0xc08e9012	-4.4550867
126	0xc2040153	-33.001293
127	0x4123ac26	10.229528
128	0x4192f56e	18.369839
129	0xc085d6c4	-4.1824665
130	0x3e92c073	0.28662452
131	0xc1cfcb2e	-25.974209
132	0x3f9dfac3	1.2342151
133	0xbf64e9a7	-0.89419025
134	0x40fa2f54	7.8182774
135	0x404e8045	3.226579
136	0xbfefd115	-1.8735682
137	0xc18c15bc	-17.510612
138	0x3fa066ed	1.253141
139	0x3fa37848	1.2771082
140	0x4137ee82	11.495729
141	0x4103736d	8.21568
142	0xc07c40c8	-3.941454
143	0x41e1cfb8	28.226425
144	0x4091f879	4.561581
145	0xbf800d35	-1.000403
146	0xbfec554a	-1.8463528
147	0xbece86b5	-0.40337148
148	0xc0178421	-2.3674395
149	0xc0e0caeb	-7.0247703
150	0xbfbafc54	-1.4608254
151	0xc0448d3b	-3.07112
152	0xc0d95e88	-6.7927895
153	0xbe568ce8	-0.20952189
154	0xbf634734	-0.8878052
155	0xc0822617	-4.0671496
156	0xc0ca6505	-6.3248315
157	0x3fb46df2	1.4096053
158	0xc15ca769	-13.790872
159	0x410e9d19	8.913354
160	0xc01a762d	-2.4134629
161	0xc13286d7	-11.15792
162	0xc0db082b	-6.844747
163	0x3fff8682	1.9962924
164	0x408dcd63	4.4313216
165	0x3fd238eb	1.642362
166	0xc010e432	-2.263928
167	0xc104a4e4	-8.2902565
168	0xbf591b23	-0.8480703
169	0x40312eb6	2.768476
170	0x411dabe7	9.854468
171	0x3f2ff924	0.68739533
172	0x3f4b13e2	0.79327214
173	0xc100f0e8	-8.058815
174	0xbfd458fb	-1.6589655
175	0xc030c9c6	-2.7623153
176	0xc11fbcec	-9.9836235
177	0xc1107c86	-9.030401
178	0x401b61ef	2.4278524
179	0x40cce6e5	6.4031854
180	0xc0bdf2bd	-5.935881
181	0x403e34e5	2.9719784
182	0x4111cd8f	9.112685
183	0x3fbf5907	1.4949044
184	0x3cfe08f8	0.031010136
185	0x41146f1c	9.277126
186	0x3febc0a8	1.8418169
187	0x3e85c087	0.2612345
188	0x4177bbcd	15.48335
189	0xbf37c2f4	-0.7178185
190	0xbeb150f3	-0.34632072
191	0xbffc2d5a	-1.970134

exp_avg_sq f4 [64, 3]
0	0x42b8d32e	92.41246
1	0x4172a515	15.165303
2	0x4308122c	136.07098
3	0x41980459	19.002123
4	0x40c1f848	6.061558
5	0x43424d3a	194.30167
6	0x43aa4f57	340.61984
7	0x4211379c	36.304306
8	0x44400380	768.0547
9	0x4270b70f	60.17877
10	0x40cbcda0	6.3688507
11	0x4342cf66	194.81015
12	0x43dddfd7	443.74875
13	0x424d102b	51.26579
14	0x444b46af	813.10443
15	0x42d0ab9a	104.33516
16	0x41c721ab	24.89144
17	0x437c0a86	252.0411
18	0x42ccda30	102.42615
19	0x420021aa	32.032875
20	0x429bcfcc	77.90585
21	0x4157b562	13.481783
22	0x4074e485	3.8264477
23	0x4258a656	54.162437
24	0x4215307b	37.297344
25	0x40ba1078	5.8145103
26	0x4384c4b7	265.53683
27	0x4205f9e6	33.49404
28	0x40ecfbdf	7.405746
29	0x42629688	56.647003
30	0x42c88cf0	100.27527
31	0x42054978	33.321747
32	0x42b3e4e4	89.94705
33	0x4212cca1	36.699833
34	0x40add724	5.4325123
35	0x4404ee5c	531.72437
36	0x438afec6	277.99042
37	0x42b1ec15	88.9611
38	0x4451aa33	838.65936
39	0x42184cea	38.07511
40	0x4106fa94	8.436176
41	0x4351e8d5	209.9095
42	0x42e1a968	112.83087
43	0x4174bd4e	15.296217
44	0x429a843f	77.25829
45	0x418b8e60	17.444519
46	0x4075f087	3.8428056
47	0x438e6cb0	284.84912
48	0x42fadec8	125.43512
49	0x41985284	19.04029
50	0x439147d6	290.56122
51	0x430fd891	143.84596
52	0x4215789f	37.367794
53	0x42ce0af2	103.02138
54	0x4206faf1	33.74506
55	0x40dd371e	6.912978
56	0x437b558a	251.33414
57	0x42425fef	48.593685
58	0x41374757	11.454917
59	0x41bb8a14	23.442421
60	0x415c875e	13.783049
61	0x3fb0e2f8	1.3819265
62	0x43283faa	168.24869
63	0x42806482	64.196304
64	0x41a754ca	20.9164
65	0x42b27851	89.23499
66	0x423b2334	46.784378
67	0x41116ced	9.089093
68	0x42d57cda	106.74385
69	0x4254b4a1	53.176395
70	0x4180a832	16.082127
71	0x43093777	137.21666
72	0x41cdbe28	25.71785
73	0x40a5bf6a	5.179616
74	0x4399559f	306.6689
75	0x4345259d	197.14693
76	0x4263d52e	56.958183
77	0x4278484b	62.0706
78	0x427f5ee1	63.842655
79	0x420975dc	34.365097
80	0x440a9ddf	554.46674
81	0x4249c2e1	50.44031
82	0x4104e1f4	8.305164
83	0x434bda98	203.85388
84	0x43a16383	322.77744
85	0x42bc710f	94.22082
86	0x443f5412	765.3136
87	0x42139950	36.89972
88	0x41597491	13.590959
89	0x43bd823e	379.01752
90	0x42a8913f	84.28368
91	0x41e1b859	28.215014
92	0x4333c9d7	179.78844
93	0x4399eda2	307.8565
94	0x42111713	36.272533
95	0x44303c4e	704.94226
96	0x432de3a4	173.88922
97	0x424e84fb	51.629864
98	0x445b03d7	876.06
99	0x425cdb85	55.214375
100	0x415c3f12	13.765398
101	0x4312621a	146.38321
102	0x42a8960f	84.29308
103	0x41c709aa	24.879719
104	0x436b53db	235.32756
105	0x439aead0	309.83447
106	0x421154aa	36.33268
107	0x442047ff	641.12494
108	0x427ebf9b	63.687115
109	0x40bb83d5	5.859843
110	0x43350513	181.01982
111	0x42db82d1	109.7555
112	0x41ebb2b7	29.462263
113	0x42a3072b	81.514
114	0x42138acb	36.88554
115	0x41a8fc89	21.123308
116	0x43515a01	209.35158
117	0x42a72b54	83.584625
118	0x41c443f4	24.53318
119	0x42ef670e	119.70128
120	0x422021d1	40.033024
121	0x41058b8e	8.346571
122	0x43e57e53	458.9869
123	0x426664d3	57.59846
124	0x404eaaa3	3.2291648
125	0x438fab48	287.33813
126	0x4487b5e1	1085.6837
127	0x42f2e3b6	121.44475
128	0x45423378	3107.2168
129	0x436d0c1e	237.04733
130	0x42952f66	74.592575
131	0x4462547a	905.31995
132	0x4229e3ee	42.472588
133	0x41592e4e	13.573805
134	0x42e3704a	113.719315
135	0x42986047	76.18804
136	0x418b410e	17.406765
137	0x43deccbb	445.59946
138	0x42102e21	36.045048
139	0x4140a752	12.04085
140	0x43292653	169.1497
141	0x43d1ff69	419.9954
142	0x42f58954	122.76822
143	0x44e03d32	1793.9124
144	0x419fa766	19.956738
145	0x3fef9594	1.8717523
146	0x4145b424	12.35648
147	0x422c25e1	43.03699
148	0x4127bd84	10.483768
149	0x438dd0ba	283.63068
150	0x418b5614	17.41703
151	0x413713b9	11.442315
152	0x42afcbaa	87.89778
153	0x41352cab	11.323405
154	0x3ff8a902	1.9426577
155	0x429ae813	77.45327
156	0x427f4f42	63.8274
157	0x41213cac	10.077312
158	0x441ca1f2	626.5304
159	0x42aaea4f	85.457634
160	0x4170ced7	15.050498
161	0x438e1a80	284.20703
162	0x425c9e43	55.154552
163	0x40e7cfe3	7.244127
164	0x4362a15e	226.63034
165	0x4242b491	48.676334
166	0x41237b65	10.217626
167	0x43702f96	240.18588
168	0x428ff79f	71.983635
169	0x4163a7ff	14.228515
170	0x43552db7	213.17857
171	0x41acb870	21.590057
172	0x40b4ffb7	5.656215
173	0x4329dda7	169.86583
174	0x426ccd51	59.200504
175	0x4132165b	11.130458
176	0x43bac1bb	373.51352
177	0x42a8eaa4	84.45828
178	0x41222af6	10.1354885
179	0x4405cd80	535.21094
180	0x4291059d	72.51096
181	0x415fae54	13.980061
182	0x43d25198	420.63745
183	0x41c4fa47	24.622206
184	0x40316400	2.7717285
185	0x43996ad7	306.8347
186	0x42351ff3	45.2812
187	0x41011b98	8.069237
188	0x4404d4d8	531.3257
189	0x40c02872	6.004937
190	0x3f2cd284	0.6750872
191	0x41ecf03d	29.617304

exp_avg f4 [64]
0	0x41676f1d	14.464627
1	0x408885de	4.266341
2	0xc1be557b	-23.791739
3	0x413b7698	11.716454
4	0xc1f61634	-30.760841
5	0xc16a3b4f	-14.63948
6	0xc048b579	-3.1360762
7	0xc056d306	-3.3566298
8	0x408db4e8	4.4283333
9	0xc0d3f814	-6.624033
10	0x3fbcfd0c	1.4764724
11	0xc0a09ec6	-5.0193815
12	0xc0dc14af	-6.877525
13	0x40d3973f	6.6122127
14	0x41781a6d	15.506452
15	0xc09486f0	-4.641472
16	0x41830a6e	16.380093
17	0x409cb97c	4.897642
18	0x40e4bb0b	7.1478324
19	0xc0d34283	-6.601869
20	0x4018e3f1	2.3889124
21	0xc0908700	-4.5164795
22	0x412d2c6f	10.823348
23	0x413abcb9	11.671075
24	0xc0b182ac	-5.547201
25	0xbf36a13c	-0.71339774
26	0x413bae54	11.730061
27	0x40c6cba0	6.2123566
28	0x3f92937e	1.1451261
29	0xc0f5ac64	-7.677294
30	0xc10bf1a3	-8.746493
31	0x41c62ee3	24.772894
32	0xc097bc33	-4.7417235
33	0x41072d24	8.448521
34	0x41438b39	12.22149
35	0x41c38960	24.442078
36	0x41254233	10.328662
37	0x40ac39a7	5.3820376
38	0xc1054a51	-8.330644
39	0x40372851	2.8618357
40	0xc0bca3e6	-5.895007
41	0xc0d2706b	-6.576223
42	0xc2292ae2	-42.291878
43	0x40f08470	7.5161667
44	0x3f424b5c	0.7589624
45	0x4146795f	12.404632
46	0xc0b4fb2a	-5.6556597
47	0xbf5f8e8e	-0.87326896
48	0x40baaee3	5.8338485
49	0x40ccbf5f	6.3983607
50	0x40baa135	5.8321786
51	0x405d2ded	3.455928
52	0xbfe1d115	-1.7641932
53	0x414dabf3	12.85448
54	0xc104228a	-8.258432
55	0x4103c377	8.235221
56	0xc11e4b31	-9.893357
57	0x405a99bd	3.4156334
58	0x40f776aa	7.7332354
59	0xc11728b7	-9.44744
60	0xc14a9018	-12.660179
61	0xc012c459	-2.293234
62	0xc0b6f6cf	-5.717628
63	0x3f4da776	0.8033365

exp_avg_sq f4 [64]
0	0x432921af	169.13158
1	0x41c9d341	25.228151
2	0x440cff66	563.9906
3	0x42e8db06	116.42778
4	0x444b760b	813.8444
5	0x4334c835	180.78206
6	0x42c69546	99.29155
7	0x419e81a4	19.813301
8	0x424672e8	49.612213
9	0x424a018b	50.501507
10	0x42ed7798	118.73358
11	0x424f48fd	51.821278
12	0x4391f8ef	291.9448
13	0x42669493	57.645092
14	0x43466d80	198.42773
15	0x41d97266	27.180859
16	0x43713cba	241.23721
17	0x431d5c75	157.36116
18	0x426f3c23	59.808727
19	0x42799bd7	62.402187
20	0x419616a0	18.761047
21	0x429fd891	79.92298
22	0x42b43346	90.10014
23	0x42ce0be0	103.02319
24	0x422bba4a	42.931923
25	0x43415b67	193.35704
26	0x42ca732d	101.22495
27	0x428a716e	69.22154
28	0x439e1676	316.17548
29	0x42526d17	52.606533
30	0x42c8f46e	100.4774
31	0x440b3526	556.83044
32	0x43350189	181.006
33	0x42a4796e	82.23717
34	0x43006b18	128.41833
35	0x44097673	549.85077
36	0x42c6fc69	99.49299
37	0x42f3d4d7	121.9157
38	0x425555f7	53.33395
39	0x42a81b94	84.05386
40	0x4276d4f8	61.707977
41	0x4284ed1f	66.46313
42	0x44e55e06	1834.9382
43	0x437b00e5	251.0035
44	0x42374edf	45.827023
45	0x431a5704	154.3399
46	0x423969b4	46.353226
47	0x43d21eb3	420.23984
48	0x41fab925	31.340403
49	0x4286d355	67.41276
50	0x4209cd32	34.450386
51	0x418f486a	17.910358
52	0x42829a06	65.30083
53	0x4321e3a9	161.8893
54	0x42a16b9b	80.71017
55	0x42af62c9	87.69294
56	0x42fb4665	125.63749
57	0x41e08ae9	28.067827
58	0x42bb707a	93.71968
59	0x42fac67e	125.38768
60	0x430c86c5	140.52644
61	0x41fe5895	31.793253
62	0x4285a300	66.81836
63	0x40eac9da	7.33714
