ATLA_robust_RL/src/models/atla_release/ATLA-PPO/attack-atla-ppo-cartpole.model (torch, 269834 bytes, 69 tensors)

affine_layers.0.weight f4 [64, 4]
00000000: da0b af3e 8ed8 85bd 8cd2 50bb 309a 12bd
00000010: 295a 733f d7a3 783e 8352 613e c99d 4d3e
00000020: 2ff4 6abe 62fb 84be c9fa 9f3c d9da 39be
00000030: 7996 153f 241a 8bbc b46e 1c3d a666 0f3d
00000040: 8fc5 803e 890d e23e 7015 0bbe 262c b93e
00000050: c169 28bf b8bd a13c f80e 9bbd d6bf c53c
00000060: 9d2c 123f d722 373e e967 8bbd b7d5 653e
00000070: 6fb8 173e aa4a 5e3d 7883 253a 5e80 363c
00000080: 68c4 043f 4863 23be 548f 6b3e 3819 f3bc
00000090: 0849 d13e 86c3 303e 7020 093e 18d4 6e3e
000000a0: 606e 3bbf fba8 873e 25b1 5c3c bbbf 513e
000000b0: 0681 efbe 729b f5bc 311c d4bd 046f 89bd
000000c0: 9c94 84be 32e9 223e 0971 a3be bee2 c23e
000000d0: fe0a c3be 6bc1 c6bd 424c 4e3e 5c11 993d
000000e0: bb85 e1be dd72 883d fe54 563e 59c4 75bb
000000f0: cdda 043f 7731 093d e158 303f 5ae9 e43c
00000100: 9588 d53e 894e a13e 6b7b 4abe 73d4 bd3e
00000110: f264 223f 0947 c6bd 751b b53d 705a b1bd
00000120: 2edb cabe f8cb 16be 5ec9 a93d f4d7 3fbd
00000130: 147f 943e 744c 873e f2ee a4bc b6cd 483e
00000140: c693 3fbe 59c5 1bbe a1fd 0abd b149 32be
00000150: 3cd0 aabe 0e0e 07be 935d 1d3d 81ed fabd
00000160: 13b5 d63e 4d2a e33d 16fd 8ebd 3af4 5ebc
00000170: 60a8 e1be 906a 333e c894 e6be b0a6 23bd
00000180: 4c8f 443f 8c2d 623e 82a0 683e 889c a13e
00000190: 0d42 353f 41fa 873e e568 203e e7cc 1f3e
000001a0: 1919 b2be 4a5b 873d 979d 47bd d3f6 0a3b
000001b0: dd06 f03e d331 c63e 2554 453e 6cdf b73d
000001c0: d55e 0cbf 1639 bb3d e318 ecbf fa69 c0bd
000001d0: cf74 2ebf c533 ed3d 5968 aabc f344 d73d
000001e0: c947 dfbe d445 5cbe 28aa 813d 2e0e 5bbe
000001f0: f3ee 25be a309 6bbe e547 b8bd a412 9cbe
00000200: b5f3 a03d ede9 1fbe 7405 b83f dd11 d23e
00000210: 4e53 2a3f fd78 4a3e 6fe1 c3bd 2b41 053e
00000220: 751b a7be fd8c 1fbe 44f8 5abd 455f 66be
00000230: b4c4 3fbf 2c3b 7dbe 6715 85bd 4e62 83be
00000240: f729 9b3e 5ddb bd3e c623 aa3d 73f2 0e3e
00000250: ae0f 15bf c0d6 21be a875 64bd a160 49be
00000260: 74d2 06bf 77fd b4be af5e 08be 13ee b4be
00000270: 4c1a 143f 91a5 dd3e 2585 1ebe 0d26 0cbd
00000280: ff76 0e3f cf1c 083e 3056 093e 77d9 263e
00000290: bda1 ad3e 7de8 abbd 8482 3cbc d0ce 38bd
000002a0: 20eb 083f 7dd9 26bd ed9a 0fbd c6e2 d2bd
000002b0: 473f 10bf 5a92 fd3c 9037 57ba e573 bc3d
000002c0: 98fe a3bd aca3 30be 6a10 dc3f 1759 03bf
000002d0: b254 123f 7093 2e3e 7195 c1be c896 223e
000002e0: 9752 c0be 9d8c 82be b43b 333d f288 91be
000002f0: 9f12 19bf 4087 e4bd b292 7e3d 2045 84bd
00000300: 3725 eb3e 28f4 2a3e a4b7 4f3d 24ee 333e
00000310: 1a0d 5abf 2710 e4bd 4579 d93c 7cdc 19be
00000320: 8304 253f 1a86 ac3e 0070 513f 8640 863e
00000330: 1c92 143f 7e29 e03e 2c6a 203f bbd2 d03e
00000340: 59b8 a0bf 8ef2 51be 8d4e 9cbd a343 88be
00000350: d6cb 8a3e 8d1e 923d fe8e 243e abae 233e
00000360: 2d67 103f b178 a93e 523c 55bc 3216 993e
00000370: 3472 0c3e 14c8 023f efd8 3dbf 0c20 ce3e
00000380: e73a f1bd a453 df3e cfeb 3cbf 05b4 f23c
00000390: 9650 da3e 4c15 883e c9af d53e 7435 1d3d
000003a0: 2b80 cb3d 1a2e 2d3f 0939 ed3b 8058 133f
000003b0: f08b 1f3f c350 85bd 5969 a53d 435a 9cbd
000003c0: 68a0 053f 4493 29be 48c0 793d 6c72 e5bd
000003d0: e0b2 e03e 14fc 683e e87c a93d b5c8 383e
000003e0: 971f e4be ec1a 2f3e c988 6bbf 044a eebd
000003f0: f1be 233f cf3a c2bd 87bc 623a 3ac1 98bd
0.3418873 -0.06535445 -0.0031863777 -0.035791576 0.9505945 0.2428125 0.22004132 0.20079722
-0.22944711 -0.2597304 0.019528763 -0.1814989 0.5843273 -0.016980238 0.038191512 0.035010003
0.25150725 0.44150952 -0.13582397 0.36166495 -0.6578637 0.019743785 -0.075712144 0.024139326
0.57099324 0.17884384 -0.06806929 0.22444807 0.1481645 0.054270424 0.0006313841 0.011139004
0.5186219 -0.15955842 0.23003894 -0.029675111 0.4087603 0.17262086 0.1339128 0.23323095
-0.73215294 0.2649611 0.013469969 0.20483296 -0.46778125 -0.029981349 -0.103569396 -0.06710628
-0.2589463 0.1590927 -0.31922176 0.38063616 -0.38094324 -0.0970486 0.20146278 0.07474014
-0.4404734 0.066625334 0.2093086 -0.0037501066 0.51896363 0.03349444 0.6888562 0.027943302
0.41705766 0.3150523 -0.19773643 0.37076148 0.6343528 -0.09681518 0.08843128 -0.08659828
-0.39620346 -0.14726245 0.08290361 -0.04683681 0.29003203 0.26425517 -0.02013347 0.19609722
-0.18708715 -0.15212001 -0.033933286 -0.17410924 -0.33361995 -0.13188955 0.038419317 -0.122523315
0.41935024 0.110920526 -0.06981866 -0.013608033 -0.44073772 0.17521119 -0.45035386 -0.039953887
0.76781154 0.22087687 0.22717479 0.31564736 0.7080391 0.26558116 0.15665014 0.15605508
-0.34784773 0.06609209 -0.048734274 0.0021204248 0.46880236 0.38709888 0.1927038 0.08978161
-0.548322 0.09141748 -1.8445095 -0.093952134 -0.68146986 0.1158214 -0.02080171 0.10511198
-0.43609455 -0.21511012 0.06331283 -0.21392128 -0.16204433 -0.22952895 -0.08998088 -0.30482972
0.078589834 -0.1561658 1.4376664 0.41029254 0.6653336 0.19772716 -0.095644824 0.13013141
-0.32638136 -0.15581127 -0.05345942 -0.2249728 -0.7490952 -0.24729604 -0.06498223 -0.25660938
0.30305454 0.37081423 0.083076045 0.13959675 -0.5822705 -0.15804577 -0.05577627 -0.19665767
-0.52664876 -0.35349628 -0.13317369 -0.35337886 0.57852626 0.4329038 -0.15480478 -0.034215976
0.55650324 0.1329224 0.13411784 0.16293894 0.3391246 -0.08393953 -0.011505727 -0.045119107
0.5348377 -0.040734757 -0.035059858 -0.1029716 -0.56346554 0.030953575 -0.00082098786 0.09201793
-0.08007544 -0.17249936 1.7192509 -0.51307815 0.57160485 0.1704843 -0.37809327 0.15877831
-0.3756301 -0.25497904 0.04375811 -0.28424793 -0.5979404 -0.111586094 0.06215162 -0.06458497
0.4592683 0.166947 0.050712243 0.17571312 -0.8517624 -0.11135893 0.026547084 -0.15025514
0.6446001 0.3369606 0.81811523 0.26221102 0.58035445 0.43781656 0.62662005 0.40785775
-1.2556258 -0.20502684 -0.0763217 -0.26614103 0.2710864 0.07134733 0.16070172 0.159846
0.56407434 0.33099893 -0.01301487 0.29899746 0.1371544 0.51086545 -0.7415914 0.40258825
-0.11778813 0.436185 -0.73797315 0.029626856 0.42639607 0.26578748 0.41735676 0.038381055
0.099365555 0.6764847 0.007239465 0.57556915 0.623229 -0.06509545 0.08076734 -0.076344036
0.52197886 -0.16560084 0.06097439 -0.11203465 0.4388647 0.2275241 0.08275777 0.18045314
-0.4455535 0.17100114 -0.9200559 -0.11635211 0.6396323 -0.09483873 0.00086493086 -0.0745873

affine_layers.0.bias f4 [64]
00000000: aa0f 8e3e 7892 5fbe 7579 a8be 69c9 48be
00000010: 116e cb3e 5bb2 0c3e cb0b 793c d1da 563e
00000020: 4068 603d a847 27be 01a3 573e 32ce 7a3d
00000030: b47c 343e 3888 ccbe a7f2 153e fbae 7dbe
00000040: d84c 213d 7b8a 863c 02a5 623d f020 923e
00000050: 5e91 6abe 5b6e cbbe e88c 173e 677e ef3b
00000060: 8d02 eebd 26e8 8e3d 3ddd 94be b17c b1bd
00000070: 5396 3a3e 6e2e 213e b37e a9be d37c fbbe
00000080: 13aa fa3d 0137 853d a8ed 94be 31fa e7bd
00000090: 593b fa3e 7de5 fc3d 2b33 c63d ace0 9b3e
000000a0: f634 59bd 39d6 b03e fc01 fe3b 0353 d33d
000000b0: 284a fabe 4c8f ab3d 0f73 f2bd d923 ba3d
000000c0: b88d 713c c8ea fdbd 1311 4e3e d040 36be
000000d0: 560e 09be 09d2 a03e e6a4 b1bc 1e9a b03c
000000e0: 38f1 413e 16a8 4ebe 7d58 0d3d 41a2 05bd
000000f0: 8895 973e b439 bb3e 2c98 88be 0a0a 673e
0.27746326 -0.21833217 -0.32905164 -0.19608082 0.39732412 0.13739912 0.015200566 0.2098191
0.05478692 -0.16335928 0.21058275 0.0612318 0.17625695 -0.39947677 0.14643346 -0.24773781
0.039379925 0.016423455 0.055333145 0.28540754 -0.22907016 -0.39732632 0.14799845 0.0073087695
-0.1162158 0.069778726 -0.2907504 -0.08666361 0.18221407 0.15740368 -0.33104476 -0.4911867
0.1223947 0.06504632 -0.29087567 -0.11327017 0.48873404 0.12348459 0.09677728 0.3044485
-0.053029023 0.3453844 0.0077517014 0.103185676 -0.48884702 0.08376941 -0.11838352 0.09088869
0.014743261 -0.123982966 0.20123701 -0.17798162 -0.13384375 0.31410244 -0.021685075 0.021557864
0.18939674 -0.20181307 0.034508217 -0.03262544 0.2960627 0.36567461 -0.26678598 0.22562423

affine_layers.1.weight f4 [64, 64]
00000000: 5145 463d 310f bdbe bd49 a23e 59d5 0e3d
00000010: fd62 3fbf 14ad 15bd ed36 2abe f18e 49bd
00000020: da74 c93e 469d 2abd 3ec3 84be 15e4 7abe
00000030: e1ad edbe a78c 1b3e 4130 93be 02f3 9ebd
00000040: c569 09bf 3ff2 953e 88a1 1bbd 3098 10bd
00000050: 73e8 1a3f 002e e43d 5327 183e 6f4b a5bd
00000060: c10c 4bbe 73a1 81be 1685 f33d b5ae acbe
00000070: 5e5b 923e ff19 acbe 2d25 4d3e e616 cd3e
00000080: 915a 9bbe 72a7 50be b108 c03e 844d 213f
00000090: 09ec ecbe e1d7 f53e 74ec 293f 343d 923d
000000a0: d37f 95bc a657 243d 9b38 b13e 526c 2cbf
000000b0: f1ad b23d 64d6 c4be c2a2 843e 3d95 35be
000000c0: 7c5e 9bbe 5580 d5be b859 b9be d999 e6be
000000d0: 3a7e 0a3e 369e d6be 5b89 c0be 590b 47bf
000000e0: c7d2 adbe 676d 393b bc63 54bf a4d3 48bd
000000f0: 8f1a ef3d c09a 20bf d6e2 c7be e62c f13e
00000100: 78b3 11be 7407 273d 7d04 1b3e 3736 1d3f
00000110: cd8e 83be 3aea 0ebf dc63 af3e 5c75 25be
00000120: bd84 363e 1385 523f 0c14 77be 5010 51bf
00000130: 1069 0dbe b37e b9be c41a 04bf 5638 61bd
00000140: 3b16 413e cc99 903e 5a55 66be 94ed 4dbe
00000150: b34e 353e 9f6a 563e b66a 5f3e c970 11bf
00000160: b5d2 0d3e 39b5 473e eab6 1b3e dc68 513e
00000170: 67e2 aa3e d878 e3be 3e5f 5a3e 5f9c c63e
00000180: f5e8 d7be 789e 5ebe 1332 afbe 36bb 553e
00000190: 8fbb 773e ae8e 4cbe f0f8 a73c 0d8b 8f3d
000001a0: bf89 303f 52b2 62be cf57 b23e e067 efbe
000001b0: d5fd 60be d319 163e bd77 413e 0af5 dbbd
000001c0: ce4b d7bb 09a1 ba3e 91fa 87be ec26 c03d
000001d0: ad5e 2f3e c688 01bf 79e5 d2bd 04d0 1dbb
000001e0: 562c 043e fd00 823e 1779 ebbe b631 163f
000001f0: 0d05 a5be 23f6 72be e3e2 80bc 7e6f f83d
00000200: fa72 5cbe 511f e9bd 2148 9b3e 8d21 10be
00000210: 52a7 f0be 5266 723e 6542 7dbe 739f c4bd
00000220: deb9 e7bd 77d9 bbbd c32c 9d3d 5c80 f93e
00000230: 9985 a1be aa1b f73d 552c 723d abf7 74bd
00000240: 10e1 5fbe c285 4abc 04d1 3a3e b01f 1abe
00000250: 20e4 023e 5265 5e3e b9a6 76be 7b9d 5ebe
00000260: 1f3d 293e 0e5e 32bd 2b0f 8b3d 8806 e1bd
00000270: b18a 0f3e 213d 7abd 90dc babe 2cc7 98bc
00000280: 22b6 ffbd 43a5 b8be 1d4e b13c 1f0f 463d
00000290: 3f39 873d 457a 1e3e 84be afbd 4b2d 723e
000002a0: 627c 2ebe f13d 1bbd ed01 11be cb45 e43d
000002b0: f807 163e d478 49be 7457 1c3e 3091 2cbd
000002c0: f56e 9e3d 15a1 4b3e d3e8 8ebe 76ef 5ebe
000002d0: f100 42bd 7656 a33d ec87 e03c e4d8 aabd
000002e0: 8902 b23e e56e 64be d5bc 06bd 6241 c0be
000002f0: 506d d43d e2bc 99be 1af6 2b3e 9437 18be
00000300: 5cc7 a93d a234 8b3e fb5b f13e 2523 6cbd
00000310: 060d babe 0879 9dbe b3eb a7be b6fe 10be
00000320: e6e3 6b3d 41c3 e43d aeaa 303c 79ca ef3d
00000330: b4ba 03bd c69b a23e 2626 24bd 9ce1 5ebe
00000340: 97af c8be d84f 723e 2b52 283e 7dfc 39bf
00000350: 2bcb 953e caa9 e23e c2ef 163e 5259 a93e
00000360: 029a f6bd ca2d a73d ba2c df3e 80dc 87be
00000370: 889d 843e b27a 943c 55b4 153f 4eef cb3e
00000380: 75f7 24be f8d6 b73d 5b4f a73e 6fd7 553e
00000390: 005e c7be 6a3f 423e 3d9e d2bc a2ed a5be
000003a0: 4dd4 9c3d 450f 07bf 7aa8 29be 8431 5e3c
000003b0: 2595 e43e bdfa 303d 007b 3f3d 093b 213e
000003c0: be52 84be 57e5 45be a963 24bf 20f1 c4be
000003d0: be3e d43c e86e a6be a6a3 4dbe fcf6 c6bd
000003e0: e761 2a3e 5c81 cbbd 9019 a2be ad0d 343e
000003f0: e8d1 c6be 55a1 f8bd a421 133e 91cd a2be
0.04840595 -0.36925653 0.31696883 0.034871433 -0.7476042 -0.036542013 -0.16622515 -0.049208585
0.39346963 -0.041653894 -0.25930208 -0.24501069 -0.46421722 0.15190373 -0.28747752 -0.07761194
-0.53677016 0.29286382 -0.037995845 -0.035301387 0.6051094 0.11141586 0.14858751 -0.080710284
-0.19829084 -0.25318488 0.118906185 -0.3372704 0.28585333 -0.33613583 0.20033713 0.40056533
-0.30342534 -0.20376375 0.3750663 0.63008904 -0.4627383 0.48016265 0.66376424 0.0714058
-0.018249428 0.04012265 0.346135 -0.67352784 0.08724583 -0.38444817 0.25905424 -0.17732711
-0.30345523 -0.41699472 -0.36201262 -0.4503925 0.13524714 -0.4191758 -0.37604794 -0.7775169
-0.33949873 0.0028293969 -0.8296468 -0.04902996 0.116749875 -0.6273613 -0.3904025 0.47104567
-0.14228618 0.040778592 0.15138431 0.6141085 -0.25694886 -0.5582615 0.34255874 -0.1615805
0.17824073 0.82234305 -0.24128741 -0.81665516 -0.1380961 -0.36229476 -0.5160334 -0.054985367
0.18856137 0.28242338 -0.22493497 -0.2011016 0.17705803 0.2093911 0.2181805 -0.5681272
0.1384991 0.19502725 0.15206495 0.20450157 0.33375856 -0.44428134 0.21325395 0.38791177
-0.4216992 -0.21740139 -0.3421789 0.20872197 0.24192642 -0.19976303 0.020504445 0.07008944
0.68960184 -0.22138336 0.34832618 -0.46758938 -0.21971829 0.14658289 0.18893333 -0.10740097
-0.006570316 0.36450985 -0.26558354 0.09382424 0.1712596 -0.50599325 -0.10297675 -0.0024080286
0.12907538 0.2539138 -0.45990822 0.586696 -0.32230416 -0.23726706 -0.015733188 0.121306404
-0.21528235 -0.11382926 0.30328467 -0.14075299 -0.47002655 0.23671845 -0.24732359 -0.09600725
-0.11314748 -0.091723375 0.07674553 0.48730743 -0.3154724 0.120658234 0.05912431 -0.059806507
-0.21863198 -0.012360992 0.18243796 -0.1505115 0.12782335 0.21718338 -0.24087037 -0.21739762
0.16527222 -0.04354673 0.067900024 -0.10987574 0.1401775 -0.061093453 -0.364964 -0.01864966
-0.12485911 -0.36063585 0.021643693 0.048354264 0.06602716 0.1547633 -0.0858126 0.2365009
-0.17039636 -0.03790087 -0.14160891 0.111461245 0.14651477 -0.19674999 0.15267736 -0.04213065
0.07736007 0.19885667 -0.27912006 -0.21771035 -0.04736418 0.079754755 0.027408563 -0.0834215
0.3476756 -0.22307928 -0.032894928 -0.37549883 0.10372412 -0.3002692 0.16793099 -0.14864951
0.08289978 0.27188593 0.47140488 -0.057650704 -0.3633806 -0.30756402 -0.32797012 -0.14159665
0.057590388 0.11170054 0.010782881 0.117085405 -0.032160476 0.3175947 -0.040075444 -0.2176575
-0.39196464 0.2366327 0.16437595 -0.7265089 0.29256567 0.44270164 0.14739898 0.33075958
-0.120410934 0.081630304 0.4358881 -0.26535416 0.25901437 0.018124912 0.5847829 0.39831012
-0.16110022 0.08976549 0.3267773 0.20882963 -0.38938904 0.18969503 -0.02571022 -0.32407862
0.07657681 -0.52757674 -0.16568175 0.01356161 0.44645038 0.043207873 0.04674816 0.15745176
-0.25844377 -0.19325767 -0.6421457 -0.38465214 0.025908824 -0.3250649 -0.20081958 -0.09715077
0.1663891 -0.09936783 -0.31660128 0.17583342 -0.3883202 -0.12140147 0.14368302 -0.3179746

affine_layers.1.bias f4 [64]
00000000: 5165 9e3c 4851 80be 418e b1bc b90c f0bd
00000010: 2aed 7d3e e885 013e 6761 2a3e 0ea6 1fbd
00000020: 82b2 18bc 0b32 14bd 63bb 8dbc aafa f53d
00000030: 1fc6 96be 4900 ec3d 0e7e 2c3d 3b9b 6c3e
00000040: 0103 5ebe 299d 2d3e 68af 493d b4ec 143c
00000050: bf0e 1abe be88 4d3e 75fd dabb 093e 983e
00000060: 30bf 55bd e146 c03d e82f 0abd 0cd2 9d3d
00000070: 0d86 a03e d9f4 55be fa9d a9bb 7687 79bc
00000080: eebf 013e 15a7 4dbe 2543 433c 9303 963d
00000090: 37ce 11be a39d 2b3e bee9 6d3e 74a8 be3d
000000a0: 2d97 963e ec5e d6bd 77c8 50be 1ef6 2bbc
000000b0: 7764 fcbd 6530 2e3e e971 30bd 9eb1 d03d
000000c0: dd4e 993d a6ae 9bbd ecc5 dcbd 5a2a 95be
000000d0: c767 00be 062e 92be 960d 5c3e 175f 6c3d
000000e0: 16af 9cbe 0490 b1bb a494 153e 7ca2 6abd
000000f0: 84f8 983e cf10 f33c 5286 713e c7f7 213c
0.01933542 -0.25062013 -0.021674277 -0.11721177 0.24797502 0.12648737 0.16638719 -0.03897672
-0.009319903 -0.036180537 -0.017301267 0.12010701 -0.2944803 0.11523492 0.042112403 0.2310609
-0.21680833 0.16954483 0.049239546 0.009089638 -0.15044688 0.20071694 -0.0066830465 0.2973483
-0.052184284 0.09388519 -0.033737093 0.07706079 0.31352273 -0.20894183 -0.005176303 -0.01523005
0.12670872 -0.20083268 0.011917864 0.073249005 -0.14238821 0.16759352 0.23233697 0.09309474
0.29412213 -0.10467324 -0.20388971 -0.010495691 -0.1232385 0.17010649 -0.043077383 0.10190128
0.07485745 -0.07601671 -0.10779938 -0.29133874 -0.12539588 -0.28550738 0.21489558 0.057707872
-0.3060233 -0.0054187793 0.14607483 -0.057283863 0.29877102 0.0296711 0.23586395 0.009885735

final.weight f4 [1, 64]
00000000: 63f5 233e 3c0a 89be 8d73 45be 2794 7ebd
00000010: 1893 d23e 32bc 3b3d 423f d53d 2ed9 40be
00000020: ebbf 8cbe 8f93 813e c628 12bc 1b9a c63d
00000030: 8311 1bbe b584 423e 07e3 723e 1730 713e
00000040: c686 a2be b620 f83d 2c63 7b3d a03d 8abd
00000050: 5395 b0bd 814a 693e 1a8c a53d 17fd 863e
00000060: a94c 70bd 34fe 733c 99ad 10be 5221 1d3e
00000070: 4ef6 163e 0e7c e53d e1bb 883e 300e 073e
00000080: 4881 af3d 26d5 bfbd a257 cbbe f25e 47bb
00000090: c69f ecbd 323b 093b 6017 323e 5823 953e
000000a0: b4b5 6b3e bd2f 86bd f984 b0bc 8adc 94bd
000000b0: 611a 5d3e a4a3 2f3e fbf9 833e f4ad 6c3e
000000c0: 87bb f43d 70b5 79bd b4e9 3fbd fdd9 35be
000000d0: 28ac 91bd 43d5 2fbe 245d 733e 715b 0c3e
000000e0: 080a 28be 6a67 5f3d bad3 303e 1f12 833e
000000f0: f313 6c3e 15a4 ffbd 519c 273e bb38 1cbe
0.16011576 -0.2676562 -0.1928236 -0.062153008 0.4112785 0.045833774 0.10412456 -0.18832847
-0.27490172 0.2530789 -0.008920854 0.09697362 -0.15143399 0.18995936 0.23719417 0.23553501
-0.3174345 0.12115614 0.061373875 -0.06750035 -0.08622231 0.22782327 0.08083363 0.26364967
-0.05866686 0.01489215 -0.14128722 0.15344742 0.14742395 0.11205302 0.2670584 0.13189006
0.0856958 -0.09366827 -0.39715296 -0.0030421582 -0.11553912 0.0020939824 0.1739173 0.29128528
0.23018533 -0.06552074 -0.021547781 -0.07268627 0.21592094 0.17152268 0.25776657 0.23113233
0.119498305 -0.060964048 -0.046853736 -0.17758937 -0.07112914 -0.17171197 0.23765999 0.13706757
-0.16410077 0.054541983 0.17268267 0.25599763 0.23054485 -0.12482468 0.16368224 -0.15256016

affine_layers.0.weight f4 [64, 4]
00000000: 3b8d edbe 01eb bf3c c570 463e d2b3 713e
00000010: 7953 b43d 30a6 913e ff82 d7be 6e67 e43c
00000020: 83bd d7bd 071b 9ebe ef96 e33e a594 b33e
00000030: b245 9bbe 0e7a 8bbd cb7b 253e bdbf e93e
00000040: 8b78 903e 6780 59be e5f8 b6be dc75 20be
00000050: 0af5 213d d3da 623e 1de0 e03d 366e db3e
00000060: c3a2 ad3d 0863 25be 28d4 40bd 4794 1fbf
00000070: fd50 48bc 96ed 37be ea1e 65be f554 fcbe
00000080: d290 cbbd 8431 00bc df2a 8cbe b188 eabe
00000090: c8b0 16be b6c1 9ebd 376f 003f 4793 aa3d
000000a0: dff1 a1bc 9243 f23e 5529 28be 5863 0ebe
000000b0: 3ad0 59be 0b5e 1ebe eb67 b53e c0a0 2a3f
000000c0: 196e 343c 9563 99be c764 b03d 67cf c3bd
000000d0: ebbd 09be c3cc 673e 711e 073f 0bac 333f
000000e0: b6d2 73be f409 9d3e c917 183f 28e5 893e
000000f0: 860c a43c 2bf1 d33e f209 e6be ceef 87be
00000100: dec4 1b3d 8e78 433e 6941 91be 2941 6bbe
00000110: f8ed a13e f027 8dbe 32c2 e7bd 7336 dcbe
00000120: 1c44 fabd acab a5be eea9 6fbe ef78 1abf
00000130: 7f39 b0bd cdee 2dbe d567 d6be f1a6 13bf
00000140: 19e1 9e3e d386 ce3e 1267 a1be 2957 3cbf
00000150: 183b 413c ff26 febe ecd1 043e 7477 043d
00000160: 7210 0cbe 4425 96bd 81d2 733e 292b 333e
00000170: 2ed7 61be c287 b5be 34e2 8fbe f28a e4be
00000180: 21df 9c3d aa69 a0be 6a96 f03d 6264 cfbe
00000190: 91a1 20bb 541f e83e 64cc f0be 3acb 8fbd
000001a0: e0b6 70bd 443f 8abc 638f 873e 7930 8a3f
000001b0: a6d1 a03c 1476 1abe f788 40be 3399 11bf
000001c0: ac61 fb3d c387 893e 04fc 00bf 1b3f b4bd
000001d0: c587 8dbd df88 c3bd abe0 8dbe 68e7 edbe
000001e0: 0969 463c 61ae 043f 9f3c 01bf 8c2d 54be
000001f0: ace0 253c 3103 e43e 211f 75be 998f 773d
00000200: 6879 033d 1a20 c43e 0fa1 b2be 343a 4ebd
00000210: 9835 cf3c 8d46 3abe b8b0 8bbd a4dc 2dbf
00000220: adb4 503b 31d0 06be 34aa ee3e fadd 1b3f
00000230: c2e7 03bd d3e6 60be 8f26 54be f1af 1dbf
00000240: 6a97 653e 2daa 4fbe cc37 0ebe a813 4bbe
00000250: ee33 61bd e83d 063e 2c6c 1d3d 5251 2e3d
00000260: 35f3 e5bd ed71 66be c649 d93e 1b97 853d
00000270: 7fdf a7bd 3fa0 a6bc b4af 263e 24e8 d83e
00000280: e9cd 50be 7545 7cbd 30f1 3dbe 1e1e 8cbe
00000290: d948 c6be 1723 fc3d 109d ea3d e4fe b2bb
000002a0: a1f9 05be 5a37 013d 4ea0 8cbe c54b c4be
000002b0: 0c88 afbc 0e87 133f 509a 0abf b3cb 4abe
000002c0: 9562 30bc 87f7 61be b977 413d 4671 9abe
000002d0: 2a4d a0bd 4b45 393e eeb7 353f 1063 e13e
000002e0: 7f2e 523d 92a7 d93e 35d4 7abe 982e 59be
000002f0: cfa5 913d 689c 863e 41e6 e1be 4c38 3a3d
00000300: cac3 f43d 8bea 64bc 90ce 16be edbd fdbe
00000310: d34d c7be 219b 20be 7c15 3a3e 5641 923e
00000320: 345a 16bf 9d12 78bb e715 b3be de5e c3be
00000330: bced 28bd 9e3e b2ba 627f 21bf f6f5 16bf
00000340: ad75 e23d 6062 12bf 66f8 003e 2a9c 2dbe
00000350: 2a02 90bd 53b0 073e 8286 f8be d485 10bf
00000360: 1f25 02bd f9b8 49be 06b3 62bd adab d7be
00000370: cbc3 fd3d 579b 4d3e 91ee ecbe 2ca3 04be
00000380: 31c4 143e c064 a4be 8a98 0dbd ba03 8abe
00000390: 726e f2bc 94f6 ebbe 95a0 c63e 21f0 45bd
000003a0: 1f32 243e d177 3a3e 0faf 45be 0e31 28be
000003b0: 14c7 bebe 1d10 433e 56ff aa3e 7db9 3c3e
000003c0: 6787 dcbd 9910 e23e e0a8 89bd 89f2 25bd
000003d0: b40f 6dbe 9ca2 bfbd 1465 cebe 5094 eabe
000003e0: ea50 4b3e 3d06 4c3e 8266 0cbe c662 babe
000003f0: 1557 92bd 6ff3 bbbd e1e3 bcbe 23ca 04bf
-0.46396813 0.023427488 0.19378956 0.23603752 0.08804984 0.28447104 -0.4209213 0.02788135
-0.10534193 -0.30879995 0.4445109 0.35074344 -0.3032661 -0.068103895 0.16160505 0.45654097
0.28216967 -0.21240388 -0.35736766 -0.1566996 0.039540328 0.22153787 0.10980246 0.42857522
0.0847831 -0.16151059 -0.047077328 -0.6233563 -0.01222634 -0.17961726 -0.22375074 -0.49283567
-0.09939732 -0.007824305 -0.27376458 -0.45807412 -0.14715874 -0.07751791 0.501697 0.08328872
-0.019768653 0.47317177 -0.16422017 -0.13905084 -0.21270838 -0.15465562 0.35430846 0.66651535
0.011012577 -0.29958788 0.08612972 -0.09561043 -0.13451354 0.22636704 0.52780825 0.7018439
-0.23810849 0.30671656 0.59411293 0.26932645 0.020025503 0.41394934 -0.44929463 -0.26550144
0.038029544 0.19088957 -0.28370216 -0.22974075 0.31626868 -0.27569532 -0.11316337 -0.4301029
-0.12220022 -0.32357538 -0.23404667 -0.6034078 -0.086047165 -0.16985627 -0.41876093 -0.5767661
0.3103111 0.40337238 -0.3152395 -0.73570496 0.011793874 -0.49639127 0.12970704 0.032340482
-0.13678148 -0.073313266 0.2381077 0.17496933 -0.22054741 -0.35455137 -0.28102267 -0.44637257
0.07659746 -0.31330615 0.11747439 -0.40506274 -0.0024510364 0.453364 -0.47030938 -0.07021184
-0.058768153 -0.01687587 0.26476583 1.0796043 0.019631218 -0.15084106 -0.18802248 -0.5687439
0.12274489 0.2686139 -0.50384545 -0.08801099 -0.069106616 -0.095475905 -0.2771047 -0.4646561
0.012110003 0.5182858 -0.50483125 -0.207205 0.010124367 0.44533685 -0.23937656 0.06043968
0.032098204 0.38305742 -0.34888503 -0.050348476 0.02529411 -0.18190975 -0.06820816 -0.67914796
0.0031845972 -0.13165356 0.4661423 0.60885584 -0.032203443 -0.21963052 -0.20717834 -0.6159659
0.22421041 -0.2027976 -0.13888472 -0.19831717 -0.054981165 0.13109553 0.03843324 0.04255802
-0.11228029 -0.22504397 0.42439097 0.06522962 -0.08196925 -0.020340083 0.16277963 0.4236461
-0.20391048 -0.061589677 -0.18549037 -0.27366728 -0.38727453 0.1231138 0.114557385 -0.0054625142
-0.13083507 0.031546928 -0.27466053 -0.38339058 -0.021427177 0.5762795 -0.5414171 -0.19804268
-0.010765691 -0.2206708 0.047233317 -0.30164546 -0.07827218 0.1809284 0.7098378 0.4402089
0.051313873 0.42510659 -0.24495013 -0.2120918 0.071117036 0.26291203 -0.44120982 0.045463845
0.11951406 -0.013971935 -0.14727235 -0.49558964 -0.38926563 -0.15684177 0.18172258 0.28565472
-0.5873139 -0.0037852891 -0.34977648 -0.38158315 -0.041242346 -0.0013598984 -0.63084996 -0.58969057
0.11057601 -0.5718136 0.12594756 -0.16954103 -0.07031663 0.13250856 -0.4854012 -0.56454206
-0.031773683 -0.19699468 -0.05534651 -0.42123166 0.1239086 0.20078789 -0.46275762 -0.1295287
0.14527966 -0.32108116 -0.0345693 -0.26955968 -0.02959368 -0.46086562 0.3879439 -0.048324708
0.16034745 0.18209769 -0.19305061 -0.16424963 -0.3726126 0.19049115 0.3339793 0.18430133
-0.107680134 0.44153288 -0.067216635 -0.040514503 -0.23150522 -0.09357187 -0.4031149 -0.45816278
0.19855085 0.19924255 -0.13710979 -0.36403483 -0.07145516 -0.09177291 -0.36892608 -0.51870936

affine_layers.0.bias f4 [64]
00000000: 98df 923e 206a be3c 09cc 98bc 2f85 833e
00000010: 3cb3 c8bd f279 a63b b532 4ebd 4ed4 69bc
00000020: 1289 42bc 25d2 ec3d f42a 883d fbfa 243d
00000030: 0b98 4cbc d0e2 6b3d 04fe b33b 4a10 763d
00000040: 2fa7 093e 112c 68bd 8676 4b3c b3fa e2bb
00000050: dc38 3dbe 503f aebc a1e5 00be 90da 8ebb
00000060: ec60 433c 7009 ed3c 81ff 2dbc 4a30 2dbd
00000070: 5dc7 063d ccb8 2ebc f20d 7b3d b04a 213d
00000080: 0afb 233d 5525 97bc 348b 90bc f947 b4bc
00000090: 6dd3 4bbe 9326 443e a55b 9fbc 0cb7 073e
000000a0: 77f8 3d3e 2910 a53e 1ffb 963d 2f6e 573d
000000b0: 12b2 adbb 7802 a73d 08ae 303d 81d3 c03c
000000c0: 69ad fe3c 4353 643e 51dd bf3d 8abd 19bc
000000d0: da7a d03c f40a 903d 92aa 9b39 7dd3 433c
000000e0: 9471 47bd 151f 8abc c141 89bd 189b 883d
000000f0: 295c 833d 9e31 55bd 55ca 2ebd 3510 20bb
0.28686213 0.023243964 -0.018651979 0.2568755 -0.09799811 0.005080455 -0.050341327 -0.014271809
-0.0118735 0.115635194 0.06648818 0.040278416 -0.012487422 0.057589352 0.0054929275 0.06007413
0.13442682 -0.05668265 0.012418395 -0.0069268583 -0.18478721 -0.021270424 -0.12587596 -0.004359551
0.011924963 0.028935164 -0.010619999 -0.04228238 0.03290497 -0.010664176 0.061292596 0.03937787
0.04003433 -0.018450418 -0.017644502 -0.022006975 -0.19904871 0.1915534 -0.01945288 0.1325342
0.18551813 0.32238892 0.07372116 0.052595314 -0.0053007687 0.08154768 0.04313472 0.023538353
0.031088548 0.22297387 0.09368385 -0.009383569 0.025449205 0.07033339 0.0002969099 0.011952278
-0.0486923 -0.016860524 -0.06701995 0.06670207 0.064140625 -0.05204927 -0.042673428 -0.0024423723

affine_layers.1.weight f4 [64, 64]
00000000: 421e 0a3d a5bb 983d 0b12 bb3e f9a2 433e
00000010: 7925 943b c458 7c3e 1b6c 9fbe 6a03 85be
00000020: 549d 72be 22a0 8abd 2f22 ee3c 3afe 173f
00000030: bc19 e63e 6b58 2b3f 33c0 253e 94e9 d0be
00000040: 8a8a cf3c 2370 a63d 59dc 00bf 6294 00bf
00000050: 80e9 5f3d 1e7f fc3d 7c94 243e dc09 02bf
00000060: 6dd4 13bd 8f2a dfbe 85a0 5a3e 3fe3 a8be
00000070: 9b1f d5bd 3c8b 20bf 794d 11bf 35ff d2be
00000080: 382f c1be 6c6a 81bd 1c49 0a3f 720c 3cbe
00000090: b132 fe3c 6edb 91bd 0a87 153e 3125 b23e
000000a0: dbf8 8ebe c1f5 81be 8f9c c9be af1d 1ebf
000000b0: 8d2a 24be 885d 2e3f 70f4 243c 88a9 03be
000000c0: 3a11 d0be 5439 31be f87c 443d fd9e 53bf
000000d0: 2aae 1e3e b2c8 0ebf 8ab7 f1be 6190 b8be
000000e0: 4447 2e3d 1003 cb3e 6554 a33d 459a ebbd
000000f0: d874 96bd 3fb3 cebe af1d 87be 2839 4fbf
00000100: 7c96 6fbc 905f c13e c750 63be 17cb b13d
00000110: f599 a8bd ce8a 013f e422 dbbb 79a7 453e
00000120: f320 bc3e da98 8ebc 70fd 683e 5c10 abbe
00000130: f210 abbe 361d a83d 61ed 043e 19ac 8f3e
00000140: 007c e83d fa94 3c3d 7a67 2d3d 3d53 6d3e
00000150: b4e1 c73e 4932 46bd 586d 0cbe 6d3d 83be
00000160: 4c20 f0be 0d77 6e3f cd5d 8bbe 8da2 17bd
00000170: f39b a03e ebd1 c53e c5e7 613f 183b 3a3e
00000180: 5a37 393f 4b23 04be 0093 e8be eff3 773e
00000190: 7cc8 583c efd8 8fbe 7b9c a6be e182 14be
000001a0: f649 713e b13f 323e af27 f63e 3659 2c3f
000001b0: b898 56be 6984 63be f881 b53e a4b2 0b3f
000001c0: fdc2 8e3e 2a87 92bc ebf1 e93e 3ad1 4c3f
000001d0: 09b5 71be 3855 c83e 07f4 0b3e bca8 0a3f
000001e0: 162f 0dbe c2d8 1ebf 4e97 533e 6a4e d23c
000001f0: ebfa ac3e b3e2 383e 160a 7ebd 7eee 9a3e
00000200: 0ca3 843e 2d47 a73e 19c2 3d3d ca69 c3ba
00000210: 2d79 4b3e 408e fe3e ad1b 92be c531 21bf
00000220: 9b0a a7be 961a 05bd e168 f5bb 5a30 0d3e
00000230: b5f5 53bc d979 b83e 7663 18be 3432 b0bc
00000240: 1d20 47be fec9 bdbe 8313 e5be 9f96 bfbe
00000250: 6884 8ebd fecb 80bd 6703 24be d8ea 29be
00000260: 4abd c2be 74f8 183e 9106 fd3e 7e5b f4be
00000270: 60e8 da3c e6d0 73be 4e5c 69bd cc1a ee3d
00000280: c79a 713e d5eb 80bd 11b0 793c 6a14 c4be
00000290: 92bf 123f 5848 65bc 5217 8cbb d8a2 ddbe
000002a0: f599 01bd 037c ebbe e9d7 bf3c 00ee 113e
000002b0: 8f82 233e 1a6e acbb c9ca 6a3a de4c be3e
000002c0: 587b 75bd f366 e23d b7c8 783e b9a9 c4be
000002d0: be90 b5be ae37 923d 45a3 77bd 3fa4 b7bd
000002e0: 2fc4 a93e 163a 1bbe 22d1 7f3c 99e2 debd
000002f0: fe8c 35be 32ca 38be 6feb 34bc a00b 4ebe
00000300: 71b6 503d c80f 153e 130d 923d 7093 7c3e
00000310: d678 b03e acfb 103f 1239 19be 420a 47bf
00000320: 39e2 eabd 29c4 0bbe d0ee 493e 9b55 8bbe
00000330: f916 f9bc 7c52 523f 7f83 aa3e 679b f93e
00000340: 64c8 32be 1c71 1b3c 08fd 08be 6dc8 d1be
00000350: ebfa 483e ecc1 b7be 0393 0b3e 8630 efbd
00000360: 0101 11bf 0b99 1f3d 5d20 fd3e e277 d2bb
00000370: 881e 1a3e fa2e 86be a8d2 68be eaaf 85bc
00000380: 94e1 223e 72fb d23d 3bbb 343e 5ce4 d8bd
00000390: f2ab 263d bb6d 94bd 3d37 0cbd 0e9d 6c3c
000003a0: 38fb b7bd f527 9f3d 6662 713e 4d1a 7d3d
000003b0: 5821 66be 2827 a8bd 67bd d0bd eeee d53d
000003c0: 4f70 f6bd 3f44 48be bdd0 20be 20cc f7be
000003d0: 2caf a6be edf3 623b 5fa1 cfbe b3c0 9c3e
000003e0: 9dba 383e 7e2e bbbd e022 b93e 3a46 76be
000003f0: 6a0b 803d c924 17bf fb8b f13c 021c dabe
0.033720262 0.07457665 0.36537203 0.19105138 0.0045210687 0.24643236 -0.31137165 -0.25979167
-0.23692828 -0.06768824 0.029069034 0.59372294 0.4494151 0.6693179 0.161866 -0.40803206
0.025334615 0.08126857 -0.50336224 -0.50226414 0.054666042 0.12328933 0.16072267 -0.50796294
-0.036091257 -0.43587157 0.21350296 -0.32985875 -0.10406419 -0.62712455 -0.5675884 -0.41210333
-0.37731338 -0.063191265 0.54017806 -0.18364123 0.03103003 -0.07121931 0.14602295 0.34794
-0.27924237 -0.25382808 -0.39377257 -0.61764044 -0.16031857 0.6811147 0.010068044 -0.1285764
-0.40638143 -0.17307025 0.047970742 -0.8266447 0.15496126 -0.55774987 -0.47210342 -0.36047652
0.042548433 0.39650774 0.07975081 -0.11504034 -0.07346505 -0.4037113 -0.26389834 -0.8094659
-0.014623281 0.3776822 -0.22198783 0.086813144 -0.0823249 0.50602424 -0.006687509 0.19302167
0.36743888 -0.01740687 0.22752929 -0.3341092 -0.33411366 0.082086965 0.12981178 0.28060988
0.11351776 0.046040513 0.04233501 0.23176284 0.39039385 -0.0483878 -0.13713586 -0.25632802
-0.4689964 0.9315041 -0.27220002 -0.037020255 0.3136898 0.38636717 0.8824428 0.18186605
0.72350085 -0.12904088 -0.45424652 0.24214147 0.013231393 -0.28095195 -0.3254126 -0.14503051
0.2356337 0.17407109 0.4807715 0.67323625 -0.20956695 -0.22218479 0.3545072 0.5456946
0.2788314 -0.017886717 0.4569238 0.80006754 -0.23604216 0.39127517 0.13667308 0.5416372
-0.13787493 -0.62049496 0.20663187 0.025672156 0.33785185 0.18055229 -0.062021337 0.3026008
0.25905645 0.3267149 0.046327684 -0.0014908847 0.19870444 0.49717903 -0.2853674 -0.6296657
-0.3262528 -0.032496057 -0.007489309 0.13787976 -0.012936999 0.36030462 -0.14881691 -0.021508314
-0.19445844 -0.3706817 -0.4474145 -0.37419602 -0.06958848 -0.062889084 -0.16016923 -0.16593492
-0.3803504 0.14938527 0.49419072 -0.47726053 0.026722133 -0.23810157 -0.056972794 0.11626205
0.23594199 -0.062949814 0.015239731 -0.38296825 0.57323563 -0.013994299 -0.004275241 -0.43288302
-0.031640965 -0.4599305 0.023418384 0.14250946 0.15967773 -0.0052621486 0.0008956609 0.3716802
-0.059932083 0.11054792 0.24295317 -0.38410738 -0.35461992 0.07139526 -0.06045844 -0.08966874
0.3315749 -0.15158877 0.015613826 -0.10883064 -0.17729566 -0.18045881 -0.01104246 -0.20121622
0.05095524 0.14556801 0.071314 0.24665618 0.3446719 0.5663402 -0.14963177 -0.7775003
-0.1146893 -0.13649048 0.19720006 -0.2721375 -0.030406462 0.8215711 0.3330345 0.48751375
-0.17459255 0.009487417 -0.13377774 -0.40973225 0.19626968 -0.35890138 0.136303 -0.11679177
-0.56642157 0.038964313 0.49438754 -0.0064229826 0.15050709 -0.26207715 -0.22736609 -0.016319234
0.15906364 0.10301866 0.17649548 -0.10590431 0.040691324 -0.07247492 -0.034232367 0.014441742
-0.08983463 0.07771293 0.23572692 0.06179266 -0.22473657 -0.082105935 -0.10192376 0.10445963
-0.1203314 -0.19557284 -0.15704627 -0.48397923 -0.3255552 0.0034630254 -0.40552804 0.30615768
0.18039937 -0.09139727 0.3615942 -0.24050227 0.06252177 -0.59040505 0.029485693 -0.42599493

affine_layers.1.bias f4 [64]
00000000: fd77 a5bd 1cc2 e63d 1484 adbb adf8 1fbd
00000010: 9dcb 493d e339 0e3d 3820 09be aa3a 563e
00000020: f6fe c0bc 5193 e0bc 8188 1cbe 8c44 c2bc
00000030: ec7f 4bbd 0c12 bb3c e611 093d 59d3 1a3d
00000040: c969 25bd 1526 86bc 462d 0bbd 1bb2 c63c
00000050: 56e2 81bd a5c4 363d e989 b73d c6b2 0c3c
00000060: 6c72 8dbd 6b22 f8bc 3551 f5bc e3d9 24be
00000070: 8263 123d fb8e c3bd 1b11 c7bc ca46 c1bc
00000080: 699b 1dbe 4823 63bb e05f efbc a1f1 043d
00000090: 636b 4d3d de83 7abd 7285 373d 727e 393c
000000a0: 8a1e 2a3b 9e87 8abd 6186 01bd 88e5 733d
000000b0: 253e d2bd 5111 66bc 15c5 f1bd 5420 343d
000000c0: 2e9b 1f3e 11b3 433d 3d04 2e3d 33ca 15bd
000000d0: 73c0 653d 335b 8e3d 1a93 f73d effb 123e
000000e0: bbbc 843c 9169 03be cded e6bd b608 78bd
000000f0: 6209 1abd a6c5 41be 0950 3d3d 2f09 b1bc
-0.080795266 0.11267492 -0.005295286 -0.039055515 0.049266446 0.034723174 -0.13391197 0.20920816
-0.023559075 -0.027413996 -0.15286447 -0.023714326 -0.049682543 0.022835754 0.033464335 0.037799213
-0.040384088 -0.01637558 -0.033978723 0.02425485 -0.06341998 0.04462113 0.08961851 0.008587545
-0.0690659 -0.03028985 -0.02994595 -0.16098742 0.03573943 -0.09548756 -0.024300149 -0.023593325
-0.15391316 -0.003465848 -0.029220521 0.032456998 0.05015124 -0.061160915 0.044804998 0.011321651
0.0025958144 -0.06764148 -0.031622294 0.05954507 -0.102657594 -0.0140422145 -0.118051685 0.043976143
0.1558654 0.047778193 0.04248451 -0.036569785 0.056091737 0.069509886 0.12088604 0.14353918
0.016203275 -0.12833239 -0.11275826 -0.060555182 -0.037606604 -0.18923053 0.046218906 -0.021610824

final.weight f4 [2, 64]
00000000: 21c3 ce3d 096b 99be b3e5 0cbe c9a2 3fbe
00000010: d085 913e 267a 5d3e 82c2 ab3e 29a5 15bf
00000020: da44 903d ee41 75be 9793 513e 9c94 01be
00000030: 6e6d b8bd 0852 e63e a735 d23d 1215 e1bd
00000040: 2a4d 68be bc22 0bbe 652b debd ff9c 0fbd
00000050: 9a18 77be 189e e63c efc4 acbe 225c 3a3e
00000060: a0d0 403e 4d37 113d 0fef 19bd 5306 b23e
00000070: 8197 5a3e 56da 9f3e b363 64be ecb4 59be
00000080: b7a1 033f 4483 a13e e739 24be adf8 b03e
00000090: 67e7 f33d fea9 9fbe 31d5 063e 66c5 a23e
000000a0: e481 ecbe 73da 143e 904e 2dbd f680 ccbe
000000b0: 9eaa f63e 306f 08bf 64c2 f13e 5886 1c3e
000000c0: b988 4ebe 913b b43e 9943 4d3e 1603 96be
000000d0: 1faa 2c3e c858 753e 7b57 64be 554d 8ebe
000000e0: b1c8 f1be 9511 973e 9e6a 153e 4344 a3bd
000000f0: 1a67 c0be a14c c93e 915c 213e 2447 5dbe
00000100: 5d3e 91be 1265 9e3e 2b1b 323e 6f98 bf3e
00000110: f73d 86be 2e6a 62be ed0b 28be a86e 0a3f
00000120: 7468 6cbd befe 123e ad31 90be cfab 413e
00000130: 5838 563e 8ef8 eabe dbf1 f6bd 2440 163e
00000140: 751e 453e 7af5 553e 3d7d da3d 8ee6 c2bd
00000150: 2d3c cf3e 75b7 3fbc d2b9 ad3e 91a8 83be
00000160: 53ca 18be 334f 023e fb86 5e3d 0319 64be
00000170: 2a2f a9be 7cfa 5cbe e890 c23e 1152 963d
00000180: 909e ebbe 14fc c0be 1d2e 333e 04de 14bf
00000190: 07a9 13be 03e8 8e3e e9cf b1bd 4c50 62be
000001a0: 8007 e73e dc2a afbe 8405 8b3d 783e ad3e
000001b0: 11a3 c4be 3a2f a63e 5e8a bfbe a486 29bc
000001c0: 84c0 363e d782 94be 9e08 41be e758 b73e
000001d0: 74db 0ebe 8ee8 6abe 24b2 c93e 64b8 653e
000001e0: 416e 993e e0c3 5fbe 09bf 4abe a56f a63d
000001f0: 4b2a c73e ae32 debe d50f 86be 6763 b03e
0.10095812 -0.29964474 -0.13759498 -0.18714441 0.28422403 0.21628627 0.33546835 -0.5845514
0.070443824 -0.23950931 0.20466457 -0.12654346 -0.09005247 0.4498446 0.102641396 -0.10990347
-0.22685686 -0.13587469 -0.108481206 -0.035061833 -0.24130479 0.028151557 -0.33743998 0.18199208
0.18829584 0.03545313 -0.0375815 0.3477045 0.21346857 0.31221265 -0.22303657 -0.21260422
0.5141863 0.3154546 -0.16037713 0.34564725 0.11909371 -0.3118438 0.13167264 0.31791228
-0.4619285 0.14536457 -0.04231125 -0.3994214 0.48177046 -0.5329466 0.4721862 0.15285623
-0.20169343 0.35201696 0.20045318 -0.2929923 0.16861771 0.23959649 -0.22298996 -0.27793375
-0.47223428 0.29505602 0.14591452 -0.07972004 -0.3757866 0.39316276 0.15757968 -0.21609169
-0.28367892 0.30936486 0.17393176 0.37420985 -0.2621915 -0.22110817 -0.164108 0.540751
-0.0577168 0.14354989 -0.281629 0.18913196 0.20919931 -0.45892757 -0.12057849 0.14672905
0.192499 0.20894423 0.106684186 -0.09516631 0.40475598 -0.011701454 0.33930832 -0.25714543
-0.1492093 0.12725525 0.054327946 -0.22275166 -0.33043796 -0.21579927 0.3800118 0.07339872
-0.4601941 -0.3769232 0.1749806 -0.5815127 -0.14419948 0.27911386 -0.08682234 -0.22100943
0.4512291 -0.34212387 0.067881614 0.33836722 -0.3840566 0.32457906 -0.37410253 -0.010347042
0.17846876 -0.29006073 -0.18850943 0.35810015 -0.13950902 -0.22940275 0.39393723 0.2243362
0.2996693 -0.21852064 -0.19799437 0.08126763 0.38899454 -0.4339804 -0.26183954 0.34450838

final.bias f4 [2]
00000000: ec92 3abd 76ff 1abd
-0.045550272 -0.037841283

exp_avg f4 [64, 4]
00000000: b94e 9d39 3f4a c8ba 5a35 7d3a 7f97 b83a
00000010: 9355 273a 6fed 8dba e8ad e83a cb21 9839
00000020: 36fd 093b 05fa adbb 814c 863b 9f53 343b
00000030: 788d 313b 156d 2abb c52d d63a f94f 4c3a
00000040: 013b edba 00da 4b3a 6fe1 b038 aa62 ddb5
00000050: 66c2 14bb d039 183b 0769 ae3a 85f6 8cba
00000060: 5a10 b73a a757 86ba b1bb be3a 6018 f839
00000070: 53e9 d6b9 d3a3 21ba ae46 123b c023 a339
00000080: ae72 953a e1c2 093a bf22 f0ba d7d8 67ba
00000090: 79c3 013b 07ca 92ba eff8 b33a f720 0f39
000000a0: 0ec7 00bb f61d 9e3b dd6f 6ab9 7345 56bb
000000b0: b1bc f2ba 856a 123a 4f95 df3a 25da 8b39
000000c0: ccc0 7ab9 98d1 49ba ba2f db3a 909f 393a
000000d0: 44d8 95b9 c168 b23a 1e46 69ba 67ab 57ba
000000e0: 5d15 41bb 2e2e ef3a 2343 66ba 3332 23ba
000000f0: 33ba 0339 d127 643b cc0c 6c3a 4fb7 46bb
00000100: 6748 6d3a cad1 3dbb d094 b43a c35a 093b
00000110: 1065 a23a f779 37b9 7317 94bb 2f01 efb8
00000120: 273e 1aba d2fa 86ba 5b98 92ba 9233 b83a
00000130: ac09 1ab8 951a c53a c0e6 c63a 4fce 5fba
00000140: 1c04 f33a 08ec 49bb 41bd 8e3b 9b22 953a
00000150: 3efa e63a 9ca4 52bb f447 083c 8a88 6d3a
00000160: 08af 6aba 1b25 ae3a 6165 52ba b03a 90ba
00000170: 1892 8fba 3d19 373b 87cb e93a f670 d6ba
00000180: 31f0 873a b34c 5eba 8e58 393b a2ea ceb9
00000190: 9cbc 073a 1cb2 4dbb f391 04bb 3b9d ff3a
000001a0: 846d 3e3a 3ba5 c5ba df42 5b3b 7f0f 413a
000001b0: e810 c5b9 0362 093a c21e 3aba 6040 1fba
000001c0: 1242 74b9 2229 f83a 915c fa39 b740 ebba
000001d0: d112 37bb 8ed1 d23b ebaf 563b d9f3 8fbb
000001e0: ab3e 3c3b c7b4 b6bb 87d6 133c 5faf 2a3b
000001f0: f288 863a 0fc5 0abb 3a79 fb39 9a84 983a
00000200: 4fc8 afba 1811 173b 2a4d f53a 4aad d1ba
00000210: cd56 cfb9 adf8 c4ba 9a4b 693a 1a76 643a
00000220: 91ed 2fba daa5 ec39 f0f2 243a 010f a9b8
00000230: 566a 623a 4809 d139 e295 eaba addc 1537
00000240: 1191 acba 2d08 e23a 0dab 47bb 508e 93ba
00000250: 3c17 08bb 707c 3c3b 9203 4ebb d921 aeba
00000260: de41 e8b9 d2f2 2c3b 247e e4ba b764 d6ba
00000270: 289d 3c3a 464f 4d38 3043 ab3a d31c 05ba
00000280: 50ba 863a 25f0 d8ba e2ee 293a 9f11 4d3a
00000290: f607 5fba abf6 493b 6cfc edba 9da2 0abb
000002a0: 3b6e c53a a327 d9ba 7c35 163b 6498 183a
000002b0: 8cec 74bb 3845 7a3b 217b 32bb b86f e9ba
000002c0: 520f ef39 7eaa dfba 26fe 8f3a 2845 a33a
000002d0: 4e8c f33a 1151 85ba ce50 483b 639d b3b9
000002e0: 772b b3ba e59b 1f3b 981f 62bb 9f8b 9fba
000002f0: 4b9f fdba cf58 503b 62f2 39bb 68c8 b8ba
00000300: a4c7 b539 2e12 243a 5061 aeba 6b56 35ba
00000310: 4ffd ad3a e368 b0ba a1db 633b 1a6d a339
00000320: ed08 9db9 cf13 8bba baab d237 9335 623a
00000330: 7d73 c039 0360 a3ba 0a16 873b 5faf 3f3a
00000340: 8e07 6c3a 1860 ce3a ff2e 583b a12d 03bb
00000350: 752e 8aba fed9 893a 7d71 42ba 3474 ebb9
00000360: 6990 10ba 2f5a 8cb9 2144 f03a 0c2a 8db9
00000370: baed 613a 856a 4bbb c3c5 e539 78a1 093b
00000380: 8e01 0f39 0cac d7ba e97f 41ba 1206 da3a
00000390: 697d f739 44e7 5c3b f289 94b8 06a4 3ebb
000003a0: 86cd 3639 68ba 34ba df28 833b ecd7 7e39
000003b0: a34e a93a c546 82ba e5af ebba 6876 0e3a
000003c0: 6fab c13a 62d5 1f3a 1bba 0f3a 540a f8b9
000003d0: 369d 1dbb 5463 f33a 4f9f 9ebb 3cfa 8cba
000003e0: 9bd9 22ba cb50 623a 8700 c43a ec4a d2b9
000003f0: 7816 c1ba 1370 443b 9a8d dbba c91e 16bb
0.00030004026 -0.0015280916 0.0009659134 0.0014083235 0.0006383296 -0.0010828207 0.0017752023 0.00029016877
0.0021055466 -0.0053093457 0.0040984754 0.0027515662 0.0027092379 -0.002600496 0.0016340545 0.0007793899
-0.001809925 0.000777632 8.434324e-05 -1.6494498e-06 -0.0022698878 0.0023227818 0.0013306447 -0.0010754621
0.0013966665 -0.0010249511 0.0014551786 0.00047320407 -0.000409911 -0.00061660743 0.002231996 0.00031116419
0.0011401975 0.00052551745 -0.0018320902 -0.00088442623 0.0019800349 -0.0011199125 0.0013730804 0.00013649823
-0.0019649896 0.004825349 -0.00022357651 -0.0032695204 -0.0018519369 0.00055853307 0.0017058047 0.00026674676
-0.0002391368 -0.00076987734 0.0016722598 0.00070809666 -0.00028580625 0.0013611541 -0.0008898693 -0.000822714
-0.0029462196 0.0018248016 -0.0008783808 -0.0006225437 0.00012562498 0.0034813771 0.00090045924 -0.0030321663
0.00090516213 -0.0028964155 0.001377726 0.002095864 0.0012389738 -0.00017497675 -0.004519397 -0.000113966285
-0.0005883895 -0.0010298139 -0.0011184321 0.0014053455 -3.672547e-05 0.0015037829 0.001517497 -0.0008537517
0.0018540653 -0.0030810852 0.004356057 0.0011378111 0.0017622185 -0.0032141572 0.008317936 0.00090611784
-0.0008952473 0.0013286205 -0.0008025971 -0.0011003818 -0.0010953574 0.0027938627 0.0017837145 -0.0016360569
0.0010371265 -0.0008480057 0.0028281542 -0.00039466197 0.00051779463 -0.003138668 -0.0020228594 0.0019501814
0.0007264244 -0.001507915 0.0033456606 0.0007364675 -0.00037587364 0.000524074 -0.000709992 -0.0006074961
-0.00023294266 0.0018933157 0.00047752683 -0.0017948364 -0.00279348 0.0064336723 0.0032758664 -0.0043930826
0.0028723876 -0.0055757496 0.009023315 0.002604447 0.0010264202 -0.0021174585 0.00047964772 0.0011636198
-0.0013411137 0.002305096 0.0018715013 -0.0015997079 -0.00039546788 -0.0015027724 0.000889951 0.0008715108
-0.00067111204 0.00045136997 0.0006292304 -8.061343e-05 0.0008637061 0.00039870501 -0.0017897452 8.932472e-06
-0.0013165792 0.0017244868 -0.0030466944 -0.0011257622 -0.0020765802 0.0028760694 -0.0031435234 -0.0013285234
-0.00044299563 0.002638985 -0.0017432612 -0.001635692 0.0007195049 4.8949638e-05 0.0013066288 -0.00050778425
0.0010278914 -0.0016551061 0.00064824347 0.0007822755 -0.0008507961 0.0030817192 -0.0018156893 -0.0021154054
0.0015062758 -0.0016567599 0.0022920063 0.0005821048 -0.0037372438 0.003818823 -0.0027234035 -0.0017809784
0.00045597047 -0.001706436 0.0010985776 0.0012456523 0.0018581243 -0.0010171254 0.0030565741 -0.00034258803
-0.001366957 0.0024354395 -0.0034503695 -0.0012172348 -0.0019349841 0.0031791215 -0.0028373231 -0.0014097812
0.00034671754 0.00062588125 -0.0013304148 -0.00069174793 0.0013274344 -0.0013458993 0.003476836 0.0003117107
-0.00029952024 -0.0010610762 2.5113917e-05 0.0008629199 0.0003670714 -0.0012464527 0.0041225003 0.0007312204
0.0009003811 0.0015745191 0.0032986996 -0.002001621 -0.001054241 0.0010517237 -0.0007417424 -0.0004490927
-0.0005514683 -0.00026770073 0.0018330851 -0.00026924943 0.0008618493 -0.0031038832 0.00043825628 0.0021000784
0.00013638122 -0.0016454472 -0.0007381426 0.0016633889 0.0004720495 0.003370718 -7.082884e-05 -0.0029089465
0.00017433436 -0.0006894232 0.004002675 0.00024303765 0.0012917112 -0.0009939304 -0.0017981498 0.0005434514
0.0014775823 0.0006097165 0.0005482749 -0.0004730994 -0.0024050004 0.0018569031 -0.0048407684 -0.0010755728
-0.00062122353 0.0008633255 0.001495377 -0.00040110142 -0.0014731428 0.0029974028 -0.0016750575 -0.0022906533

exp_avg_sq f4 [64, 4]
00000000: bb4e 6936 86e5 e637 af76 3a38 01cc 0638
00000010: 084b a335 b297 6f37 7a34 0738 cbf6 8b37
00000020: 8219 9a37 0f14 3f39 d0d7 ab39 3c6e 5d39
00000030: c7e5 6737 206f f038 e533 6439 b3ee 0139
00000040: af9e a536 92cd 3b38 6ba7 7d38 4f73 5938
00000050: 54e5 0b37 1d26 8e38 ba9e f138 bbd0 9738
00000060: 945b bd36 4665 4138 2b85 a738 c558 5538
00000070: 0f51 aa35 cb4d b437 69dc 0838 cc74 d337
00000080: 71a6 c036 09ac 2138 5f2d 4638 86bc 2138
00000090: 51cb 0a37 c1af c838 51fd 0939 bfee dc38
000000a0: 3dd6 a337 360d 0039 ebf3 6f39 ce32 0c39
000000b0: c0ed e836 cd96 9538 1529 f538 bd87 a438
000000c0: a255 8735 eaee 0837 bbb6 3637 88b8 0a37
000000d0: acdf f835 97c3 7d37 5a50 2f38 ba95 8637
000000e0: 185c 6a37 3683 1239 8d23 3839 2fb6 1d39
000000f0: 9e6d 5c37 4b02 ab38 46bf b338 76ee b838
00000100: b8ad 7f36 54fd 0238 0aaa 0838 b70e 1838
00000110: f87e ad36 d45c 7b38 73c0 ef38 4b2a 8f38
00000120: 7beb 8136 95db fd37 0ef4 3538 0ea8 0b38
00000130: f984 2837 03c8 1f38 507a d338 f402 3d38
00000140: 6b6e 1837 5eae d938 a67a 8739 97d0 0139
00000150: 0482 1137 1a35 2e39 6a88 ba39 e750 5139
00000160: 6817 4836 b141 b237 17ee 0b38 2bc7 e137
00000170: e2da d236 8b97 6238 5ad7 9938 5aef 8838
00000180: 3919 9c36 6c9b 7338 68de ec38 2ca0 9038
00000190: 7c0f 6737 a63b b638 2f42 1339 632a cc38
000001a0: ed32 7936 6efb e137 b0f8 7a38 c63e 0538
000001b0: 0099 6b35 41f0 e636 de25 3837 a148 0a37
000001c0: 8690 0f36 55cc 8637 be9e 0c37 8d9f 9a37
000001d0: eac0 ce37 9721 2c39 110d 9039 d1b2 3a39
000001e0: 3717 4537 82d9 7839 18aa da39 7a0e 9039
000001f0: 6042 b036 8e94 fd37 b7dc 6338 55cf 0a38
00000200: 239a 2c36 228d d137 20d0 5537 c020 f337
00000210: c1bc 6c37 95c4 4a38 7649 2539 2ee2 7238
00000220: af8e d735 c87a 3e37 264c 8737 73f2 7037
00000230: a606 a936 8f68 e337 e4a9 9738 c501 fe37
00000240: 6530 8e36 1133 e037 dbb9 3538 7d85 fb37
00000250: de41 0137 c10a 9d38 39f6 0539 d77a ac38
00000260: 3b4c bc36 9fee 2438 60e7 6e38 2eac 2c38
00000270: ff08 2c36 10c0 1b37 1c15 b837 41b9 3937
00000280: 6d72 8836 e42d 1b38 36e0 6c38 2df4 2538
00000290: 3bbc c936 26ac 3138 7cca e638 8d1a 4938
000002a0: 2f1a 8036 184b 1338 3255 8e38 6359 3238
000002b0: 088b 7537 9a63 2139 17d7 5c39 41b0 3239
000002c0: ae55 ad35 3fe0 8e37 d610 4b37 af28 8e37
000002d0: 0eb2 c636 6b73 3338 f207 7438 83e3 4938
000002e0: fce1 9936 85f0 3138 e945 b138 aeea 4a38
000002f0: 39b0 1637 3fa4 9a38 ee02 4c39 8e58 b438
00000300: 655d 3036 c4d5 a137 fc64 2038 871a b437
00000310: 3ed8 6c36 e6ca 2b38 d432 9138 51f6 4838
00000320: b114 f935 5328 8f37 39f3 4537 ad04 a337
00000330: 19f5 4436 a076 dc37 08e9 3838 5291 e737
00000340: 547f 0737 fcd5 7938 ea2c dd38 efc7 8938
00000350: ff25 df35 5ed3 7c37 7ae4 9f37 d8ab 8737
00000360: 1c0e 6236 d070 0238 9079 1d38 8753 1638
00000370: b4ff b036 2fc1 2b38 f18c 2038 444e 3c38
00000380: 583a 2036 77d0 6837 dca8 9437 738b 8837
00000390: 7ee0 3337 be6d d938 fb96 0339 b862 ec38
000003a0: 982f 6736 6ef2 ee37 5860 4a38 4d36 0638
000003b0: 1234 7036 cd2d 2338 0f11 7338 22df 3238
000003c0: 287e 8837 a122 8a38 9931 d638 746c 9d38
000003d0: 94dd 4c37 b56a db38 eb03 1d39 82cb fb38
000003e0: 1fe2 f635 63d1 9537 4cae 2837 4a5c b437
000003f0: 123c dd36 2a89 6c38 cdd5 9b38 2111 8938
3.4765533e-06 2.7525017e-05 4.445639e-05 3.2138083e-05 1.2166283e-06 1.4280829e-05 3.223538e-05 1.6685013e-05
1.8370109e-05 0.00018222652 0.00032776454 0.00021117268 1.3822172e-05 0.000114647904 0.00021763107 0.00012391321
4.9358564e-06 4.4775727e-05 6.047582e-05 5.184422e-05 8.33844e-06 6.778187e-05 0.00011521341 7.23912e-05
5.6433e-06 4.6109104e-05 7.987985e-05 5.086583e-05 1.2689578e-06 2.1493897e-05 3.26302e-05 2.5207548e-05
5.7414222e-06 3.854561e-05 4.7249134e-05 3.8560967e-05 8.272779e-06 9.56948e-05 0.00013159706 0.000105348874
1.9530877e-05 0.00012211953 0.00022883683 0.00013370367 6.9418165e-06 7.1329625e-05 0.000116901625 7.8454126e-05
1.0083206e-06 8.161858e-06 1.0890591e-05 8.2684055e-06 1.8542537e-06 1.5125514e-05 4.1798085e-05 1.6043767e-05
1.3968929e-05 0.00013972525 0.00017560851 0.00015040555 1.3138544e-05 8.1543425e-05 8.5710126e-05 8.8182205e-05
3.8099079e-06 3.1230345e-05 3.2583288e-05 3.625333e-05 5.170583e-06 5.9929516e-05 0.000114322545 6.826649e-05
3.871913e-06 3.0262201e-05 4.3381056e-05 3.3296696e-05 1.004454e-05 3.809483e-05 0.000100840465 4.506386e-05
9.085615e-06 0.00010379845 0.00025840587 0.00012380104 8.672945e-06 0.00016613715 0.0003557832 0.00019961932
2.9815947e-06 2.1249843e-05 3.336192e-05 2.6914835e-05 6.283969e-06 5.4023734e-05 7.335721e-05 6.529568e-05
4.6520986e-06 5.8080463e-05 0.00011294783 6.8962894e-05 1.3772278e-05 8.689547e-05 0.00014043668 9.735373e-05
3.7133534e-06 2.6939171e-05 5.9836253e-05 3.1768133e-05 8.7766966e-07 6.8825034e-06 1.0976071e-05 8.242351e-06
2.1392784e-06 1.6069194e-05 8.38161e-06 1.8432527e-05 2.4646946e-05 0.00016415711 0.00027475556 0.00017804957
1.174752e-05 0.00023732151 0.0004170693 0.00027476606 5.252936e-06 3.0229126e-05 5.4326574e-05 3.3094857e-05
2.5719717e-06 2.4980462e-05 1.2744247e-05 2.8983108e-05 1.4110644e-05 4.8343634e-05 0.00015762993 5.7907942e-05
1.6060275e-06 1.135347e-05 1.6128713e-05 1.4361564e-05 5.0373665e-06 2.7109198e-05 7.231886e-05 3.0279984e-05
4.2375636e-06 2.672666e-05 4.3326854e-05 2.9983692e-05 7.704335e-06 7.4883465e-05 0.00012775593 8.22448e-05
5.611711e-06 3.932288e-05 5.6959107e-05 4.116835e-05 2.5635234e-06 9.283438e-06 2.194434e-05 1.1069992e-05
4.0664368e-06 3.699762e-05 5.6475597e-05 3.9566472e-05 6.0121797e-06 4.2360414e-05 0.0001100497 4.794686e-05
3.8177454e-06 3.5117468e-05 6.7869565e-05 4.2521755e-05 1.4635509e-05 0.00015391261 0.00021060962 0.00017041063
1.291444e-06 1.7032142e-05 1.2103663e-05 1.6946664e-05 5.921588e-06 4.2784417e-05 5.8181533e-05 4.813402e-05
4.5860634e-06 4.242409e-05 8.4530395e-05 4.8379115e-05 8.981727e-06 7.3738855e-05 0.00019456047 8.5995634e-05
2.6280406e-06 1.9292238e-05 3.824102e-05 2.1470025e-05 3.529261e-06 4.095854e-05 6.923606e-05 4.7913116e-05
1.8557968e-06 1.7065706e-05 1.1798745e-05 1.9433292e-05 2.9348942e-06 2.6281283e-05 4.4086046e-05 2.7605016e-05
8.076273e-06 5.9565515e-05 0.00010546467 6.5699096e-05 1.6625853e-06 1.5069583e-05 1.906067e-05 1.6173275e-05
3.3684837e-06 3.109948e-05 3.754493e-05 3.5840578e-05 5.2749765e-06 4.0949493e-05 3.8278235e-05 4.4895583e-05
2.3875818e-06 1.3876815e-05 1.7721606e-05 1.62774e-05 1.07215e-05 0.000103678074 0.00012549378 0.00011271745
3.4449386e-06 2.8484701e-05 4.825028e-05 3.199866e-05 3.5793096e-06 3.8904884e-05 5.79516e-05 4.2646316e-05
1.627121e-05 6.586803e-05 0.000102135535 7.506544e-05 1.2210938e-05 0.000104626095 0.00014974146 0.00012006519
1.8394238e-06 1.7859687e-05 1.0054162e-05 2.1500648e-05 6.5933064e-06 5.639453e-05 7.4307995e-05 6.5358596e-05
