ATLA_robust_RL/src/models/atla_release/ATLA-PPO/attack-atla-ppo-13Bus-eps0.15-no-norm.model (torch, 427753 bytes, 72 tensors)

affine_layers.0.weight f4 [64, 48]
-0.05060289 -0.12798953 -0.17366034 -0.008475921 0.059191015 0.028373297 -0.07053052 0.061786383
0.19007845 0.14131947 -0.3197681 0.36734977 0.070938885 -0.3055853 -0.2531637 -0.20715415
0.045196746 -0.104591526 0.36168638 -0.099205926 -0.0031542014 0.057004105 0.011099783 0.37511382
-0.19039717 -0.2214338 0.032635223 0.06111379 -0.12991698 -0.06500196 0.3753771 -0.13431181
0.19747403 -0.14466466 0.22151057 -0.31877518 0.036580727 0.2821484 -0.0030656243 -0.17495048
-0.30239433 0.1376768 -0.09058375 -0.037003703 -0.006605596 0.16781941 -0.3533614 -0.20770167
0.18099737 -0.20703784 -0.044111326 -0.19394118 0.43533543 0.31447247 0.20409805 0.25850052
0.022029793 0.1909289 0.2660893 0.078883514 -0.19494523 0.120351635 0.37667918 0.0033093216
0.094607875 0.22648993 0.1771929 0.24972828 0.28235444 0.08485138 0.12590583 -0.18593557
0.014794894 -0.12654871 -0.30173713 0.26505625 -0.11282168 -0.05492825 0.36997285 0.02277792
0.3839598 0.16029847 0.026591111 0.06189388 -0.03499076 -0.02876043 -0.023932805 -0.17455652
0.24418138 0.21440373 -0.08962507 0.10019606 -0.03201244 0.00086345524 0.023661364 0.0876248
-0.13286449 -0.040769015 -0.07958504 0.07416548 -0.17576429 -0.031080198 0.354582 -0.24593195
0.3086017 -0.25635597 0.014013723 0.24334386 -0.079170674 -0.094282225 0.27246085 -0.19118677
0.28209552 -0.0225521 -0.00653748 0.20111148 0.02402717 -0.16306373 -0.21944569 0.2795748
0.235138 0.10108609 -0.08419784 0.05674346 0.08647434 -0.09288928 -0.3344319 0.102498576
0.102183305 -0.13989246 -0.10492203 -0.1871371 -0.08814751 0.1387577 -0.07237461 -0.10718291
0.13375399 0.6251599 0.05886189 -0.18965843 -0.43898106 0.20615043 -0.13758643 -0.13873623
-0.3710378 0.09227019 -0.10864833 0.33349097 -0.040930662 0.077749215 -0.27284968 0.25553483
-0.074384905 -0.32882184 0.2927354 -0.0636456 -0.154103 -0.36817977 -0.11370411 -0.010983122
-0.00759001 0.21871711 0.182431 -0.037877217 0.42343196 -0.0010232091 -0.060628965 -0.0038093247
0.17740282 0.061384298 -0.020030906 0.21252167 0.120136015 0.09559407 0.1389478 0.1320573
0.071474 -0.023072284 -0.16693617 -0.03632425 0.07385403 0.03940298 0.050194103 0.1829693
0.19357087 -0.008542933 -0.10256301 -0.36249766 -0.06995217 -0.14649425 0.28499076 -0.08885124
-0.35149306 0.35776716 0.15737568 -0.10177521 0.050771557 0.18325657 -0.20749198 -0.19891295
0.206665 0.09476487 0.01991986 0.12371232 0.14899684 -0.06198319 0.10482618 0.18773203
-0.05964138 -0.04879916 -0.051671524 -0.26002565 0.23357725 0.16537179 -0.13491239 -0.1743682
-0.25532743 0.072845995 -0.20276353 -0.34383103 0.16992389 -0.04360222 -0.14774701 0.10595609
0.18546885 0.15247841 -0.03709174 -0.033892363 0.0050706384 -0.12624922 0.14391518 -0.2588236
-0.08745964 0.14390063 0.41186213 -0.14420488 -0.015625073 -0.06266426 -0.043027762 -0.53254354
-0.2082572 -0.13712518 -0.035064198 0.26230237 -0.063592486 -0.10665992 0.07825286 -0.16167167
-0.0390215 0.15310887 -0.30838943 -0.07941083 -0.10133155 -0.055455133 -0.06278844 -0.08288329
00000000: fa44 4fbd b00f 03be 04d4 31be 97de 0abc
00000010: 4772 723d 1e6f e83c 4e72 90bd b813 7d3d
00000020: eda3 423e 0db6 103e a5b8 a3be 4515 bc3e
00000030: 6848 913d ad75 9cbe ac9e 81be 3820 54be
00000040: 3920 393d 1534 d6bd f52e b93e 7a2c cbbd
00000050: b8b6 4ebb 237d 693d dddb 353c eb0e c03e
00000060: 7af7 42be 8bbf 62be 83ac 053d 7452 7a3d
00000070: f508 05be bf1f 85bd 6d31 c03e 0989 09be
00000080: a236 4a3e f922 14be abd3 623e 8036 a3be
00000090: acd5 153d c175 903e a4e8 48bb 3826 33be
000000a0: 6ed3 9abe 26fb 0c3e f983 b9bd 3291 17bd
000000b0: c173 d8bb dad8 2b3e c9eb b4be bfaf 54be
000000c0: 6057 393e ba01 54be 14ae 34bd 8498 46be
000000d0: 49e4 de3e 8902 a13e 14ff 503e 2e5a 843e
000000e0: d377 b43c de82 433e db3c 883e ae8d a13d
000000f0: b99f 47be eb7a f63d 18dc c03e 34e1 583b
00000100: c6c1 c13d faec 673e 0e72 353e c5b8 7f3e
00000110: c390 903e 8fc6 ad3d 75ed 003e e565 3ebe
00000120: 4866 723c fc95 01be 4a7d 9abe 74b5 873e
00000130: 0e0f e7bd 72fc 60bd 156d bd3e c398 ba3c
00000140: 6196 c43e 4825 243e 9ad5 d93c 7084 7d3d
00000150: 7952 0fbd fe9a ebbc bb0e c4bc f2be 32be
00000160: af0a 7a3e a78c 5b3e 598d b7bd 9833 cd3d
00000170: 7a1f 03bd 8059 623a 7ad5 c13c a274 b33d
00000180: a10d 08be 69fd 26bd 7bfd a2bd 12e4 973d
00000190: 8efb 33be e69b febc c68b b53e 96d5 7bbe
000001a0: 0b01 9e3e 1741 83be d099 653c 222f 793e
000001b0: 3c24 a2bd 0a17 c1bd fd7f 8b3e 77c6 43be
000001c0: d36e 903e 2ebf b8bc 5b38 d6bb 2bf0 4d3e
000001d0: a1d4 c43c 2efa 26be 5fb6 60be 6e24 8f3e
000001e0: 04c8 703e 3906 cf3d eb6f acbd d56b 683d
000001f0: 7519 b13d bc3c bebd a83a abbe c6ea d13d
00000200: 7b45 d13d f83f 0fbe 5ce1 d6bd dea0 3fbe
00000210: af86 b4bd 8016 0e3e 2439 94bd b782 dbbd
00000220: cef6 083e 7b0a 203f 2a19 713d d235 42be
00000230: 20c2 e0be 1919 533e 75e3 0cbe df10 0ebe
00000240: abf8 bdbe 27f8 bc3d 0483 debd 54bf aa3e
00000250: e9a6 27bd fb3a 9f3d f4b2 8bbe 76d5 823e
00000260: 1d57 98bd 565b a8be 6ae1 953e a058 82bd
00000270: 2dcd 1dbe 0f82 bcbe b3dd e8bd 8df2 33bc
00000280: 9eb5 f8bb 61f7 5f3e 31cf 3a3e 2425 1bbd
00000290: 13cc d83e 331d 86ba 1456 78bd dda5 79bb
000002a0: 16a9 353e 1a6e 7b3d db17 a4bc 489f 593e
000002b0: df09 f63d d3c6 c33d 5548 0e3e 073a 073e
000002c0: f660 923d 1602 bdbc 51f1 2abe bdc8 14bd
000002d0: c840 973d 0565 213d 5598 4d3d 4e5c 3b3e
000002e0: 7137 463e a8f7 0bbc 8e0c d2bd 4b99 b9be
000002f0: 1543 8fbd 9702 16be 4fea 913e a4f7 b5bd
00000300: e6f6 b3be 422d b73e 1727 213e 856f d0bd
00000310: d6f5 4f3d 9ca7 3b3e c778 54be d6af 4bbe
00000320: fd9f 533e 1614 c23d f92e a33c e35c fd3d
00000330: a192 183e 16e2 7dbd 1caf d63d d33c 403e
00000340: 854a 74bd a1e1 47bd 85a5 53bd 1522 85be
00000350: e02e 6f3e 3957 293e 7926 0abe 948d 32be
00000360: 47ba 82be 4830 953d 3ea1 4fbe 9f0a b0be
00000370: 8700 2e3e 3e98 32bd fe4a 17be 82ff d83d
00000380: 8ceb 3d3e 4d23 1c3e 82ed 17bd b8d2 0abd
00000390: 9927 a63b 7a47 01be 805e 133e 8784 84be
000003a0: 0a1e b3bd b05a 133e 98df d23e 72aa 13be
000003b0: 2700 80bc 1f56 80bd e13d 30bd c654 08bf
000003c0: 6041 55be 8b6a 0cbe 7a9f 0fbd 7f4c 863e
000003d0: c73c 82bd 8470 dabd 0943 a03d 428d 25be
000003e0: 02d5 1fbd 92c8 1c3e 38e5 9dbe 25a2 a2bd
000003f0: ea86 cfbd ec24 63bd 3a97 80bd b7be a9bd

affine_layers.0.bias f4 [64]
0.092179246 0.14443764 0.06606241 -0.11876451 -0.06357592 -0.11304755 -0.037278157 0.13008246
0.0141644385 -0.069805436 0.08892317 -0.005776959 -0.094005965 0.08189384 0.07841262 0.0610946
0.13457763 0.1021914 0.09997768 0.14329009 -0.10117459 0.024922185 0.07707195 0.06832884
-0.10953117 0.16043085 -0.018801358 0.04831608 0.04114386 0.10962022 0.11603762 0.052022353
0.11546675 0.05503606 -0.10403105 0.09262415 -0.09361901 0.085814215 0.06480243 -0.04731085
-0.101031974 0.08220298 0.002672788 0.05382443 -0.05911438 0.0792465 -0.028841471 0.10835635
-0.16615771 -0.067887686 0.13110507 0.092531994 -0.11562669 -0.046078097 -0.032120403 0.12860052
-0.10911019 0.08465064 0.06701054 0.09998543 -0.052225385 -0.091836624 -0.11785189 0.103364624
00000000: 79c8 bc3d 76e7 133e bb4b 873d cf3a f3bd
00000010: 1834 82bd 7985 e7bd fbb0 18bd 5634 053e
00000020: f611 683c 27f6 8ebd 5a1d b63d a54c bdbb
00000030: 3386 c0bd f5b7 a73d cc96 a03d 553e 7a3d
00000040: b8ce 093e ba49 d13d 19c1 cc3d a3ba 123e
00000050: a034 cfbd 9c29 cc3c e6d7 9d3d feef 8b3d
00000060: e151 e0bd fc47 243e 4e05 9abc 15e7 453d
00000070: 7786 283d 9180 e03d 22a5 ed3d 6415 553d
00000080: d579 ec3d 7e6d 613d 3b0e d5bd bbb1 bd3d
00000090: 53bb bfbd 5dbf af3d 23b7 843d 06c9 41bd
000000a0: dae9 cebd 095a a83d f129 2f3b 0177 5c3d
000000b0: ec21 72bd fd4b a23d f344 ecbc efe9 dd3d
000000c0: 3f25 2abe b308 8bbd 6840 063e 6a81 bd3d
000000d0: b0cd ecbd 63bc 3cbd af90 03bd dbaf 033e
000000e0: 2a75 dfbd 515d ad3d d23c 893d 29c5 cc3d
000000f0: 49ea 55bd d714 bcbd 555c f1bd d5b0 d33d

affine_layers.1.weight f4 [64, 64]
0.048084885 -0.039860804 -0.21681692 -0.2872303 -0.29401594 -0.115085244 0.0064361244 -0.03889771
-0.10003883 0.16458057 0.07796386 -0.25401834 0.32140455 -0.03385482 -0.09833326 0.1156485
-0.02766406 0.14113192 -0.092890315 -0.08873031 -0.102133185 0.09966271 -0.23761092 -0.14019524
0.06250201 -0.3325162 0.035426985 0.07740941 -0.41994298 0.27264446 0.043891817 0.18002783
-0.18937221 -0.22488186 0.3571153 0.066526756 -0.08572174 -0.31615302 0.14826614 0.35028726
-0.17591113 -0.45737663 0.048096284 -0.3950798 0.095181115 -0.23799276 -0.18205838 -0.08923858
0.5710725 0.03534355 0.1244961 -0.121311046 -0.16054785 0.32279468 -0.34992677 -0.13983653
0.44321954 -0.048407122 -0.49990955 0.09393415 0.123339556 0.41012803 -0.332194 0.11205961
0.07605251 -0.07756144 -0.18179455 0.26858112 -0.33814406 0.20262761 0.046998575 -0.30108017
0.12697797 0.05452794 0.086626634 -0.018165696 0.27412745 -0.07582357 -0.22670075 -0.11536762
-0.12626553 -0.032002393 0.13343985 -0.1949786 0.03960428 -0.08361655 0.14710213 -0.08086937
-0.09375026 -0.1277527 0.15024987 0.32655314 -0.18726465 0.40011132 0.5534014 -0.1818819
0.084657915 -0.26757577 -0.2076127 0.31978592 0.06936398 -0.24933627 0.077432394 -0.013137044
0.1931467 -0.9087731 0.07893529 -0.07823109 -0.029523684 0.13627791 0.027025828 -0.33667776
0.2745808 0.19399819 0.2896424 0.19916503 -0.13446654 0.110199876 -0.010129207 -0.24730168
0.47337592 0.11528732 -0.046094958 -0.17039464 0.28984538 0.41320813 0.49999452 0.0154057415
0.4615238 -0.07312733 0.26472178 -0.287703 -0.16421384 -0.23383883 -0.16325879 0.06753417
0.3038493 -0.14254715 -0.17351404 0.35725293 -0.12158205 0.2956957 0.17154483 -0.034045722
0.21763779 0.29405898 0.28730813 -0.018070083 -0.19568418 0.056093704 -0.1435896 0.31689146
-0.041295264 0.16500887 0.06958267 0.040485654 0.45151588 -0.023343982 0.15060517 -0.35623434
0.89952946 0.00671147 0.27157506 -0.038582407 -0.03796397 0.22727157 0.24321881 0.35266975
-0.10650387 0.6324203 -0.05479931 0.23867233 0.32593665 -0.3377281 0.06289445 0.3144803
-0.11867723 -0.1370801 0.6119154 -0.038366117 -0.07490929 -0.049541965 0.0045361454 -0.17951998
-0.68772024 0.2007577 -0.1816625 0.2611277 -0.019650726 -0.8221179 0.098435394 -0.1881688
-0.36214483 -0.05136873 -0.11037618 -0.11108581 -0.39512813 0.07525933 0.09225076 0.27133638
-0.23858768 0.12928857 -0.006619103 0.15503134 0.15493467 -0.4435583 -0.38835505 -0.34854728
-0.2592378 -0.03444572 -0.16063914 0.052558944 0.14142615 0.2733448 0.057586703 -0.089351505
0.1862098 0.13503264 -0.012172877 0.6639233 -0.43254638 -0.0066624577 -0.3104295 0.15284163
0.1868523 0.30710983 -0.06461823 0.3824406 0.015788445 -0.16674799 -0.15021871 -0.027745653
-0.076034956 -0.8904756 -0.05243241 -0.10477387 0.15783058 -0.031074058 0.019382361 -0.08472583
-0.061508074 0.20158963 -0.08908906 -0.15338595 -0.13749868 0.029381316 0.20720285 -0.3607467
0.5153938 -0.2688011 -0.022637198 0.22698452 0.09887019 0.64817345 0.023629934 -0.28598487
00000000: a8f4 443d 1545 23bd 4105 5ebe da0f 93be
00000010: 4289 96be d0b1 ebbd 20e6 d23b 3553 1fbd
00000020: 28e1 ccbd cf87 283e 84ab 9f3d b10e 82be
00000030: 238f a43e 5aab 0abd f362 c9bd 1fd9 ec3d
00000040: bd9f e2bc e384 103e 473d bebd 3db8 b5bd
00000050: 342b d1bd f71b cc3d 4750 73be 578f 0fbe
00000060: 0e01 803d 903f aabe e31b 113d d388 9e3d
00000070: c402 d7be 0e98 8b3e e8c7 333d 3759 383e
00000080: caea 41be 6e47 66be d1d7 b63e 2e3f 883d
00000090: e18e afbd cfde a1be 14d3 173e da58 b33e
000000a0: 0c22 34be 452d eabe 9c00 453d e647 cabe
000000b0: 51ee c23d 60b4 73be 836d 3abe b7c2 b6bd
000000c0: cf31 123f 66c4 103d d0f7 fe3d ed71 f8bd
000000d0: a866 24be 5845 a53e 9a29 b3be 4f31 0fbe
000000e0: aced e23e 8c46 46bd 25f4 ffbe 8c60 c03d
000000f0: 7399 fc3d 4dfc d13e 5515 aabe 827f e53d
00000100: 6bc1 9b3d 88d8 9ebd 5a28 3abe 7783 893e
00000110: 3821 adbe 9d7d 4f3e 9481 403d 2e27 9abe
00000120: 8306 023e b058 5f3d 4e69 b13d 3ad0 94bc
00000130: 6f5a 8c3e 6349 9bbd 3e24 68be dc45 ecbd
00000140: c04b 01be f114 03bd 75a4 083e 78a8 47be
00000150: 1938 223d 273f abbd f1a1 163e d79e a5bd
00000160: 2300 c0bd 9bd1 02be 1adb 193e f931 a73e
00000170: 4ec2 3fbe 64db cc3e b7ab 0d3f 403f 3abe
00000180: 2161 ad3d b1ff 88be 6c98 54be fbba a33e
00000190: b40e 8e3d 0252 7fbe e094 9e3d c23c 57bc
000001a0: 40c8 453e 5ba5 68bf d3a8 a13d 9f37 a0bd
000001b0: a7db f1bc 708c 0b3e 4565 dd3c 0761 acbe
000001c0: db95 8c3e 76a7 463e 024c 943e ebf1 4b3e
000001d0: 99b1 09be 79b0 e13d f9f4 25bc a73c 7dbe
000001e0: 545e f23e c21b ec3d 11ce 3cbd ef7b 2ebe
000001f0: 9d66 943e 0490 d33e 48ff ff3e 5d68 7c3c
00000200: d94c ec3e c8c3 95bd 9d89 873e cf4d 93be
00000210: ac27 28be 7273 6fbe 502d 27be 5b4f 8a3d
00000220: 2392 9b3e e1f7 11be aaad 31be dbe9 b63e
00000230: 0300 f9bd 6d65 973e 73a9 2f3e 8773 0bbd
00000240: 71dc 5e3e e68e 963e 0d1a 933e b607 94bc
00000250: 6f61 48be 83c2 653d 2709 13be 993f a23e
00000260: 3925 29bd 16f8 283e 5c81 8e3d 49d4 253d
00000270: 172d e73e e13b bfbc 3e38 1a3e 5964 b6be
00000280: 9047 663f e4eb db3b e30b 8b3e 9608 1ebd
00000290: 1c80 1bbd e1b9 683e 5a0e 793e 2191 b43e
000002a0: b31e dabd 4ce6 213f 3e75 60bd 8566 743e
000002b0: 2be1 a63e b3ea acbe cece 803d 9003 a13e
000002c0: 0c0d f3bd ba5e 0cbe 7da6 1c3f ca25 1dbd
000002d0: 0b6a 99bd 84ec 4abd f2a3 943b 16d4 37be
000002e0: 6f0e 30bf 6d93 4d3e bc05 3abe 88b2 853e
000002f0: 8ffa a0bc 5276 52bf 7f98 c93d 52af 40be
00000300: 0c6b b9be 0468 52bd e80c e2bd f580 e3bd
00000310: 3c4e cabe 9021 9a3d f7ed bc3d 9aec 8a3e
00000320: 5450 74be 3964 043e 0fe5 d8bb 89c0 1e3e
00000330: 32a7 1e3e 131a e3be 79d6 c6be ca74 b2be
00000340: d1ba 84be f516 0dbd 967e 24be 0c48 573d
00000350: 04d2 103e daf3 8b3e 09e0 6b3d ecfd b6bd
00000360: c8ad 3e3e ff45 0a3e bf70 47bc e1f6 293f
00000370: b876 ddbe bf50 dabb 9ef0 9ebe 8482 1c3e
00000380: 3656 3f3e 803d 9d3e 9056 84bd 41cf c33e
00000390: c556 813c fcbf 2abe efd2 19be da4a e3bc
000003a0: 37b8 9bbd 35f6 63bf 5ec3 56bd af93 d6bd
000003b0: 579e 213e 068f febc c2c7 9e3c bc84 adbd
000003c0: e4ef 7bbd 836d 4e3e 5374 b6bd 3511 1dbe
000003d0: 74cc 0cbe 16b1 f03c fc2c 543e cbb3 b8be
000003e0: d9f0 033f 4ca0 89be a571 b9bc a16e 683e
000003f0: 747c ca3d b2ee 253f 9093 c13c 9c6c 92be

affine_layers.1.bias f4 [64]
0.05955062 0.01108233 0.045106776 -0.0146092605 -0.02243645 -0.014199749 -0.011998164 -0.14427401
-0.045742694 -0.0132796895 -0.029985065 0.012364524 -0.023586534 0.031072944 -0.007694489 0.01594957
0.053446908 0.06718085 -0.030132793 0.009260746 -0.022060119 -0.07898391 -0.005080395 -0.07616902
-0.046987392 0.05603086 0.02755778 -0.014617546 -0.0405082 0.04485852 -0.016475853 -0.035269827
0.006883125 0.028338766 -0.022698935 -0.016240133 0.0034646327 -0.020016696 0.045524858 -0.042817302
0.040131256 0.050707452 -0.039336927 -0.05277646 -0.017143195 0.061276954 -0.02690775 0.010925031
-0.0023525523 -0.0017575866 0.031734552 -0.064228825 -0.033920176 0.024298811 0.029637512 -0.008390261
-0.033294432 -0.065401584 -0.056960035 0.009305294 0.0022812446 0.019324241 0.013474348 -0.06236029
00000000: 5aeb 733d a992 353c e2c1 383d ae5b 6fbc
00000010: a5cc b7bc 10a6 68bc f293 44bc 91bc 13be
00000020: b15c 3bbd 0e93 59bc 3da3 f5bc 9394 4a3c
00000030: 8c38 c1bc b08c fe3c 0d22 fcbb aca8 823c
00000040: 25eb 5a3d 1d96 893d 0cd9 f6bc 62ba 173c
00000050: 6cb7 b4bc 51c2 a1bd 7179 a6bb 81fe 9bbd
00000060: da75 40bd 9d80 653d dac0 e13c 6f7e 6fbc
00000070: edeb 25bd 91bd 373d 5ef8 86bc 1877 10bd
00000080: d68b e13b b326 e83c 1ef3 b9bc 070a 85bc
00000090: e40e 633b 0efa a3bc 4678 3a3d 3261 2fbd
000000a0: ac60 243d 9eb2 4f3d c21f 21bd 212c 58bd
000000b0: e36f 8cbc 8bfd 7a3d a46d dcbc e7fe 323c
000000c0: 472d 1abb d25e e6ba 17fc 013d 678a 83bd
000000d0: e2ef 0abd 4d0e c73c 5eca f23c 4e77 09bc
000000e0: be5f 08bd 44f1 85bd ed4e 69bd 3b75 183c
000000f0: ef80 153b df4d 9e3c 83c3 5c3c 816d 7fbd

final.weight f4 [1, 64]
-0.46597996 -0.6111775 0.42664412 -0.4535476 0.68018013 -0.6422956 0.44642967 0.31690365
0.52780455 0.8141358 0.86953926 1.0440292 0.87503093 0.31335166 1.1259438 0.51093966
-0.8423003 0.64493054 0.42167616 0.5076222 -0.87143123 0.37841314 0.49766332 -0.41041833
-0.61354095 0.50221014 -0.561289 0.47250962 -0.5926318 -0.4457351 -0.6904878 -0.8831843
0.6447924 0.7444912 0.64925754 0.6518016 -0.87690294 0.4359042 0.4427788 0.6558102
0.9662282 0.38961992 0.45688093 -0.6257347 0.8184479 -0.36533073 0.55162597 0.47655803
-0.6753524 0.87129635 0.5692612 -0.5155607 -0.8169248 -0.334916 -0.41485122 -0.39303777
-0.68001306 0.4984818 -0.505416 -0.7124227 -0.45356214 0.72569406 0.768042 -0.43538573
00000000: ed94 eebe 2176 1cbf 1971 da3e 6437 e8be
00000010: 4920 2e3f 7c6d 24bf 6e92 e43e 3241 a23e
00000020: 331e 073f 346b 503f 209a 5e3f c0a2 853f
00000030: 0702 603f a16f a03e ed1e 903f f1cc 023f
00000040: fea0 57bf 2b1a 253f f0e5 d73e 87f3 013f
00000050: 1e16 5fbf 5ebf c13e bacd fe3e 5a22 d2be
00000060: 0511 1dbf d890 003f a3b0 0fbf c8ec f13e
00000070: b8b6 17bf 6437 e4be cfc3 30bf 5e18 62bf
00000080: 1d11 253f fa96 3e3f be35 263f 78dc 263f
00000090: b67c 60bf d62e df3e e7b3 e23e 2de3 273f
000000a0: bb5a 773f 437c c73e 4cec e93e 2630 20bf
000000b0: cd85 513f a10c bbbe 5c37 0d3f 6aff f33e
000000c0: e5e3 2cbf 470d 5f3f 1abb 113f c9fb 03bf
000000d0: fc21 51bf 1c7a abbe 6167 d4be 3f3c c9be
000000e0: 5615 2ebf 0239 ff3e f162 01bf 5661 36bf
000000f0: 4c39 e8be 16c7 393f 679e 443f e1ea debe

log_stdev f4 [6]
-0.77007806 -0.582671 -2.454624 -2.4331422 -2.445851 -0.27898657
00000000: d623 45bf ed29 15bf 8f18 1dc0 9ab8 1bc0
00000010: d388 1cc0 54d7 8ebe

affine_layers.0.weight f4 [64, 48]
0.050743695 -0.11376062 -0.2609371 0.16073379 0.109531194 0.13746929 0.031161796 0.10482588
0.33414835 0.14974447 -0.07469228 -0.120230585 0.22359253 -0.022912195 -0.014778377 -0.4473811
-0.00640038 0.13219428 -0.20385674 -0.45779702 0.19764763 0.25462565 0.04642898 -0.03740468
0.1570997 -0.16443408 -0.27715674 0.1727438 -0.18997869 -0.23843141 -0.019034348 -0.06399609
-0.1482879 0.0003982063 -0.16744202 -0.032467287 -0.16346881 -0.08628394 0.17023678 -0.04902968
0.5147509 0.35421628 0.02069166 -0.20351112 0.29515538 -0.18651205 -0.008422035 -0.044365555
0.3457403 -0.0942785 0.13163835 -0.37475523 0.10179413 -0.350257 -0.055931646 0.11505368
0.07360417 0.24874085 -0.04684741 -0.19318263 -0.0003262301 -0.07487615 -0.25225693 0.08263584
-0.108290225 -0.36902553 -0.352866 0.17186525 0.18101044 0.04766802 0.35801965 0.22120722
-0.28067556 0.093195714 0.020667715 0.12743932 -0.13117215 -0.1928948 -0.18017396 -0.02013454
-0.034968644 -0.09440179 0.070089445 -0.23930834 -0.13870412 0.03159438 0.28415254 -0.026109293
-0.17036676 0.2831427 0.21484016 0.066917926 0.10109515 0.12682246 -0.3973515 -0.11847613
0.12938315 -0.015709031 -0.30476013 -0.08916246 0.2098303 -0.38195062 -0.2965295 0.024063738
0.054091487 0.063504316 0.035754528 0.025488114 0.3220841 0.25132823 0.11991099 0.21636388
-0.028195096 0.11146707 0.2573566 -0.3820156 0.17004469 -0.35838795 -0.20401895 -0.018958721
0.0096541755 0.35409534 -0.07800967 0.30191642 0.016735032 0.08403039 0.19743039 -0.094764076
0.08642486 0.18646644 -0.04431349 0.10895109 0.113026686 -0.1490332 0.055592995 -0.14585781
0.074591115 -0.069970176 -0.07178497 -0.2213554 0.08142441 0.053164974 0.1766736 -0.3761969
0.03599442 0.23894173 -0.19888406 0.42834464 -0.15651363 -0.2241781 -0.33547324 0.19313975
-0.2874497 0.16168249 -0.09141001 -0.0074502667 -0.080373056 -0.13461673 -0.12638119 -0.1809757
-0.18587236 -0.13093655 0.12587361 -0.003362707 0.19535258 0.016289245 -0.09723622 0.06489013
0.098034635 -0.045989387 0.38799676 -0.19379453 -0.00030417755 0.053265017 -0.00371455 -0.16795488
0.20994484 -0.065131396 -0.2765141 -0.2910623 -0.018430788 -0.06688863 0.15366831 -0.16397032
-0.2943491 0.18387367 0.08795256 -0.16835529 -0.2600172 -0.0873394 0.28451854 -0.08229443
0.34595883 0.13059837 0.08663337 -0.022501957 -0.08570299 -0.14818671 -0.03273769 -0.29674456
0.17032862 -0.09777366 -0.13016033 -0.11023462 -0.09175906 0.037819766 0.05006335 0.06092584
0.016417868 0.24865901 0.21969496 0.048527993 0.14156808 -0.025292942 0.04456994 -0.16226527
-0.065258786 -0.35107374 0.40537003 0.10586991 0.21209395 -0.116034605 -0.34483773 0.027474852
-0.28678736 0.27964503 -0.20899218 -0.040466107 0.061284553 0.0128637 -0.23541261 -0.025176957
0.19824915 -0.38676855 0.18097472 -0.2165248 0.0686192 0.23884869 -0.32557264 -0.16752121
-0.10933867 -0.06301423 -0.027980452 -0.025131645 0.11039439 -0.2597636 0.110150516 -0.115342036
0.05459573 0.21985449 -0.34215078 0.18128704 -0.004850983 0.22257459 0.054377735 0.20603697
00000000: 9fd8 4f3d 54fb e8bd 8c99 85be 6697 243e
00000010: e451 e03d c0c4 0c3e 0647 ff3c f3ae d63d
00000020: 7e15 ab3e 9d56 193e 44f8 98bd 743b f6bd
00000030: 71f5 643e 5bb2 bbbc 0121 72bc 230f e5be
00000040: 47ba d1bb f05d 073e d2bf 50be 5f64 eabe
00000050: 2464 4a3e 4b5e 823e 502c 3e3d a635 19bd
00000060: bede 203e 6861 28be 7de7 8dbe c0e3 303e
00000070: c689 42be 5d27 74be eced 9bbc 6210 83bd
00000080: c9d8 17be 58c6 d039 ec75 2bbe 6bfc 04bd
00000090: 5e64 27be a2b5 b0bd 8d52 2e3e 59d3 48bd
000000a0: b7c6 033f d65b b53e 8e81 a93c 3865 50be
000000b0: 9b1e 973e 04fd 3ebe 93fc 09bc a8b8 35bd
000000c0: df04 b13e 1615 c1bd 34cc 063e ebdf bfbe
000000d0: 7179 d03d e354 b3be 9518 65bd 44a1 eb3d
000000e0: c8bd 963d ecb5 7e3e 12e3 3fbd abd1 45be
000000f0: dd09 abb9 ab58 99bd d227 81be fb3c a93d
00000100: 44c7 ddbd eaf0 bcbe daaa b4be 72fd 2f3e
00000110: cd5a 393e 8b3f 433d 5a4e b73e 2584 623e
00000120: b5b4 8fbe 65dd be3d 574f a93c 747f 023e
00000130: fe51 06be 3786 45be 867f 38be 31f1 a4bc
00000140: 483b 0fbd ba55 c1bd 0e8b 8f3d 3f0d 75be
00000150: 7408 0ebe 1c69 013d 717c 913e 28e3 d5bc
00000160: a074 2ebe 14f8 903e 0fff 5b3e 440c 893d
00000170: f90a cf3d bfdd 013e a871 cbbe 9da3 f2bd
00000180: 047d 043e 3ab0 80bc 8509 9cbe cf9a b6bd
00000190: c1dd 563e 088f c3be b7d2 97be 5121 c53c
000001a0: 098f 5d3d 8d0e 823d 5773 123d 73cc d03c
000001b0: 35e8 a43e 18ae 803e e593 f53d 7e8e 5d3e
000001c0: 67f9 e6bc d948 e43d 3fc4 833e 8c97 c3be
000001d0: 3220 2e3e a07e b7be 58ea 50be 524f 9bbc
000001e0: 8c2c 1e3c fc4b b53e 89c3 9fbd ca94 9a3e
000001f0: e817 893c 2018 ac3d 312b 4a3e ab13 c2bd
00000200: 84ff b03d 0ff1 3e3e 1082 35bd c021 df3d
00000210: 897a e73d 299c 18be 7bb5 633d c05b 15be
00000220: 3ac3 983d 864c 8fbd 0004 93bd fdaa 62be
00000230: d7c1 a63d 84c3 593d ede9 343e e19c c0be
00000240: e36e 133d 24ad 743e 43a8 4bbe fd4f db3e
00000250: 1c45 20be f28e 65be 26c3 abbe 6dc6 453e
00000260: 9b2c 93be 1890 253e 2c35 bbbd 5e21 f4bb
00000270: a19a a4bd f8d8 09be 126a 01be b251 39be
00000280: 5355 3ebe 3b14 06be 03e5 003e dd60 5cbb
00000290: 820a 483e 0671 853c c923 c7bd 1ee5 843d
000002a0: 62c6 c83d 5e5f 3cbd 83a7 c63e 1372 46be
000002b0: 057a 9fb9 6b2c 5a3d cf6f 73bb 5dfc 2bbe
000002c0: c8fb 563e 9c63 85bd 4293 8dbe 1e06 95be
000002d0: 2afc 96bc e8fc 88bd 3a5b 1d3e d6e7 27be
000002e0: edb4 96be 6149 3c3e 7920 b43d 5465 2cbe
000002f0: f920 85be 00df b2bd 6aac 913e fb89 a8bd
00000300: 8421 b13e 94bb 053e d66c b13d 0656 b8bc
00000310: 0d85 afbd 42be 17be f517 06bd e7ee 97be
00000320: a06a 2e3e 8f3d c8bd c048 05be b0c2 e1bd
00000330: 2dec bbbd e6e8 1a3d 3a0f 4d3d 608d 793d
00000340: c47e 863c 78a0 7e3e b7f7 603e 4ac5 463d
00000350: 39f7 103e 2533 cfbc f88e 363d de28 26be
00000360: 66a6 85bd f0bf b3be a98c cf3e 53d2 d83d
00000370: 282f 593e 8da3 edbd 928e b0be f112 e13c
00000380: cbd5 92be a22d 8f3e 0c02 56be cabf 25bd
00000390: 8305 7b3d 45c2 523c 0110 71be e83f cebc
000003a0: d301 4b3e 8706 c6be 7051 393e adb8 5dbe
000003b0: 3988 8c3d c094 743e 75b1 a6be ae8a 2bbe
000003c0: f4ec dfbd 9b0d 81bd 4337 e5bc e1e0 cdbc
000003d0: 7416 e23d bcff 84be 9896 e13d 7238 ecbd
000003e0: c69f 5f3d 8921 613e 632e afbe 4fa3 393e
000003f0: fff4 9ebb 98ea 633e 30bb 5e3d 5bfb 523e

affine_layers.0.bias f4 [64]
0.0062062773 0.04770346 -0.029025037 0.0063956366 -0.017879542 0.04544626 -0.01488926 0.008307657
0.00022651714 -0.0011228878 0.041450962 -0.05811955 0.022990456 -0.020417439 -0.0530221 0.011846977
-0.0065043094 -0.023970667 0.018250013 -0.013175889 0.024901291 -0.025191782 -0.06613639 0.02450829
-0.0036944808 0.020046916 0.017646898 -0.011088296 0.019350348 0.0130612645 -0.04514339 -0.017608237
0.012348024 0.018618448 -0.021360872 -0.0029136313 0.0026699142 0.0018206934 -0.04972676 0.040033873
-0.048046093 0.030813904 -0.00029397476 -0.007852356 -0.04005006 0.030731194 0.032218594 -0.05415743
-0.01073521 -0.012749619 -0.037000608 0.007996116 -0.036986638 -0.034002904 -0.044528518 0.014053974
-0.009476299 -0.019734962 0.014235938 0.0053781713 -0.005215996 0.040569406 0.03587698 0.05756373
00000000: 075e cb3b b464 433d eac5 edbc 7d92 d13b
00000010: 1e78 92bc dc25 3a3d 15f2 73bc d71c 083c
00000020: 3b85 6d39 dd2d 93ba 7cc8 293d c40e 6ebd
00000030: 7b56 bc3c 7942 a7bc b42d 59bd d319 423c
00000040: 1a22 d5bb 225e c4bc 0d81 953c afdf 57bc
00000050: cbfd cb3c ff5e cebc 8472 87bd 9cc5 c83c
00000060: 1a1f 72bb 6e39 a43c 3a90 903c afab 35bc
00000070: 9f84 9e3c eafe 553c 46e8 38bd 263f 90bc
00000080: 5e4f 4a3c b785 983c fffc aebc 9ff2 3ebb
00000090: baf9 2e3b 55a4 ee3a 49ae 4bbd 8ffa 233d
000000a0: fbcb 44bd 716d fc3c a020 9ab9 2ba7 00bc
000000b0: 880b 24bd fcbf fb3c a5f7 033d 2ed4 5dbd
000000c0: bce2 2fbc c7e3 50bc f38d 17bd 2402 033c
000000d0: 4d7f 17bd a146 0bbd 8963 36bd a442 663c
000000e0: 7b42 1bbc 37ab a1bc da3d 693c 5f3b b03b
000000f0: f2ea aabb 1b2c 263d bdf3 123d f2c7 6b3d

affine_layers.1.weight f4 [64, 64]
-0.20944044 -0.20332432 -0.06384485 -0.22152634 -0.13525538 -0.13586171 0.1960317 -0.27394265
0.6813334 -0.14976421 -0.32121062 -0.21209487 0.17182513 0.11559189 -0.08143618 -0.1765611
-0.022335663 -0.0657533 0.024248231 0.13152106 -0.23659506 0.08903833 -0.24217997 -0.33407
0.22324069 0.006362721 -0.20379522 -0.11460981 -0.09538074 -0.20283484 0.026775355 -0.16179028
-0.0459595 -0.105501525 -0.3191156 -0.023630086 -0.11392406 -0.019668002 0.028213553 0.008269793
0.2815494 0.26803747 0.034739856 -0.1956097 0.01632899 0.077716865 0.099296466 0.07134562
-0.12864089 0.33412617 -0.32299635 0.062395602 -0.02790113 0.39046022 -0.37116802 -0.011771947
-0.25800496 -0.17156935 -0.15415162 -0.0779248 -0.023490569 -0.24267513 -0.10316623 0.034210235
0.2906747 0.018661745 -0.16417518 0.017349418 -0.28213838 0.29036438 -0.05630797 -0.12116607
-0.24321897 0.10085904 -0.10461245 -0.08193105 0.10170048 0.007195077 -0.08362813 -0.4250837
0.1894279 0.19512123 0.17307125 -0.1084002 -0.06495327 0.3312008 -0.03910766 0.074963674
0.13911974 0.2915805 -0.18837477 -0.23172751 0.15183215 0.15844294 0.13153493 -0.25043783
0.3314947 0.15150955 0.16755013 0.058047146 0.15754156 0.057846103 0.024664374 0.13928343
-0.0536914 -0.10494675 -0.26789528 -0.1761655 0.21970113 -0.34478098 0.017394023 -0.0481566
-0.37438926 -0.08875826 0.11663495 -0.03918555 -0.15955415 0.09042245 -0.0511594 -0.07409274
0.05953751 0.0012812595 -0.0180308 0.09935529 0.4263376 0.2930029 -0.16577789 0.02294854
-0.052041493 -0.024150899 0.0022799645 -0.029102363 0.05315957 -0.10685905 0.38289338 -0.055132855
0.30756003 -0.041676316 -0.19339044 0.26440737 -0.106251985 -0.024771683 0.32778385 0.174825
0.36516204 0.10769283 0.060745176 -0.117563345 -0.2798186 0.4579102 0.07405636 -0.13912454
-0.08353845 0.17360057 -0.17772892 -0.26297244 -0.15841849 -0.05796676 -0.2586501 -0.30836856
-0.43812346 -0.06149077 0.1237332 -0.18179765 -0.25098622 0.087639615 0.17005965 0.19941632
0.048075218 -0.08770016 -0.17722745 0.2737589 -0.3095118 -0.11757992 0.17274159 0.21609499
0.03472441 -0.09857312 0.16917713 -0.26883194 0.19651338 -0.14519987 0.25332913 0.18912137
0.08896923 0.21805978 0.16323274 -0.07916354 -0.12064571 0.18770598 -0.25683516 -0.0741242
0.14579442 0.15520589 0.20794132 -0.1657429 -0.05739548 0.013890062 -0.049474075 0.05572183
-0.14708133 0.088167995 -0.3463801 -0.039026413 0.21108758 0.35907918 0.15669191 0.28968886
-0.11248687 -0.1888287 0.096168615 0.30541134 -0.009084119 -0.28860933 0.022548033 -0.24420357
-0.098604605 -0.42488042 0.07100826 0.05437791 0.12894787 0.15818329 -0.062607616 -0.101896286
0.11271452 -0.24007304 0.14026324 -0.42055577 -0.22369401 0.0073986677 0.05397754 0.5570886
0.05045136 -0.024408696 -0.059875168 -0.053496722 -0.20402607 -0.24177589 0.07516046 0.0262839
-0.2993286 0.14618139 0.08887699 0.109428935 0.018825626 0.22066598 0.33426794 -0.05812559
-0.08943274 0.042919952 -0.1661289 0.01033787 0.11462729 -0.005221046 0.19605687 0.017347673
00000000: 8e77 56be 4034 50be 17c1 82bd cdd7 62be
00000010: 6380 0abe 551f 0bbe 89bc 483e 3642 8cbe
00000020: de6b 2e3f ca5b 19be b875 a4be 662f 59be
00000030: edf2 2f3e 71bb ec3d 03c8 a6bd 6fcc 34be
00000040: 48f9 b6bc aba9 86bd 3aa4 c63c 75ad 063e
00000050: fa45 72be ba59 b63d 07fe 77be 390b abbe
00000060: 3599 643e 5f7e d03b b2af 50be 8cb8 eabd
00000070: fa56 c3bd f0b3 4fbe fd57 db3c 5aac 25be
00000080: 0740 3cbd 2f11 d8bd 1f63 a3be e293 c1bc
00000090: 0451 e9bd ca1e a1bc 1c20 e73c 077e 073c
000000a0: 3e27 903e 353c 893e 614b 0e3d e94d 48be
000000b0: 60c4 853c 052a 9f3d f25b cb3d a71d 923d
000000c0: 70ba 03be 9612 ab3e c75f a5be 8892 7f3d
000000d0: e990 e4bc 67ea c73e bc09 bebe 20df 40bc
000000e0: 3a19 84be e0af 2fbe ecd9 1dbe 0a97 9fbd
000000f0: 4b6f c0bc d47f 78be d148 d3bd 0820 0c3d
00000100: 50d3 943e 84e0 983c 8a1d 28be 5e20 8e3c
00000110: 7174 90be a4aa 943e 30a3 66bd eb25 f8bd
00000120: 650e 79be 2f8f ce3d 0d3f d6bd 77cb a7bd
00000130: 5748 d03d aec4 eb3b 3a45 abbd 92a4 d9be
00000140: 63f9 413e dccd 473e 9739 313e ed00 debd
00000150: 3806 85bd 2793 a93e 5b2f 20bd 8e86 993d
00000160: 6875 0e3e 0a4a 953e 51e5 40be fa49 6dbe
00000170: e379 1b3e de3e 223e 18b1 063e 6339 80be
00000180: acb9 a93e 5225 1b3e 4392 2b3e d8c2 6d3d
00000190: 9352 213e 09f0 6c3d f10c ca3c 51a0 0e3e
000001a0: 83eb 5bbd 52ee d6bd 9229 89be bb64 34be
000001b0: 55f9 603e 2287 b0be e97d 8e3c db3f 45bd
000001c0: f3af bfbe e4c6 b5bd 4ede ee3d 0781 20bd
000001d0: 2a62 23be 682f b93d 858c 51bd efbd 97bd
000001e0: 9bdd 733d efef a73a 54b5 93bc c97a cb3d
000001f0: ec48 da3e 7a04 963e aec1 29be 94fe bb3c
00000200: 7629 55bd 1bd8 c5bc 756b 153b 1468 eebc
00000210: d9bd 593d ebd8 dabd 9a0a c43e fdd2 61bd
00000220: 8278 9d3e c9b4 2abd 2508 46be 6760 873e
00000230: a49a d9bd fced cabc 49d3 a73e 5305 333e
00000240: 85f6 ba3e 0f8e dc3d efcf 783d 0dc5 f0bd
00000250: 6244 8fbe 3573 ea3e dcaa 973d aa76 0ebe
00000260: 3516 abbd 59c4 313e 92fe 35be 53a4 86be
00000270: 7538 22be 8e6e 6dbd c96d 84be 7ce2 9dbe
00000280: b851 e0be bfdd 7bbd d567 fd3d 2a29 3abe
00000290: 4481 80be 667c b33d 1e24 2e3e cb33 4c3e
000002a0: 85ea 443d 249c b3bd 1d7b 35be 202a 8c3e
000002b0: 5578 9ebe becd f0bd 2ce3 303e 0148 5d3e
000002c0: 2f3b 0e3d b4e0 c9bd c53c 2d3e 57a4 89be
000002d0: ce3a 493e 46af 14be 5bb4 813e 08a9 413e
000002e0: 8035 b63d 104b 5f3e 7c26 273e 7e20 a2bd
000002f0: 1915 f7bd ff35 403e e67f 83be 6ece 97bd
00000300: 224b 153e 4bee 1e3e 92ee 543e 82b8 29be
00000310: 8617 6bbd 2593 633c 54a5 4abd 933c 643d
00000320: 7d9c 16be 6c91 b43d bc58 b1be 29da 1fbd
00000330: 5827 583e 3ad9 b73e d873 203e 1952 943e
00000340: 845f e6bd 505c 41be 0df4 c43d e05e 9c3e
00000350: 8fd5 14bc 9ac4 93be a7b6 b83c 8010 7abe
00000360: 36f1 c9bd ed89 d9be c76c 913d 5fbb 5e3d
00000370: e90a 043e cdfa 213e 6c38 80bd 00af d0bd
00000380: dfd6 e63d b5d5 75be 2ba1 0f3e 1653 d7be
00000390: 0b10 65be 8670 f23b 8e17 5d3d 5c9d 0e3f
000003a0: 16a6 4e3d bff4 c7bc aa3f 75bd 611f 5bbd
000003b0: 36ec 50be 1994 77be baed 993d 5551 d73c
000003c0: 9941 99be 93b0 153e 2405 b63d 471c e03d
000003d0: 3338 9a3c 43f6 613e 2b25 ab3e 1915 6ebd
000003e0: 8328 b7bd d5cc 2f3d b21d 2abe 2b60 293c
000003f0: b6c1 ea3d 4f15 abbb 22c3 483e b51c 8e3c

affine_layers.1.bias f4 [64]
0.033196773 -0.008304201 -0.023035305 -0.044274922 0.0057991124 -0.012229587 0.04758713 -0.033728976
-0.00636169 -0.012235282 -0.037741553 -0.014289637 0.047945812 0.0076585584 -0.05310806 -0.06791981
0.01216634 -0.03728815 0.0030628624 -0.04262794 -0.0005692308 0.0051952144 0.014434536 0.004054399
0.021628903 0.02321622 0.0278363 0.04572815 -0.043025136 0.03336028 -0.05008335 -0.037671555
0.07107558 0.03657465 0.0816392 0.03196378 -0.007792195 0.027277816 -0.025976118 -0.009181153
-0.09532698 0.038705494 -0.025440713 0.024296528 -0.030893331 -0.008681531 -0.11795911 0.13544506
0.016880117 -0.03710396 0.045506068 -0.04140541 0.008333678 -0.092867464 -0.025929924 0.0010379085
-0.038913466 0.020073483 -0.04137451 0.021952813 0.0041370285 0.00089601625 0.047698583 0.011823852
00000000: 57f9 073d 580e 08bc 89b4 bcbc 9f59 35bd
00000010: 7b06 be3b 9b5e 48bc b9ea 423d 6527 0abd
00000020: b975 d0bb 7e76 48bc e396 1abd 151f 6abc
00000030: d462 443d a5f4 fa3b d687 59bd 8b19 8bbd
00000040: 5455 473c 76bb 18bd 4eba 483b a39a 2ebd
00000050: 6f38 15ba 9e3c aa3b d57e 6c3c c4da 843b
00000060: 192f b13c f12f be3c f408 e43c 714d 3b3d
00000070: 203b 30bd caa4 083d 3324 4dbd 7d4d 1abd
00000080: 1390 913d 4dcf 153d 7432 a73d 74ec 023d
00000090: ab55 ffbb ba75 df3c decb d4bc 8c6c 16bc
000000a0: cb3a c3bd a789 1e3d 0b69 d0bc 8309 c73c
000000b0: 0314 fdbc fb3c 0ebc 8c94 f1bd 1cb2 0a3e
000000c0: 2c48 8a3c 52fa 17bd 9264 3a3d b898 29bd
000000d0: fb89 083c 4c31 bebd fe6a d4bc 6e0a 883a
000000e0: ba63 1fbd 2571 a43c 5178 29bd 63d6 b33c
000000f0: e98f 873b a2e2 6a3a 975f 433d d4b8 413c

final_mean.weight f4 [6, 64]
0.08834825 0.021422775 0.07135548 0.01214762 0.02382201 -0.03721936 -0.022065995 -0.053679228
0.058984656 0.009894302 0.042175956 0.01780471 -0.0043025995 0.016979594 -0.01664285 -0.004924324
-0.007745188 -0.010195059 0.022492627 0.011656332 0.005039333 -0.03205738 -0.024874026 -0.0077554653
-0.019187782 0.003154756 0.015947657 0.026920931 -0.018129101 0.040376358 0.023587352 0.005337386
-0.0068896757 0.058645245 0.041335393 -0.042380247 0.04173825 0.0012800074 0.0012026689 -0.038085714
0.0017757578 -1.003624e-05 -0.0047692377 -0.037153427 0.010096655 0.0027843462 0.0009874369 0.005391836
0.03202032 -0.034747675 0.028027568 -0.027956605 0.01261325 0.0059271324 0.058648624 0.034968257
-0.016766611 0.049125914 0.008969929 -0.003803287 -0.019486908 -0.002928126 0.014925586 -0.018138675
-0.07785526 0.009281316 0.040939756 0.039478756 0.20176864 0.09680769 0.010453687 -0.025861017
-0.031679753 -0.049366824 0.08392534 0.07220132 -0.01716504 0.021491377 -0.037806075 0.034416534
0.06327566 -0.009627389 -0.010672901 -0.002461563 0.14084524 -0.029455692 0.12591337 -0.013805732
-0.076551154 0.04215877 0.034852695 0.104286924 -0.16119692 0.045092743 -0.001329258 0.07905081
-0.033593323 -0.026064675 -0.12753843 0.039041113 -0.103056855 -0.058697097 -0.032363366 0.06709503
0.040501855 -0.083642334 -0.006111837 0.057293594 -0.024065241 0.09663889 0.02413536 0.04449683
0.010922074 0.13589284 0.095343806 0.08057223 0.07366496 0.017087914 0.03516085 -0.16309017
-0.13175061 -0.007526753 0.017065538 -0.16637176 0.11542042 -0.0083401315 0.0212703 0.16120021
0.013487289 0.007294699 0.040382907 -0.008438218 -0.015529097 -0.016242644 0.056523155 -0.022197029
0.0026978562 0.0063770153 0.0008523969 -0.009367275 -0.012788669 -0.015978817 0.014901378 -0.020205732
0.0039065448 -0.018910274 -0.003840648 -0.05034428 0.008953173 -0.040939514 -0.01692042 -0.021657504
-0.0076630176 0.0048497343 -0.0060146335 0.008742675 0.012882727 0.06814422 -0.07131323 0.029614607
0.01440313 0.009408453 -0.039427884 0.054796923 0.0066007418 -0.0059460513 0.046269447 -0.0006171303
0.022376014 -0.0063663307 -0.0017024492 -0.019778272 -0.013679202 0.0059961774 -0.059687484 0.045093216
-0.004846043 0.029135758 -0.002267896 0.06141223 -0.0208653 -0.07250725 0.010509661 0.0060761226
0.002277893 0.028056161 -0.022122422 0.014634265 -0.00190311 0.006756176 0.0232579 -0.023842337
0.024778975 -0.009434584 0.052382853 0.025491469 -0.07434945 0.013296005 0.008098926 0.0063830586
-0.006763377 0.01088016 0.003123822 0.013788615 -0.00096234446 -0.029584298 -0.005929676 -0.0092687905
0.013395604 0.014174952 0.019260118 -0.014510941 -0.023428224 -0.00031676271 -0.07297086 -0.01546907
-0.025909618 -0.0037792008 -0.018255105 0.02105323 -0.013228132 -0.07586259 -0.0030056897 0.015305893
-0.0002339623 -0.0008536145 -0.053278156 -0.035441272 0.04359616 -0.0013872472 0.028763726 -0.022530345
0.024508635 -0.013169273 0.00816325 -0.00047040504 0.0029312596 0.040138844 0.039598566 -0.012061369
-0.032086812 0.028501002 -0.007982923 0.06518359 -0.04503492 0.048868943 0.012596498 0.0003066531
0.00032387365 -0.018017672 -0.021000905 0.021301536 0.014162737 0.0048218737 0.06668453 0.0023653794
00000000: edef b43d d17e af3c d222 923d d006 473c
00000010: 6026 c33c 5473 18bd bfc3 b4bc c0de 5bbd
00000020: e599 713d b61b 223c b2c0 2c3d 2fdb 913c
00000030: d2fc 8cbb ca18 8b3c 9656 88bc 395c a1bb
00000040: 59cb fdbb 2d09 27bc 7542 b83c 33fa 3e3c
00000050: fd20 a53b 994e 03bd 9dc4 cbbc 8f21 febb
00000060: b22f 9dbc 06c0 4e3b a9a4 823c 4989 dc3c
00000070: 7b83 94bc ae61 253d 433a c13c 3de5 ae3b
00000080: cac2 e1bb ff35 703d 4d4f 293d e996 2dbd
00000090: baf5 2a3d ecc5 a73a dfa2 9d3a c4ff 1bbd
000000a0: 8bc0 e83a 5361 28b7 4447 9cbb 312e 18bd
000000b0: 716c 253c 9479 363b e26c 813a 00ae b03b
000000c0: bd27 033d 9453 0ebd 129a e53c 4005 e5bc
000000d0: cea7 4e3c 6438 c23b 8a39 703d e03a 0f3d
000000e0: 225a 89bc 4138 493d 9cf6 123c 9140 79bb
000000f0: 02a3 9fbc cde5 3fbb 728a 743c 8f97 94bc
00000100: 9472 9fbd a910 183c 72b0 273d 7ab4 213d
00000110: 709c 4e3e 1c43 c63d f145 2b3c 7cda d3bc
00000120: a1c2 01bd de34 4abd 0ce1 ab3d 49de 933d
00000130: b39d 8cbc af0e b03c 8bda 1abd 5af8 0c3d
00000140: ab96 813d 32bc 1dbc 64dd 2ebc 2d52 21bb
00000150: bc39 103e 104d f1bc 6fef 003e 7031 62bc
00000160: dac6 9cbd adae 2c3d b3c1 0e3d 6294 d53d
00000170: ce10 25be 2bb3 383d 7f3a aeba 64e5 a13d
00000180: 2799 09bd 9685 d5bc 6f99 02be 93e9 1f3d
00000190: 790f d3bd 5e6c 70bd 738f 04bd 1e69 893d
000001a0: 46e5 253d ac4c abbd ce45 c8bb b0ac 6a3d
000001b0: 7824 c5bc 9cea c53d 85b7 c53c 4f42 363d
000001c0: 80f2 323c 7e27 0b3e 9d43 c33d 0e03 a53d
000001d0: a8dd 963d f4fb 8b3c d304 103d 1c01 27be
000001e0: a2e9 06be fba2 f6bb 07cd 8b3c 5c5d 2abe
000001f0: 8b61 ec3d 0ca5 08bc 0d3f ae3c ab11 253e
00000200: caf9 5c3c 5f08 ef3b 8c68 253d 7440 0abc
00000210: c16d 7ebc 4b0f 85bc d384 673d 8bd6 b5bc
00000220: 84ce 303b 48f6 d03b 6373 5f3a 3379 19bc
00000230: 9187 51bc 02e6 82bc e924 743c 7e86 a5bc
00000240: 7902 803b b8e9 9abc 62b3 7bbb ce35 4ebd
00000250: 54b0 123c 31b0 27bd b19c 8abc 146b b1bc
00000260: 0d1a fbbb 85ea 9e3b 6716 c5bb 703d 0f3c
00000270: 1312 533c 328f 8b3d ac0c 92bd 559a f23c
00000280: 1bfb 6b3c e925 1a3c 227f 21bd bd72 603d
00000290: 094b d83b 18d7 c2bb 0885 3d3d eac6 21ba
000002a0: e74d b73c a79c d0bb b724 dfba 0b06 a2bc
000002b0: bb1e 60bc 957b c43b dd7a 74bd aab3 383d
000002c0: 8ecb 9ebb 1dae ee3c fba0 14bb 648b 7b3d
000002d0: b5ed aabc ae7e 94bd b730 2c3c 361a c73b
000002e0: b448 153b 09d6 e53c 153a b5bc 8ec4 6f3c
000002f0: c671 f9ba e962 dd3b 5a87 be3c 0151 c3bc
00000300: 47fd ca3c 8393 1abc 678f 563d 7cd3 d03c
00000310: 8644 98bd 7dd7 593c 5cb1 043c fa28 d13b
00000320: 529f ddbb b342 323c 09b9 4c3b a5e9 613c
00000330: d845 7cba c55a f2bc ba4d c2bb 20dc 17bc
00000340: 3c79 5b3c 0f3e 683c 65c7 9d3c 4cbf 6dbc
00000350: 8cec bfbc 2c13 a6b9 bf71 95bd fb71 7dbc
00000360: 6840 d4bc 78ac 77bb bb8b 95bc d377 ac3c
00000370: cfba 58bc d85d 9bbd 1bfb 44bb 91c5 7a3c
00000380: c753 75b9 19c5 5fba 323a 5abd de2a 11bd
00000390: e391 323d 4bd4 b5ba e8a1 eb3c 8f91 b8bc
000003a0: 55c6 c83c efc3 57bc 27bf 053c b2a0 f6b9
000003b0: 601a 403b a168 243d 1b32 223d 0c9d 45bc
000003c0: 766d 03bd ef7a e93c ceca 02bc f97e 853d
000003d0: 8976 38bd cd2a 483d 8b61 4e3c 48c6 a039
000003e0: 96cd a939 cc99 93bc 170a acbc 8f80 ae3c
000003f0: d30a 683c cf00 9e3b e691 883d 7b04 1b3b

final_mean.bias f4 [6]
0.00401196 -0.01756579 0.037426528 -0.02457227 0.06419576 0.080399334
00000000: c276 833b 22e6 8fbc 8f4c 193d c94b c9bc
00000010: 1179 833d 68a8 a43d

exp_avg f4 [64, 48]
0.07556008 0.093536325 0.10222684 0.10222473 0.07556128 0.102227405 0.10618431 0.07370668
0.10346585 0.10018176 0.09997355 0.07461261 0.07221885 0.0977302 0.07201893 0.08108683
0.07235264 0.07418693 0.07248836 0.09741239 0.09993205 0.09464567 0.07480159 0.10119795
0.07138677 0.071834065 0.0747001 0.100811504 0.07400847 0.097706415 0.073024854 0.100203134
0.09290464 0.08902129 0.096910976 0.075048305 0.09475526 0.07502293 0.100846104 0.07176927
0.09546848 0.07337573 0.11736295 0.071876176 0.073239535 0.10346437 0.013880804 -0.01716367
6.071889e-05 7.645076e-05 8.214776e-05 8.21461e-05 6.071965e-05 8.2148006e-05 8.572007e-05 5.8630358e-05
8.326687e-05 8.078412e-05 8.0289894e-05 5.99699e-05 5.830657e-05 7.8598656e-05 5.809117e-05 6.4197666e-05
5.884344e-05 5.9419384e-05 5.789379e-05 7.868079e-05 8.0166334e-05 7.240794e-05 5.9640322e-05 8.123123e-05
5.7586076e-05 5.7980797e-05 5.993881e-05 8.080233e-05 5.9293074e-05 7.889833e-05 5.897374e-05 8.0493024e-05
7.433414e-05 7.201769e-05 7.840348e-05 6.0280458e-05 7.667443e-05 6.007957e-05 8.0842125e-05 5.7983092e-05
7.7253746e-05 5.8398946e-05 9.784663e-05 6.1140636e-05 5.889948e-05 8.326682e-05 8.435283e-06 -1.3890994e-05
0.07133765 0.090226606 0.09651425 0.09651217 0.07133864 0.096514575 0.10096156 0.069708996
0.097891375 0.09487867 0.09467805 0.07043736 0.06841893 0.09256097 0.06802649 0.07735985
0.07038844 0.069824874 0.06834819 0.09244912 0.094584845 0.08766678 0.06955423 0.09582523
0.067741804 0.068003885 0.07080769 0.09494496 0.0696523 0.09249036 0.0692345 0.09490628
0.088133365 0.085008346 0.092218876 0.070839345 0.08951681 0.07105959 0.09499489 0.067981236
0.09033278 0.069879614 0.11305406 0.06802813 0.069417074 0.097891286 0.012280532 -0.016026413
-0.14356968 -0.17808966 -0.19423844 -0.19423433 -0.14357175 -0.19423923 -0.20144086 -0.13931721
-0.19671772 -0.19051045 -0.19004714 -0.14163055 -0.13730785 -0.18596213 -0.13676478 -0.15579161
-0.13775423 -0.1405473 -0.13695319 -0.18592975 -0.18990055 -0.17855921 -0.14157839 -0.19237846
-0.13595144 -0.13652697 -0.1420315 -0.19111735 -0.14019638 -0.18576495 -0.13889897 -0.19050482
-0.17559494 -0.17006741 -0.18407375 -0.14244388 -0.1798763 -0.14254957 -0.19120213 -0.13645184
-0.1809532 -0.13978583 -0.23095994 -0.13939573 -0.13916557 -0.19671652 -0.024717476 0.03253927
0.07621699 0.09616456 0.103115626 0.10311339 0.076218136 0.10311612 0.107274175 0.075666085
0.10449768 0.1011922 0.101085894 0.07528862 0.072928004 0.098947726 0.072665386 0.084146604
0.07351367 0.07477284 0.07316745 0.09873269 0.10101735 0.095544115 0.075160034 0.10233371
0.07204316 0.07252949 0.07560656 0.101621 0.07459631 0.098648414 0.07379019 0.101327635
0.09424109 0.08909337 0.09775661 0.075727746 0.09600826 0.076018535 0.10166714 0.072482154
0.0959316 0.075281925 0.11693546 0.07285064 0.074066445 0.10449684 0.013917414 -0.01568091
-0.06427154 -0.079482675 -0.08695432 -0.086952515 -0.06427252 -0.08695476 -0.09025398 -0.06264176
-0.08808914 -0.08536173 -0.08511235 -0.06353766 -0.061574593 -0.08331289 -0.061386023 -0.06944669
00000000: 3ebf 9a3d f98f bf3d 4e5c d13d 335b d13d
00000010: dfbf 9a3d 9a5c d13d 2977 d93d 87f3 963d
00000020: e7e5 d33d 182c cd3d efbe cc3d 7fce 983d
00000030: 7ae7 933d c526 c83d a97e 933d da10 a63d
00000040: 9f2d 943d 51ef 973d c774 943d 2680 c73d
00000050: 2da9 cc3d 97d5 c13d 9331 993d df40 cf3d
00000060: 3a33 923d bd1d 933d 5efc 983d 4376 ce3d
00000070: c191 973d 4d1a c83d 0e8e 953d 4d37 cd3d
00000080: ca44 be3d cb50 b63d 4379 c63d edb2 993d
00000090: 0c0f c23d 9fa5 993d 6788 ce3d c4fb 923d
000000a0: fa84 c33d 0446 963d fd5b f03d d133 933d
000000b0: 9cfe 953d 21e5 d33d 506c 633c d39a 8cbc
000000c0: 69ac 7e38 3054 a038 be46 ac38 da45 ac38
000000d0: 3aad 7e38 e046 ac38 9dc4 b338 dee9 7538
000000e0: 8f9f ae38 a56a a938 4f61 a838 3188 7b38
000000f0: 348e 7438 55d5 a438 eba6 7338 dca1 8638
00000100: aace 7638 1439 7938 fcd2 7238 6d01 a538
00000110: f91e a838 b7d9 9738 4f26 7a38 af5a aa38
00000120: 9488 7138 6830 7338 cf66 7b38 6c74 a938
00000130: 74b1 7838 3876 a538 925a 7738 5dce a838
00000140: d6e3 9b38 3408 9738 8c6c a438 a6d5 7c38
00000150: 45cc a038 f2fd 7b38 c989 a938 df32 7338
00000160: 4a03 a238 64f1 7438 0233 cd38 a138 8038
00000170: d60a 7738 899f ae38 4485 0d37 5d0d 69b7
00000180: 7919 923d bac8 b83d 43a9 c53d 2ca8 c53d
00000190: fe19 923d 6fa9 c53d efc4 ce3d 97c3 8e3d
000001a0: 467b c83d c04f c23d 91e6 c13d 7641 903d
000001b0: 391f 8c3d 9b90 bd3d 7951 8b3d d76e 9e3d
000001c0: d027 903d 5800 8f3d 23fa 8b3d f755 bd3d
000001d0: b3b5 c13d a48a b33d 7372 8e3d 0540 c43d
000001e0: 37bc 8a3d 9f45 8b3d 9f03 913d 8172 c23d
000001f0: dda5 8e3d 966b bd3d d1ca 8d3d 395e c23d
00000200: 447f b43d db18 ae3d 40dd bc3d 3814 913d
00000210: 9754 b73d b187 913d ae8c c23d bf39 8b3d
00000220: 6400 b93d 0b1d 8f3d e388 e73d 5552 8b3d
00000230: 8a2a 8e3d 3a7b c83d 4934 493c d349 83bc
00000240: ee03 13be 235d 36be 71e6 46be 5de5 46be
00000250: 7904 13be a6e6 46be 8346 4ebe 2ca9 0ebe
00000260: 5f70 49be 2c15 43be b89b 42be 9907 11be
00000270: 6e9a 0cbe db6c 3ebe 110c 0cbe d687 1fbe
00000280: 720f 0dbe a2eb 0fbe 753d 0cbe 5e64 3ebe
00000290: 4a75 42be 3ad8 36be edf9 10be dcfe 44be
000002a0: db36 0bbe bacd 0bbe b570 11be 44b4 43be
000002b0: a48f 0fbe 2b39 3ebe 883b 0ebe b213 43be
000002c0: 29cf 33be 2726 2ebe d47d 3cbe cfdc 11be
000002d0: 7e31 38be 84f8 11be 7eca 43be 08ba 0bbe
000002e0: cc4b 39be 0424 0fbe c380 6cbe c1bd 0ebe
000002f0: 6b81 0ebe 0e70 49be 4e7c cabc e647 053d
00000300: a717 9c3d edf1 c43d 492e d33d 1d2d d33d
00000310: 4118 9c3d 8b2e d33d 90b2 db3d d2f6 9a3d
00000320: e102 d63d db3d cf3d 1f06 cf3d ec30 9a3d
00000330: 475b 953d 1ba5 ca3d 97d1 943d 0e55 ac3d
00000340: 568e 963d 8122 993d d1d8 953d 5d34 ca3d
00000350: 2fe2 ce3d a2ac c33d 81ed 993d 5694 d13d
00000360: 5d8b 933d 578a 943d 9dd7 9a3d ac1e d03d
00000370: f3c5 983d 2e08 ca3d 501f 973d dd84 cf3d
00000380: 7901 c13d 9676 b63d 9e34 c83d 2617 9b3d
00000390: fb9f c43d 9baf 9b3d dd36 d03d 8671 943d
000003a0: c977 c43d 692d 9a3d dc7b ef3d b732 953d
000003b0: 26b0 973d 7002 d63d dd05 643c 4075 80bc
000003c0: cca0 83bd d0c7 a2bd 1b15 b2bd 2914 b2bd
000003d0: 50a1 83bd 5615 b2bd 14d7 b8bd 534a 80bd
000003e0: 1468 b4bd 21d2 aebd 624f aebd 0820 82bd
000003f0: a435 7cbd f39f aabd e96f 7bbd 113a 8ebd
