ATLA_robust_RL/src/models/atla_release/ATLA-PPO/attack-atla-ppo-34Bus-eps0.15-no-norm.model (torch, 658537 bytes, 72 tensors)

affine_layers.0.weight f4 [64, 107]
0	0xbebb796b	-0.36616072
1	0xbe4f752e	-0.20259544
2	0xbd7d473f	-0.061835524
3	0x3e2dc983	0.16971402
4	0xbd918fd7	-0.071075134
5	0xbd862c89	-0.06551463
6	0xbdbe03f6	-0.09278099
7	0xbc5fa76c	-0.013650756
8	0xbcb44474	-0.022005297
9	0xbd5bed5f	-0.05369317
10	0xbd68be3c	-0.056822047
11	0xbe0b3768	-0.13595355
12	0xbc4a4c26	-0.012347257
13	0xbdb80756	-0.08985774
14	0x3dd5698d	0.10420523
15	0x3d48f03d	0.049057234
16	0x3ccc77de	0.0249595
17	0x3db40433	0.087898634
18	0xbdc61050	-0.0967108
19	0x3dfa2f7c	0.12216088
20	0x3ea0262b	0.3127912
21	0xbe478a25	-0.19486292
22	0x3d8d3497	0.06894796
23	0xbe188eb3	-0.14898185
24	0xbe32982c	-0.17440861
25	0x3d881cfd	0.06646154
26	0xbeae5755	-0.34051004
27	0x3e8a2d2b	0.26987585
28	0xbdf9dc96	-0.122002766
29	0xbd4400b4	-0.047852233
30	0xbdc7b4d3	-0.09751286
31	0x3caea3aa	0.021318275
32	0xbd287dca	-0.041135587
33	0x3d9b00b7	0.07568496
34	0xba493c96	-0.00076765695
35	0x3e07b9ad	0.13254423
36	0xbe28b53d	-0.16475387
37	0xbe0ec6bb	-0.13942997
38	0xbe92e522	-0.2869044
39	0xbd6d5d80	-0.057950497
40	0x3e3d82fb	0.18506996
41	0xbe4ec685	-0.20192917
42	0x39e05bc7	0.0004279299
43	0xbd470e27	-0.04859748
44	0x3e6132c0	0.21992016
45	0x3e756d6a	0.2396752
46	0xbd82f1da	-0.06393786
47	0x3d95383d	0.07286117
48	0xbe2fe7be	-0.17178246
49	0x3ac9a10f	0.0015383082
50	0x3e254fda	0.16143742
51	0x3e75ba42	0.23996833
52	0x3dca570f	0.09879886
53	0x3e1215d9	0.14266147
54	0x3d8897b3	0.06669559
55	0xbdc2bf36	-0.09509127
56	0x3da2a9a0	0.0794251
57	0xbe98fb3d	-0.2987918
58	0x3c6bfedc	0.014404025
59	0x3dff5157	0.12466686
60	0x3df714b0	0.12064493
61	0x3c9e469a	0.019320775
62	0x3d02e4cc	0.03195648
63	0x3bc1c9f5	0.0059139677
64	0x3dd525f0	0.10407627
65	0xbe0980cf	-0.13428043
66	0x3e16ec5a	0.14738598
67	0xbe622298	-0.22083509
68	0xbd4e6372	-0.050387807
69	0xbd6bf861	-0.05760992
70	0xbdc92940	-0.09822321
71	0x3e0aecbe	0.13566872
72	0xbc002472	-0.007821189
73	0xbdbcf542	-0.09226467
74	0x3e26dacd	0.16294403
75	0x3e4eb724	0.2018705
76	0xbe2c8e52	-0.16851166
77	0x3e381503	0.17976765
78	0x3dcb9426	0.099403664
79	0xbd7e896a	-0.062142767
80	0x3da5d4fa	0.08097263
81	0xbe473d7b	-0.19457047
82	0x3e3a531b	0.18195765
83	0xbd01c6c4	-0.0316837
84	0xbe109678	-0.141199
85	0xbe453d1a	-0.1926159
86	0xbbf1d153	-0.0073796897
87	0xbdd77047	-0.10519462
88	0x3d46bd6d	0.048520494
89	0x3d00bd31	0.031430427
90	0xbdcfbfb1	-0.10143984
91	0xbbdf5a93	-0.006816217
92	0x3d9bef9e	0.07614063
93	0x3de62f00	0.11239433
94	0xbd08b177	-0.03337237
95	0xbb43bfe9	-0.0029869026
96	0x3c2434d8	0.010022365
97	0x3dc81bf0	0.09770954
98	0x3e58456b	0.21120231
99	0x3cd285ff	0.02569866
100	0x3d5130b9	0.051071856
101	0xbdc45f0d	-0.09588442
102	0x3d4871c1	0.04893661
103	0xbdda5b4a	-0.10661943
104	0xbd46c871	-0.048531
105	0xbefe672a	-0.49688083
106	0xbe5f9b90	-0.21836686
107	0x3e8884e2	0.26663882
108	0x3a2312b3	0.0006220743
109	0x3e3ee98e	0.18643782
110	0xbccccb41	-0.024999263
111	0x3cc4ca2b	0.024022182
112	0x3de4e1bc	0.11175868
113	0xbdf3e832	-0.11909522
114	0x3d8efd8e	0.069819555
115	0x3d870ed5	0.06594626
116	0xba0c9b99	-0.0005363762
117	0x3e4dfc73	0.20115833
118	0xbc511201	-0.01276064
119	0x3e051b7a	0.12998763
120	0x3e39a8e4	0.18130833
121	0x3c46711f	0.012111931
122	0xbe32c447	-0.17457686
123	0x3e4dc44a	0.2009441
124	0x3e7330ab	0.23749034
125	0x3df37f1d	0.11889479
126	0x3e0a64fb	0.13515083
127	0xbb09a167	-0.0021000744
128	0xbbde7657	-0.0067890096
129	0x3cab35e0	0.020899713
130	0x3c258cc9	0.010104367
131	0x3d7920d8	0.060822338
132	0xba724176	-0.0009241322
133	0x3e90fdfb	0.28318772
134	0x3e0ae706	0.13564691
135	0x3d43d7dc	0.04781328
136	0x3e204540	0.15651417
137	0x3c902743	0.017596846
138	0xbd317c67	-0.04333153
139	0x3e909dd4	0.28245413
140	0x3e1b7ddb	0.15184729
141	0x3e3f304a	0.18670765
142	0xbc499084	-0.012302522
143	0xbdb9937d	-0.09061334
144	0x3e1e7e40	0.15477848
145	0xbd99cd85	-0.07509903
146	0x3ec68f2d	0.3878111
147	0x3d0147a1	0.03156245
148	0xbe2538e8	-0.1613499
149	0xbe48c218	-0.19605291
150	0x3d64249d	0.05569898
151	0x3ee2e9e7	0.44319078
152	0x3d46be1b	0.048521142
153	0xbde1ec71	-0.11031426
154	0x3c50c735	0.012742807
155	0x3cd565db	0.026049545
156	0xbc876db9	-0.016531812
157	0x3cb9abe0	0.022664964
158	0x3ce07808	0.027400985
159	0x3d929c9d	0.07158778
160	0xbdf22c8a	-0.118249014
161	0x3e7b9297	0.24567638
162	0x3e718664	0.23586422
163	0x3e625d25	0.22105844
164	0xbe26e215	-0.16297181
165	0x3c0a8146	0.008453673
166	0xbdad6bf2	-0.084678546
167	0xbe73b804	-0.23800665
168	0x3e240a4f	0.16019557
169	0xbd823a14	-0.06358734
170	0x3e7e9e0a	0.24864975
171	0x3d1b09de	0.037851207
172	0x3cf12fb7	0.029441698
173	0x3e1d3d5c	0.15355438
174	0x3ddd15c5	0.10795168
175	0xbe247f63	-0.16064219
176	0x3e2b6f06	0.16741571
177	0x3df714c1	0.12064505
178	0x3c17d67c	0.009267446
179	0xbe75250d	-0.23939915
180	0x3dc8795a	0.09788771
181	0x3db781ac	0.0896028
182	0x3da6ac3e	0.08138321
183	0x3db228fa	0.08699222
184	0x3d518566	0.05115261
185	0x3eab9cc3	0.33518037
186	0xbdbabf4d	-0.09118519
187	0x3aab078f	0.0013048517
188	0x3e32819b	0.17432253
189	0x3e313aa6	0.17307529
190	0x3b785c11	0.0037896673
191	0xbda5329a	-0.08066292
192	0xbcf70792	-0.030154977
193	0x3e921f24	0.28539383
194	0x3dc86181	0.097842224
195	0x3c818ed2	0.015815172
196	0x3e474f7d	0.19463916
197	0x3e807238	0.25087142
198	0x3dd5205e	0.10406564
199	0x3ab532a4	0.0013824296
200	0xbe21e62f	-0.15810464
201	0x3e5638a6	0.20920047
202	0x3e20b7f0	0.15695167
203	0xbd61230c	-0.054965064
204	0x3d813ac6	0.06310038
205	0x3d426188	0.047456294
206	0x3df0daf5	0.11760513
207	0x3c3214c7	0.0108692115
208	0x3ea8cf86	0.32970828
209	0x3e6b582e	0.22982857
210	0x3e6f4e7a	0.2336978
211	0x3e3b3b17	0.1828426
212	0xbdb3ccaf	-0.08779275
213	0x3e2a8fd1	0.16656424
214	0x3e0bfe50	0.13671231
215	0x3da5ddc4	0.08098939
216	0xbdd03803	-0.101669334
217	0x3e865023	0.26233014
218	0xbc5085c4	-0.012727205
219	0xbd89e51a	-0.06733151
220	0xbcd9a1f5	-0.026566485
221	0x3c7775e5	0.015103792
222	0x3e769862	0.24081567
223	0x3e0f0f57	0.13970695
224	0x3e5fb2e7	0.2184559
225	0x3debc4c7	0.11512142
226	0xbdc64a61	-0.096821554
227	0xbcb1dd11	-0.021711858
228	0xbd685c17	-0.05672845
229	0x3e657d6d	0.22411127
230	0x3ec45304	0.38344586
231	0xbd41ead0	-0.047343075
232	0xbd975067	-0.073883824
233	0x3dddd89a	0.10832329
234	0xbe05b1ef	-0.13056158
235	0xbbbd85d1	-0.0057837744
236	0x3d8e666c	0.06953129
237	0x3ce799cd	0.02827158
238	0x3e46aa41	0.19400884
239	0x3db3bdd5	0.08776442
240	0x3d1b0b2c	0.03785245
241	0x3e2e91e2	0.17047837
242	0xbe01f50d	-0.12691136
243	0x3e16f7ca	0.14742962
244	0xbd6818d5	-0.056664307
245	0xbe4c4cde	-0.19951198
246	0x3e96707b	0.2938269
247	0x3ecdbb93	0.4018217
248	0x3e3541ee	0.17700931
249	0x3e26fbbd	0.16306968
250	0x3e37a088	0.17932332
251	0x3e3b731a	0.18305627
252	0xbda0d4dd	-0.078531004
253	0xbdb5797a	-0.088610604
254	0x3d92febe	0.071774945
255	0xbe0516a9	-0.12996925

affine_layers.0.bias f4 [64]
0	0xbc2b739c	-0.010464575
1	0x3db1c630	0.086803794
2	0x3d894525	0.067026414
3	0x3cdac102	0.026703361
4	0x3d6fce3a	0.058546282
5	0x3d4863d4	0.04892333
6	0xbd25d283	-0.040483963
7	0x3d3ec90b	0.04657845
8	0x3d1a5874	0.03768201
9	0xbc1161d0	-0.008873418
10	0x3d181437	0.037128653
11	0xbd8b0749	-0.06788499
12	0xbd80112f	-0.062532775
13	0xbd57727e	-0.052599423
14	0x3c21254d	0.009835553
15	0xbdb6d4d9	-0.08927316
16	0x3d6ed685	0.05831005
17	0x3d185c85	0.03719761
18	0xbdb8bbba	-0.09020181
19	0x3d77d2e4	0.060503855
20	0x3d446d35	0.04795571
21	0xbcd256f8	-0.025676236
22	0x3d2be946	0.041970514
23	0x3d5c8f69	0.053847704
24	0xbd9b6cf3	-0.0758914
25	0xbc57e30a	-0.013176689
26	0xba86e85f	-0.0010292641
27	0xbcd53eb8	-0.026030883
28	0xbd9f4a5a	-0.07777853
29	0xbd68e436	-0.056858264
30	0xbd42bd7a	-0.04754398
31	0xbc7a0ccc	-0.01526184
32	0xbd101e6f	-0.035185274
33	0x3cd207af	0.02563843
34	0x3d27e876	0.040993176
35	0xbdb13ee7	-0.08654576
36	0x3aaa4ac8	0.0012992257
37	0x3d95b9c5	0.07310823
38	0x3cfe1509	0.03101589
39	0x3d7e2dca	0.062055387
40	0xbd9c2059	-0.07623357
41	0xbd92d556	-0.07169597
42	0xbd5bb97f	-0.0536437
43	0xbcd8d8a7	-0.026470495
44	0xbcada3a6	-0.021196198
45	0x3b948c4b	0.004533326
46	0xbc689863	-0.014196488
47	0xbbeada3c	-0.007167129
48	0xbd5d43dc	-0.054019794
49	0xbbe92a82	-0.007115663
50	0x3bd7804e	0.0065765744
51	0x3c6050f0	0.013691172
52	0xbcfc61b3	-0.030808305
53	0xbd5f6f1d	-0.054549325
54	0x3af88eaa	0.0018963416
55	0x3d3094ca	0.043110646
56	0x3d6557b0	0.05599183
57	0xbcdfd787	-0.027324451
58	0x3d9dea76	0.077107355
59	0x3d80d811	0.062912114
60	0xbd7c1e4e	-0.06155234
61	0x3d3d9635	0.046285827
62	0xbd8b8777	-0.06812947
63	0xbc189057	-0.009311757

affine_layers.1.weight f4 [64, 64]
0	0x3e02ba14	0.12766296
1	0xbdb96ad3	-0.09053578
2	0xbe605a1c	-0.21909374
3	0xbee788fc	-0.45221698
4	0xbef605b9	-0.4805124
5	0xbefdcb79	-0.495693
6	0x3e109a70	0.14121413
7	0x3d8cae0a	0.06869133
8	0xbe4d832a	-0.20069566
9	0x3dccbb0f	0.09996616
10	0xbe29633e	-0.16541764
11	0xbddfe8ca	-0.10933073
12	0x3f27061e	0.6524371
13	0x3e4c649d	0.19960256
14	0xbd51cfb9	-0.05122349
15	0x3eb48b13	0.35262355
16	0xbe880b15	-0.26570955
17	0x3d46f767	0.048575785
18	0x3ee431db	0.44569287
19	0xbe9e9ddf	-0.3097982
20	0xbe5f77d4	-0.21823055
21	0x3e6b1ab9	0.22959413
22	0xbe49e649	-0.19716753
23	0xbe126299	-0.14295425
24	0x3f0a8450	0.5410814
25	0xbe65348e	-0.2238333
26	0xbde73b15	-0.11290566
27	0x3c1dc599	0.0096296305
28	0xbd2877b6	-0.04112979
29	0x3e172dc8	0.14763558
30	0xbb3aefb4	-0.0028524222
31	0x3eb8eeb3	0.36119613
32	0x3d97a0e0	0.07403731
33	0xbeb2689a	-0.3484543
34	0x3e2ccf9a	0.16876069
35	0x3e100239	0.14063348
36	0xbd8b6ad3	-0.068074845
37	0xbf14ed38	-0.5817447
38	0xbe1d04d8	-0.15333879
39	0x3de0b2d1	0.109716065
40	0xbddaab4f	-0.10677206
41	0x3e6864a4	0.22694641
42	0x3e76bb4c	0.24094886
43	0xbeaca5ec	-0.33720338
44	0xbc253efc	-0.010085817
45	0xbe8f7768	-0.28020787
46	0xbcc54896	-0.024082463
47	0xbe39c20f	-0.18140434
48	0x3f1d96b9	0.6155811
49	0xbdcf78da	-0.101304725
50	0x3d832b17	0.06404703
51	0xbd83f0ba	-0.06442399
52	0xbe81baec	-0.25337923
53	0x3eae49df	0.34040734
54	0xbe98895b	-0.29792294
55	0xbeabadd0	-0.33531046
56	0xbda7d85f	-0.081955664
57	0x3d51d20a	0.0512257
58	0xbf2b0a54	-0.66812634
59	0xbd5fd491	-0.05464608
60	0x3e05459b	0.13014834
61	0xbe2b9969	-0.1675774
62	0x3b669e39	0.0035189523
63	0x3e97c325	0.2964107
64	0xbcf71127	-0.030159546
65	0xbdbc354e	-0.091898546
66	0xbe298263	-0.16553645
67	0x3e0b225d	0.13587327
68	0xbf145cf5	-0.5795434
69	0x3e46c45b	0.19410841
70	0x3e1719cb	0.14755933
71	0xbe39734f	-0.18110393
72	0x3e424e2f	0.18975137
73	0x3d96d927	0.07365637
74	0xbe25c9af	-0.16190217
75	0x3d56e758	0.05246672
76	0x3f1f9f7b	0.6235272
77	0x3e27c242	0.16382697
78	0xbe8e1b9e	-0.27755445
79	0x3d87a839	0.06623883
80	0xbdfa4dc7	-0.12221866
81	0xbc25904d	-0.010105205
82	0x3f180bea	0.5939318
83	0xbe8ecce5	-0.27890697
84	0x3b74d426	0.0037357896
85	0x3b332c0f	0.0027339493
86	0x3e29a96a	0.16568533
87	0xbe52aa8b	-0.2057287
88	0x3df61691	0.12016023
89	0xbdf80d4a	-0.1211191
90	0x3ded2627	0.115795426
91	0x3d6dc6ce	0.058050923
92	0x3db4ed18	0.088342845
93	0x3e7334a8	0.23750556
94	0x3f48ae7f	0.7839126
95	0xbe26382b	-0.16232364
96	0x3e5f973a	0.21835032
97	0xbea14ce5	-0.31503978
98	0xbe7d8fd6	-0.247619
99	0x3e4a3c58	0.19749582
100	0x3d6b2504	0.057408348
101	0xbf1c48bd	-0.6104849
102	0xbe62dbd1	-0.22154166
103	0xbda51696	-0.080609486
104	0x3e9c8bc4	0.30575383
105	0xbe5656fd	-0.20931621
106	0x3eb537b4	0.3539406
107	0x3c85a8ed	0.016315902
108	0xbd4714d7	-0.04860386
109	0xbda38b47	-0.079855494
110	0x3e67e664	0.22646481
111	0xbeecf15e	-0.462779
112	0x3e899432	0.26870877
113	0x3d9101d6	0.07080428
114	0x3d70ebe8	0.058818728
115	0x3e8aba45	0.27095237
116	0xbddc9f64	-0.10772589
117	0x3e0f12de	0.13972041
118	0xbd7cb2a6	-0.06169381
119	0xbf1a2145	-0.60207015
120	0xbd265ba8	-0.040614754
121	0xbdb1f084	-0.08688453
122	0xbb8be98b	-0.004269784
123	0xbe964fda	-0.29357797
124	0x3de4a4b6	0.111642286
125	0xbcf7f9d6	-0.030270498
126	0x3f075012	0.5285655
127	0x3dfa4c39	0.122215696
128	0x3b86820c	0.0041048583
129	0xbdbc89b6	-0.09205954
130	0x3e4ddbf0	0.20103431
131	0xbd929d66	-0.071589276
132	0xbf3c9526	-0.7366508
133	0xbed4cdd4	-0.41563284
134	0x3d0ed3b8	0.03486988
135	0xbe2b6e47	-0.16741286
136	0x3e408bd7	0.18803345
137	0xbcc539b5	-0.024075368
138	0xbd7d88a4	-0.06189789
139	0x3e9d14c9	0.3067992
140	0x3e939a4c	0.28828657
141	0x3d5e5431	0.05427951
142	0x3d412479	0.047153924
143	0x3e2983c5	0.16554172
144	0xbe671456	-0.22566351
145	0x3e147f73	0.14501743
146	0x3f03115b	0.5119836
147	0x3e807766	0.25091094
148	0x3cfd8864	0.030948825
149	0x3eba80ea	0.3642648
150	0x3ca20287	0.019776596
151	0xbd563afe	-0.052302353
152	0x3ecb36c3	0.39690217
153	0x3cd0b71a	0.025477935
154	0xbcd26fca	-0.02568807
155	0x3e1ab986	0.15109834
156	0xbd21cc9d	-0.039501775
157	0x3e720123	0.23633246
158	0x3ec6c60d	0.38822976
159	0xbec96aca	-0.39339286
160	0x3ec4c2fb	0.38430008
161	0xbeccecf9	-0.40024546
162	0x3c69b9e1	0.014265508
163	0x3df4c8e9	0.11952383
164	0x3da61bd0	0.081107736
165	0xbef9ddef	-0.48802134
166	0xbee84245	-0.4536306
167	0x3eac72a1	0.33681205
168	0x3c556a1f	0.0130257895
169	0xbd24b4e9	-0.040211592
170	0x3e58b3c8	0.21162331
171	0x3e682447	0.22670089
172	0x3ee18c7c	0.44052494
173	0xbe803d9b	-0.25047
174	0x3ea1f8dc	0.31635177
175	0x3f12eb35	0.5739015
176	0x3e11abcb	0.1422569
177	0xbcece2c3	-0.028916722
178	0x3edbf95d	0.42963687
179	0x3c95c23e	0.018281098
180	0x3e1b3130	0.15155482
181	0x3dd3b3d1	0.10337032
182	0xbe8e229a	-0.27760774
183	0xbf35775a	-0.7088524
184	0x3ce3458c	0.027743123
185	0xbd303394	-0.04301794
186	0xbee5b79d	-0.44866648
187	0x3dc4297f	0.09578227
188	0x3f002a1b	0.5006425
189	0xbdec6e23	-0.115444444
190	0x3ede5200	0.43421936
191	0xbeb207ee	-0.34771675
192	0xbed71eac	-0.42015588
193	0x3dca5e2a	0.098812416
194	0x3e1d8c91	0.15385653
195	0xbe2ed52f	-0.1707351
196	0xbedf287d	-0.43585578
197	0xbd911d20	-0.07085633
198	0x3e4e0e2b	0.20122592
199	0x3ea9de0c	0.3317722
200	0xbe88ecaa	-0.2674306
201	0x3e243b04	0.16038138
202	0xbdf6925f	-0.12039637
203	0x3e64e85b	0.22354262
204	0x3e25c79c	0.16189426
205	0xbed5377e	-0.416439
206	0xbece2f9c	-0.40270698
207	0xbe21ef57	-0.15813957
208	0xbe7e278c	-0.24819773
209	0x3e4ccaa7	0.1999918
210	0x3e512269	0.20423283
211	0x3dc9f125	0.09860448
212	0xbcabdc9b	-0.020979216
213	0x3ec2bf1a	0.38036424
214	0x3dfe5296	0.12418096
215	0xbda9f85a	-0.082993224
216	0x3d82a31c	0.06378767
217	0x3ec4b244	0.38417256
218	0xbde05143	-0.109529994
219	0x3e88be97	0.2670791
220	0xbe3351be	-0.17511651
221	0xbe0df495	-0.13862832
222	0xbe4fae76	-0.20281395
223	0x3e875836	0.26434487
224	0x3e4c68b2	0.19961813
225	0x3e1f3f19	0.15551414
226	0xbdc5f85c	-0.096665114
227	0x3deb18f2	0.11479367
228	0x3da56547	0.08075958
229	0x3d84b31b	0.06479474
230	0xbe4d0293	-0.20020513
231	0xbe0e2013	-0.13879423
232	0xbe6a34d1	-0.2287171
233	0xbed0a6ab	-0.40752158
234	0xbd6fe8e1	-0.0585717
235	0xbe045d0b	-0.12926118
236	0x3dbeb154	0.093111664
237	0xbe95b207	-0.29237387
238	0x3e2fbfd0	0.17163014
239	0xbe095af2	-0.13413599
240	0xbe586f1f	-0.2113614
241	0x3eb4107b	0.35168824
242	0x3d188844	0.037239328
243	0xbe775d03	-0.24156575
244	0xbd286760	-0.04111421
245	0x3dac7a3e	0.08421753
246	0x3babeec2	0.005246968
247	0xbe0e6db1	-0.13909031
248	0x3e2a5801	0.16635133
249	0xbec0ec38	-0.3768022
250	0x3dfbff13	0.12304511
251	0x3d7ca155	0.061677296
252	0xbd1a8248	-0.037721902
253	0x3e8662ff	0.26247403
254	0x3d216820	0.039405942
255	0xbea58771	-0.32329896

affine_layers.1.bias f4 [64]
0	0xbd2d8a45	-0.042368192
1	0xbc7a1eed	-0.015266162
2	0x3d922e28	0.0713771
3	0x3df46d65	0.11934928
4	0x3b9a78c6	0.0047141043
5	0x3de119ab	0.10991224
6	0xbdcfb939	-0.1014275
7	0x3c249a0c	0.010046493
8	0xbe3210fc	-0.17389292
9	0x3d8fc47e	0.070199
10	0xbde188fb	-0.11012455
11	0xbd9079e2	-0.07054497
12	0xbde800d7	-0.11328285
13	0x3d1c657e	0.038182728
14	0xbe0109f5	-0.12601455
15	0x3d3b1e3c	0.04568313
16	0x3d8d4e85	0.06899742
17	0xbdb6a5f7	-0.08918374
18	0xbc8cbbcc	-0.017179392
19	0xbe2e39a2	-0.17014173
20	0x3dcdff2e	0.10058437
21	0x3d633427	0.05546966
22	0x3cb0eb59	0.021596598
23	0x3e0e23f2	0.138809
24	0x3d88b22e	0.0667461
25	0x3cdf10fe	0.027229782
26	0x3dc3823e	0.09546326
27	0xbe12a95f	-0.14322422
28	0x3de920ab	0.11383184
29	0x3d3343c9	0.043765817
30	0x3d6d0c85	0.057873268
31	0x3e22a6d0	0.15883946
32	0xbd047ba6	-0.032344483
33	0xbda0a8ee	-0.07844721
34	0xbdd6f457	-0.10495823
35	0x3cd577d7	0.02605812
36	0x3c984ac1	0.018590333
37	0xbdd81b6a	-0.10552104
38	0xbd75ccdf	-0.060009833
39	0xbe0ffa90	-0.14060426
40	0xbe0ab672	-0.1354616
41	0x3d1962b1	0.037447635
42	0xbdc36f33	-0.09542694
43	0xbcb872a1	-0.022515597
44	0xbddec797	-0.108779125
45	0xbd56dfee	-0.05245965
46	0xbd577c32	-0.052608676
47	0x3db70258	0.08935994
48	0xbd780da9	-0.060559902
49	0xbe1cf244	-0.15326792
50	0xbdc3a136	-0.09552233
51	0x3d2d59d6	0.042322002
52	0x3d6001ed	0.054689337
53	0x3e22e60b	0.15908067
54	0x3d56ba27	0.052423622
55	0xbc8b07a7	-0.016971422
56	0x3e3124fd	0.17299266
57	0xbe0f16dc	-0.13973564
58	0xbd838b0c	-0.064230055
59	0xbd669063	-0.05629004
60	0xbca2cccc	-0.019873045
61	0xbc1bd032	-0.009510087
62	0xbda8b7ae	-0.08238159
63	0x3da4f100	0.080537796

final.weight f4 [1, 64]
0	0xbf5f0bf0	-0.8712759
1	0xbf5fd315	-0.8743146
2	0xbf357ddd	-0.7089518
3	0xbf509eb5	-0.8149217
4	0x3f448d2c	0.7677791
5	0xbf709720	-0.939806
6	0x3f522559	0.8208824
7	0x3f3c5103	0.73561114
8	0x3f42e456	0.76129663
9	0x3f2ef8b1	0.6834822
10	0x3f4f746b	0.81037015
11	0x3f503036	0.81323564
12	0x3f406634	0.7515595
13	0x3f2dcd65	0.6789153
14	0x3f771889	0.9652181
15	0x3f563089	0.8366781
16	0xbf5b0e18	-0.8556838
17	0x3f833734	1.0251222
18	0x3f4f7d57	0.8105063
19	0x3f3db56c	0.7410495
20	0xbf6d7b38	-0.9276614
21	0x3f57abad	0.8424633
22	0x3f545df9	0.8295589
23	0xbf413341	-0.7546883
24	0xbf371dcf	-0.7152986
25	0x3f38cea6	0.7219032
26	0xbf5715dd	-0.84017736
27	0x3f46ba83	0.77628344
28	0xbf3bf694	-0.73423123
29	0xbf50a12b	-0.8149592
30	0xbf32c9dd	-0.6983927
31	0xbf3c547a	-0.735664
32	0x3f5b36eb	0.85630673
33	0x3f3151c4	0.6926539
34	0x3f3618e3	0.71131724
35	0x3f58131b	0.8440415
36	0xbf5a454d	-0.85261995
37	0x3f46281a	0.7740494
38	0x3f4eb974	0.8075173
39	0x3f8188b7	1.0119847
40	0x3f5e0803	0.86730975
41	0x3f532bbc	0.8248861
42	0x3f5c2974	0.8600075
43	0xbf5246b4	-0.82139134
44	0x3f5c87f0	0.86144924
45	0xbf51c056	-0.81934106
46	0x3f6a68ff	0.9156646
47	0x3f459665	0.7718261
48	0xbf58f625	-0.84750587
49	0x3f380ce0	0.71894646
50	0x3f33c1b1	0.70217425
51	0x3f4533a0	0.770319
52	0xbf4d73c6	-0.8025478
53	0xbf3359bd	-0.70058805
54	0xbf4ce1b3	-0.8003189
55	0x3f3f9df2	0.7485038
56	0xbf4dde9b	-0.80417794
57	0x3f38e72e	0.7222775
58	0x3f44c45f	0.7686214
59	0xbf378b02	-0.71696484
60	0xbf4e57fb	-0.80603
61	0x3f391ec3	0.72312564
62	0x3f4e6306	0.8061985
63	0xbf441d39	-0.7660709

log_stdev f4 [10]
0	0x3e2eae36	0.17058644
1	0xbc5c069e	-0.013429312
2	0xbfb53250	-1.4155979
3	0xbfb37f86	-1.4023292
4	0xbfaffae2	-1.3748438
5	0xbfa0a910	-1.2551594
6	0xbfa3d7b6	-1.2800205
7	0xbfa0d8f9	-1.2566215
8	0xbf63a5cd	-0.88924867
9	0xbf058541	-0.52156454

affine_layers.0.weight f4 [64, 107]
0	0xbdf5ea8b	-0.12007626
1	0xbd560335	-0.052249152
2	0xbe7830bb	-0.24237339
3	0x3a05ff5e	0.00051116
4	0x3d3eb09c	0.046555147
5	0xbe39e9cc	-0.18155593
6	0x3d4d26f3	0.050085973
7	0x3e4779ed	0.19480105
8	0xbda8e382	-0.08246519
9	0x3d204a63	0.03913344
10	0xbdd251cb	-0.10269507
11	0x3d526e52	0.05137474
12	0xbe9a064e	-0.30082935
13	0xbe28cd30	-0.16484523
14	0x3ea4cb73	0.3218647
15	0x3dab5227	0.08365279
16	0x3da5291a	0.0806448
17	0x3e1a9c40	0.15098667
18	0x3dbfffb1	0.09374941
19	0x3dd59643	0.10429051
20	0xbe7a48bb	-0.24441807
21	0x3e55b5e5	0.20870169
22	0x3e0788ad	0.13235731
23	0x3dbabcd9	0.09118051
24	0xbeb058ca	-0.3444274
25	0x3d72d2be	0.05928301
26	0xbcdb8b81	-0.02679992
27	0x3e8a4031	0.270021
28	0xbdadc49e	-0.084847674
29	0xbd08e377	-0.033420052
30	0x3e1d6a86	0.15372667
31	0xbcad102f	-0.021125881
32	0xbda196c8	-0.07890087
33	0x3da6a9cb	0.08137854
34	0xbd129b61	-0.035792712
35	0xbd0893b0	-0.03334397
36	0xbd225f8e	-0.03964191
37	0xbae0fcfb	-0.0017165238
38	0x3d57bb2b	0.05266873
39	0xbdfd6ea1	-0.123746164
40	0x3da0127e	0.07816027
41	0xbcc8f29a	-0.024529744
42	0x3e1b5a18	0.15171087
43	0xbe00f879	-0.12594785
44	0x3ea01a5e	0.31270117
45	0xbdf27efe	-0.11840628
46	0x3de5db28	0.11223441
47	0x3d8fbd0d	0.070184804
48	0xbe701bb7	-0.23448072
49	0x3e0f42ec	0.13990372
50	0xbe5c91d2	-0.21540001
51	0x3c553806	0.013013845
52	0x3d9c96fa	0.07645984
53	0x3e1125ca	0.14174572
54	0x3e1a77b6	0.15084729
55	0xbd1d89f0	-0.038461626
56	0x3e254604	0.1613999
57	0xbdbe6d19	-0.092981525
58	0x3e52df25	0.20592935
59	0xbd05eab9	-0.032694552
60	0xbe9ac545	-0.3022863
61	0xbcfd3f4d	-0.030913973
62	0xbe4be19e	-0.19910285
63	0x3d8d1bb4	0.068900496
64	0xbda09f72	-0.07842912
65	0x3dab2485	0.08356575
66	0xbd982f29	-0.0743087
67	0xbe006677	-0.12539087
68	0x3dc41643	0.095745586
69	0x3de2c156	0.11072032
70	0xbdfaf7ee	-0.1225432
71	0xbde3159f	-0.11088108
72	0x3dedb855	0.11607424
73	0x3e320e65	0.17388304
74	0xbe26a781	-0.16274835
75	0x3dc8ffc0	0.098144054
76	0x3ce364f4	0.0277581
77	0x3ccd3bed	0.025052989
78	0x3e1fea80	0.15616798
79	0x3d43886f	0.047737535
80	0x3dcf02a7	0.10107928
81	0x39a82465	0.00032070573
82	0xbc834d63	-0.016028112
83	0x3e0f32d1	0.13984229
84	0x3df38236	0.1189007
85	0xbe4382ca	-0.19092861
86	0xbe479b6b	-0.19492881
87	0xbe8fb05b	-0.28064236
88	0xbe0f0045	-0.13964947
89	0x391e3169	0.00015086461
90	0x3deafb4f	0.114737146
91	0x3ddaf129	0.10690529
92	0x3c83dcc3	0.016096478
93	0xbd890e5a	-0.066921905
94	0x3c045b02	0.008078339
95	0x3da53e62	0.08068539
96	0xbe0b3470	-0.13594222
97	0x3c005980	0.007833838
98	0xbe0125b5	-0.1261204
99	0xbdb77f72	-0.08959855
100	0x3e7a9dcb	0.24474256
101	0xbd7721f5	-0.06033512
102	0xbd4be9c0	-0.04978347
103	0xbc8416ec	-0.016124211
104	0x3eece173	0.46265754
105	0x3d33e05a	0.04391513
106	0x3e7927aa	0.24331537
107	0xbdafa968	-0.085772336
108	0xbd04121e	-0.03224384
109	0x3cac8ea1	0.021064105
110	0x3de83066	0.11337356
111	0x3e2a5a0d	0.16635914
112	0xbe136601	-0.1439438
113	0x3ca9dd28	0.020735338
114	0x3da16f5d	0.07882569
115	0xbdb50aa7	-0.088399224
116	0x3e6a8ae9	0.22904553
117	0x3dcffaff	0.101552956
118	0xbd591b76	-0.053004704
119	0xbe366b76	-0.1781443
120	0x3e886934	0.26642764
121	0xbd92d22f	-0.071689956
122	0xbb725085	-0.0036974263
123	0x3e0eda51	0.13950469
124	0x3ea5f69e	0.32414716
125	0xbe2f4590	-0.1711638
126	0x3ca9e3e4	0.02073855
127	0x3e13e6ef	0.14443563
128	0x3deeebfe	0.11666106
129	0xbdc1c545	-0.09461454
130	0x3e310529	0.17287125
131	0x3ad3b543	0.0016152043
132	0x3d40e6c5	0.04709508
133	0x3d6b57ec	0.057456896
134	0xbdd93d68	-0.106074154
135	0x3d331dcc	0.04372959
136	0x3dcf3dff	0.10119247
137	0xbc0c15b4	-0.008550096
138	0x3e66393b	0.22482769
139	0x3e291dde	0.165153
140	0x3d0d5ee8	0.034514338
141	0xbd361ef0	-0.044463098
142	0x3e996e6e	0.29967064
143	0xba866171	-0.0010252428
144	0xbe2fbf62	-0.1716285
145	0xbde59420	-0.11209893
146	0x3da98c7a	0.08278747
147	0x3d6a1592	0.057149477
148	0x3e7db690	0.24776673
149	0x3d48c732	0.049018092
150	0xbc086eb3	-0.008327174
151	0x3e4a1128	0.19733107
152	0xbb8ee7ae	-0.0043611145
153	0x3d6cc450	0.057804406
154	0xbd15d588	-0.036580592
155	0xbe1c0f83	-0.15240292
156	0x3dfd7bdb	0.12377139
157	0x3d1fd356	0.039019905
158	0xbe014021	-0.1262212
159	0xbe4e87e4	-0.20169026
160	0xbe777bb2	-0.2416828
161	0x3d043ae0	0.03228271
162	0x3d26338c	0.040576503
163	0x3dc029f5	0.09383003
164	0xbd95039b	-0.07276078
165	0xbc1ce165	-0.009575223
166	0xbb2a647f	-0.0025999842
167	0x3e809873	0.2511631
168	0x3d89031f	0.066900484
169	0x3d8f9c59	0.07012243
170	0x3dc135f3	0.09434118
171	0xbdc37de7	-0.09545498
172	0xbe9bf506	-0.30460376
173	0xbefc3fef	-0.49267527
174	0x3d8b60d6	0.06805579
175	0xbe1dec3e	-0.1542215
176	0xbd72d458	-0.059284538
177	0x3b4ecbee	0.0031554657
178	0xbe746892	-0.23868015
179	0xbe413f30	-0.1887176
180	0x3de0fa02	0.10985185
181	0xbe5f3a57	-0.21799599
182	0xbdf7b4d2	-0.120950356
183	0xbd9885ec	-0.074474186
184	0x3ca9faa5	0.0207494
185	0x3cb9e192	0.022690568
186	0xbe533486	-0.20625505
187	0xbc9c35cc	-0.019068621
188	0xbe903b07	-0.28170034
189	0x3e1e8640	0.154809
190	0x3d1f8d7f	0.0389533
191	0xbdbe7db3	-0.09301319
192	0xbd795ff9	-0.060882542
193	0x3e1eed4f	0.15520214
194	0x3e0bdd81	0.13658716
195	0x3dce97fe	0.10087584
196	0xbe247a06	-0.16062173
197	0x3dfa654b	0.12226351
198	0xbde35f4f	-0.11102163
199	0xbe04619b	-0.12927859
200	0xbe7b733b	-0.24555676
201	0xbd2362bf	-0.039889093
202	0x3d9aa9d3	0.07551923
203	0xbe064f0e	-0.13116094
204	0x3dfaabd2	0.122398034
205	0xbdb681cc	-0.089114755
206	0x3d27c179	0.040955994
207	0x3d8d7c4b	0.069084726
208	0xbd9e96b0	-0.07743585
209	0xbd299881	-0.041405205
210	0x3ce5a496	0.028032582
211	0xbd9b1bb6	-0.07573645
212	0xbe6e9dda	-0.23302403
213	0xbe7f5861	-0.24936058
214	0x3d9bfe25	0.076168336
215	0xbc6e5f77	-0.014549128
216	0x3db81c06	0.0898972
217	0x3e9001c0	0.28126335
218	0xbde87a35	-0.11351434
219	0xbe04d1d6	-0.12970671
220	0x3d34d503	0.044148456
221	0xbe1b34e6	-0.15156898
222	0xbda6100a	-0.08108528
223	0xbe53f673	-0.20699482
224	0xbc5a439c	-0.013321783
225	0x3c9e6e02	0.019339565
226	0xbd97aa8d	-0.07405577
227	0xbc6a6b6b	-0.014307837
228	0x3d9430a9	0.07235844
229	0x3b91927d	0.0044425116
230	0x3da0500c	0.07827768
231	0xbdd3f409	-0.103492804
232	0xbd602827	-0.054725792
233	0xbddd92c6	-0.108190104
234	0x3de91746	0.11381392
235	0xbe3f8b19	-0.18705405
236	0x3d188b6d	0.03724234
237	0xbd179a12	-0.037012167
238	0xbdf8e7e8	-0.121536076
239	0xbe34938f	-0.17634414
240	0xbca21d7c	-0.01978945
241	0x3e201750	0.15633893
242	0x3d91a196	0.07110898
243	0xbe9cd363	-0.30630025
244	0xbdd668f6	-0.104692385
245	0x3dfa0aec	0.122091144
246	0x3e30e30d	0.17274113
247	0x3e29dd0e	0.16588232
248	0xbd873df2	-0.06603612
249	0x3ddf81e1	0.10913444
250	0x3e2d4387	0.16920291
251	0x3e3f6c6e	0.18693706
252	0x3e11068b	0.14162652
253	0xbe13223c	-0.14368528
254	0xbd296d15	-0.041363794
255	0xbd982bea	-0.07430251

affine_layers.0.bias f4 [64]
0	0xbbddf94a	-0.0067741023
1	0xbc05bccb	-0.0081626875
2	0xbc7ea3e0	-0.0155420005
3	0x3cbb48b6	0.02286182
4	0x3c70689a	0.014673376
5	0xba0a4985	-0.00052752375
6	0x3ca0c837	0.01962672
7	0xbbe19849	-0.006884609
8	0x3c8019c3	0.015637284
9	0x3b0c3e8a	0.002139958
10	0xbc2f3114	-0.0106928535
11	0xbd06b84d	-0.032890607
12	0x3b866283	0.004101099
13	0x3ccb4d5b	0.02481716
14	0xba57d9ea	-0.0008234071
15	0x392c4c39	0.00016431593
16	0x3c0b4299	0.008499765
17	0xbaa2725d	-0.0012393702
18	0x3cc25f89	0.023727195
19	0x3b26f531	0.0025475735
20	0x3c9aff2c	0.018920504
21	0xbc396b7a	-0.011317128
22	0xbc41773c	-0.011808213
23	0xbbd2123c	-0.006410865
24	0xbcf2afb2	-0.029624794
25	0xbc508d86	-0.012729054
26	0x3ccfc71b	0.025363496
27	0x3b8b67ab	0.0042543015
28	0x3c8d07ae	0.017215576
29	0x3c55edc7	0.013057179
30	0xbc690a56	-0.014223656
31	0xbc1d6912	-0.00960757
32	0xbd0a50ad	-0.033768345
33	0x3b0c5141	0.0021410736
34	0xbc9f4f0c	-0.019446872
35	0xbb3928cb	-0.0028253074
36	0x3bee563a	0.0072734626
37	0x3bb4c466	0.0055165766
38	0x3aaa8008	0.0013008127
39	0x3b5b1c1d	0.0033433505
40	0xbc3ea885	-0.011636858
41	0x3ccb4332	0.024812315
42	0x3bafb3b4	0.0053619985
43	0x3cec06a2	0.028811757
44	0xbc281ee8	-0.010261275
45	0xbc309242	-0.010777058
46	0x3c7dfb01	0.0155017385
47	0x3c38ab33	0.011271286
48	0x3b349999	0.0027557372
49	0x3d36f9c5	0.044671793
50	0xbc1bc523	-0.00950745
51	0x3c535a21	0.012899906
52	0x3b4a910d	0.003090921
53	0xbd04a1f9	-0.03238103
54	0x3ca24f9d	0.019813353
55	0x3bb9144b	0.005648171
56	0x3d0e58b9	0.03475258
57	0xbae8a7cc	-0.0017750203
58	0x3d214955	0.039376575
59	0x3c5c6ddc	0.013453927
60	0x3c8087c7	0.015689744
61	0xbbcb6e02	-0.0062081823
62	0xbc8b3a81	-0.01699567
63	0xbcb89131	-0.02253017

affine_layers.1.weight f4 [64, 64]
0	0xbe9e5e86	-0.3093149
1	0xbe5aba72	-0.21360186
2	0xbd359078	-0.04432723
3	0xbe56cf2b	-0.20977466
4	0xbd5c62c5	-0.05380513
5	0xbe5ce594	-0.21571952
6	0x3e8a9f72	0.27074772
7	0xbe7dc47c	-0.24781984
8	0x3eebcee3	0.4605628
9	0xbdbda8b5	-0.09260694
10	0xbebf6c4b	-0.37387308
11	0xbe11cfd0	-0.1423943
12	0x3e765251	0.24054839
13	0x3d080abd	0.033213366
14	0xbe870189	-0.2636836
15	0xbe6c63af	-0.23084901
16	0xbd875db8	-0.06609672
17	0xbdfb43d5	-0.12268797
18	0x3d9c4599	0.07630462
19	0x3db476a8	0.088116944
20	0xbe27af9b	-0.16375582
21	0x3d1ff6fd	0.039053906
22	0xbe17dda6	-0.14830646
23	0xbe6d0dad	-0.23149748
24	0x3eb0ebf3	0.34555015
25	0x3d97d649	0.074139185
26	0xbdf4b093	-0.11947741
27	0xbd58ef11	-0.052962366
28	0x3d5ee8d1	0.05442125
29	0xbeaf583f	-0.34247014
30	0x3d93e689	0.072217055
31	0xbe155e55	-0.14586766
32	0xbb3edfa7	-0.0029125006
33	0x3d06499c	0.032785043
34	0xbebf0263	-0.37306508
35	0xbd07701d	-0.033065904
36	0xbe2f9c13	-0.17149381
37	0x3c5be4bb	0.013421233
38	0x3caf56e4	0.021403737
39	0xbda3c6f4	-0.07996932
40	0x3eb9ad7d	0.36265174
41	0x3e4176c1	0.18892957
42	0x3e6124f6	0.21986756
43	0xbe527986	-0.2055417
44	0x3db778c5	0.08958582
45	0x3d9059c1	0.07048369
46	0x3cdf5619	0.027262734
47	0x3d144c3b	0.03620551
48	0xbdc8addd	-0.09798787
49	0x3e9173c1	0.28408626
50	0xbe144ffe	-0.1448364
51	0xbe1c543d	-0.1526651
52	0xbdd90c0a	-0.105979994
53	0x3ebb26bc	0.3655299
54	0xbeab8d94	-0.33506453
55	0x3d4c05c9	0.049810205
56	0xbe9608f0	-0.29303694
57	0xbe3dfe04	-0.1855393
58	0xbe0a2b7f	-0.13493155
59	0xbe05b3a5	-0.1305681
60	0xbd620960	-0.055184722
61	0xbe751511	-0.23933817
62	0xbd8318d0	-0.06401217
63	0x3decd6b3	0.11564388
64	0x3e42ad44	0.19011408
65	0x3d8df415	0.069313206
66	0xbdbc35b9	-0.09189934
67	0x3d685504	0.056721702
68	0xbe728316	-0.23682818
69	0x3e8cc9bd	0.27497664
70	0xbcdf46ed	-0.0272555
71	0xbe626a81	-0.2211094
72	0xbdc9a4ba	-0.09845872
73	0x3db6bc4e	0.08922635
74	0xbca56d7f	-0.020193813
75	0xbdc6bcb0	-0.09703958
76	0x3e1875cd	0.14888687
77	0x3b5a78cc	0.003333616
78	0xbe31214a	-0.17297855
79	0xbeb66a64	-0.35628045
80	0x3e434cb5	0.1907223
81	0x3e69c50d	0.22829075
82	0x3eab89b0	0.33503485
83	0xbd755ea2	-0.059904702
84	0xbdf6a549	-0.120432444
85	0x3eca3e62	0.3950072
86	0xbd989f85	-0.07452301
87	0xbd1ec61e	-0.038763158
88	0x3e55ac57	0.20866524
89	0x3e91dcb3	0.28488693
90	0xbe673535	-0.2257889
91	0xbe60e723	-0.21963172
92	0x3e1cf4c7	0.1532775
93	0x3e61512c	0.22003621
94	0x3e611026	0.21978816
95	0xbe73e2a2	-0.23816922
96	0x3e448bb5	0.19193919
97	0xbcdbf0ea	-0.026848275
98	0x3d9fe6e8	0.07807714
99	0x3d3520d8	0.044220775
100	0x3e2dc6dd	0.16970392
101	0x3e3f1fe7	0.18664514
102	0x3ca06151	0.019577654
103	0x3d261091	0.040543143
104	0xbddd0c78	-0.10793394
105	0xbe69440b	-0.22779863
106	0xbe4546e2	-0.19265321
107	0xbea5fce9	-0.32419518
108	0x3e6c75de	0.23091838
109	0xbec6c6b6	-0.3882348
110	0x3e493024	0.1964727
111	0xbd701175	-0.0586104
112	0xbeff507c	-0.49866092
113	0xbe03bd50	-0.12865186
114	0x3e5802f5	0.21094878
115	0xbe750042	-0.2392588
116	0x3c318c9c	0.010836747
117	0x3e448a77	0.19193445
118	0xbd0039cb	-0.031305116
119	0xbe0d6a69	-0.13810124
120	0xbd0ea9b1	-0.0348298
121	0x3cd25438	0.025674924
122	0xbe6ddfae	-0.23229858
123	0x3e193873	0.1496294
124	0x3eca53b1	0.39516976
125	0x3ea8f715	0.3300101
126	0xbe437b1d	-0.19089933
127	0xbddda7c4	-0.108230144
128	0x3db19574	0.08671084
129	0x3d3ce6fc	0.04611872
130	0x3dbc55de	0.09196065
131	0xbd851798	-0.06498641
132	0x3d95f008	0.07321173
133	0xbe6b6fff	-0.22991942
134	0x3eab2caf	0.33432528
135	0x3bde805a	0.006790203
136	0x3df25912	0.11833395
137	0x3d991403	0.0747452
138	0xbdf89af8	-0.12138933
139	0x3eac2c75	0.33627668
140	0xbde8017c	-0.11328408
141	0x3dbe833f	0.09302377
142	0x3e9b5156	0.30335492
143	0x3e27750c	0.16353244
144	0x3e9253b0	0.28579473
145	0x3e3d541a	0.18489113
146	0xbde481e7	-0.111575894
147	0xbe2734d0	-0.1632874
148	0xbe72fc35	-0.23729022
149	0x3ec56986	0.3855707
150	0x3dbef6e1	0.09324432
151	0x3a6f54d9	0.000912977
152	0xbbf95d1f	-0.007609978
153	0x3e8fa53b	0.28055748
154	0xbe76d9df	-0.24106549
155	0xbe52e852	-0.20596436
156	0xbe47a400	-0.19496155
157	0x3cfb2faa	0.030662376
158	0xbe8cad5a	-0.27476007
159	0xbe80b5e0	-0.2513876
160	0xbec83155	-0.39100137
161	0xbda86814	-0.08222976
162	0x3d244d99	0.040113065
163	0xbdd56e00	-0.104213715
164	0xbe79946d	-0.24373026
165	0xbccfabca	-0.02535047
166	0x3eb9f9c2	0.36323363
167	0x3eb25672	0.34831578
168	0xbc898f6e	-0.016792025
169	0xbe03bdb8	-0.1286534
170	0xbe5b30f0	-0.21405387
171	0x3e57a2de	0.21058223
172	0xbe9278fc	-0.2860793
173	0xbc927335	-0.0178772
174	0x3e017aca	0.12644497
175	0x3e239282	0.15973857
176	0xbd29936c	-0.041400358
177	0xbd0c41af	-0.03424233
178	0x3e20135e	0.15632388
179	0xbdeb2b86	-0.11482911
180	0x3e433d49	0.19066347
181	0xbdd26dd3	-0.102748536
182	0x3e57b10f	0.21063636
183	0x3e0be6a0	0.13662195
184	0x3c7f140a	0.0155687425
185	0x3e8d953a	0.27652913
186	0x3d9eca5e	0.07753442
187	0xbd527ffd	-0.05139159
188	0xbe0e33fc	-0.13887018
189	0x3dc2a018	0.09503192
190	0xbe4a9112	-0.19781902
191	0x3c7ba060	0.015358061
192	0x3d9e3cf3	0.07726469
193	0x3dd5f907	0.10447889
194	0x3e6bfdc0	0.23046017
195	0xbe3b6767	-0.18301164
196	0xbdb3b6b5	-0.08775083
197	0x3ca58655	0.020205656
198	0xbdadaf47	-0.08480697
199	0x3e061815	0.13095124
200	0xbe333ba3	-0.17503218
201	0x3df78d85	0.120875396
202	0xbea7d9ab	-0.32783255
203	0xbda20ffe	-0.079132065
204	0x3dfd55dd	0.12369893
205	0x3ecc2db5	0.39878622
206	0x3e4b5837	0.1985787
207	0x3e1d0aa9	0.15336098
208	0xbe0bb3cf	-0.1364281
209	0xbdf21553	-0.118204735
210	0x3cb008e9	0.021488624
211	0x3e67d73e	0.22640702
212	0xbd3c210f	-0.045929965
213	0xbf054bb5	-0.52068645
214	0x3d77c865	0.060493845
215	0xbe3a8ff5	-0.18218978
216	0xbd91f589	-0.0712691
217	0xbea059d8	-0.31318545
218	0x3da95ae4	0.08269289
219	0x3d479d66	0.04873409
220	0x3d0a4763	0.033759486
221	0x3e4539b6	0.19260296
222	0xbd809299	-0.06277961
223	0xbd38dc83	-0.04513217
224	0x3c8e88e1	0.017399253
225	0xbe8391ee	-0.25697273
226	0x3e08ce27	0.13359891
227	0xbebee514	-0.37284148
228	0xbe8f5c4e	-0.2800011
229	0x3b440491	0.0029909948
230	0x3e328840	0.17434788
231	0x3f05d428	0.5227685
232	0x3e02dddc	0.12779945
233	0xbd41de55	-0.047331173
234	0xbd2e2b55	-0.042521793
235	0xbdeb3992	-0.1148559
236	0xbe800f1e	-0.25011533
237	0xbe3f5e9b	-0.18688433
238	0x3d9b4d68	0.075831234
239	0xbc13313f	-0.008983909
240	0xbe8801fd	-0.26564017
241	0x3e0bef59	0.13665523
242	0x3e119337	0.14216314
243	0x3e5377b2	0.20651129
244	0x3c794ea8	0.015216507
245	0x3e3ba044	0.18322855
246	0x3ea9a477	0.3313329
247	0xbdcdf718	-0.10056895
248	0xbe22f1d2	-0.1591256
249	0x3d689780	0.056785107
250	0xbe559567	-0.20857774
251	0xbdae2fe5	-0.08505229
252	0x3df1293f	0.11775445
253	0xbd85e72e	-0.06538235
254	0x3e0d82f8	0.13819492
255	0xbc16bb37	-0.009199909

affine_layers.1.bias f4 [64]
0	0x3c9a6b9f	0.018850146
1	0xbd10c443	-0.03534342
2	0x3d83a6ca	0.06428297
3	0x3a8be589	0.0010673265
4	0xbcadc603	-0.021212583
5	0xbd4216fe	-0.04738521
6	0xbc48bc1b	-0.012251879
7	0xbb2ee9c9	-0.002668964
8	0xbdd0a520	-0.10187745
9	0xbc6d62af	-0.01448886
10	0xbc0676b7	-0.008207015
11	0xbd0e0510	-0.034672797
12	0xbc3baa43	-0.011454168
13	0xbc83c7a8	-0.016086414
14	0xbd07dbd3	-0.033168625
15	0xbcd42616	-0.025897067
16	0x3bcc9e46	0.0062444536
17	0x3b110c2a	0.0022132494
18	0xbc2499c7	-0.010046429
19	0x3ba5cb11	0.005059608
20	0xbab15456	-0.0013529162
21	0x3c06e991	0.0082343975
22	0x3c1da721	0.009622366
23	0xbc231cbf	-0.009955584
24	0xbc936ea9	-0.017997103
25	0xba901c39	-0.0010994739
26	0x3cba4ce8	0.02274175
27	0xbd42312a	-0.047410168
28	0x3cf1eb37	0.029531104
29	0xbcac84b4	-0.021059372
30	0x3b6271ec	0.0034552766
31	0xbcacdc84	-0.021101244
32	0xb733d7bd	-1.0719462e-05
33	0xbc57b374	-0.013165344
34	0x3bf0e196	0.0073511107
35	0xbcf459a4	-0.0298279
36	0xbd23b408	-0.039966613
37	0x3b53e2c3	0.0032331205
38	0xbc178cbe	-0.009249864
39	0xbd323a03	-0.043512356
40	0xbd3fd90b	-0.046837848
41	0x3d0f097d	0.034921158
42	0x3cc19f2b	0.023635468
43	0x3b78371c	0.0037874645
44	0x3ccab9f8	0.02474688
45	0x3c2a366a	0.01038895
46	0xbd920164	-0.071291715
47	0x3d295839	0.0413439
48	0xbd358342	-0.04431463
49	0xbd78591e	-0.060631864
50	0xbc99c160	-0.018768966
51	0xbd139a43	-0.036035787
52	0x3cb203b3	0.02173028
53	0xbbdac282	-0.006676019
54	0xbcd7aeeb	-0.026328525
55	0x3c006afc	0.007838007
56	0xbcd451b8	-0.025917873
57	0x3c07c450	0.008286551
58	0xbc7114b1	-0.014714406
59	0xbc4e0970	-0.012575492
60	0xbd3b534f	-0.045733746
61	0x3cde9a5c	0.027173214
62	0x3a8a1b8c	0.0010536774
63	0x3cef8c91	0.029241832

final_mean.weight f4 [10, 64]
0	0xbda22857	-0.079178505
1	0xbd7b26a1	-0.061316136
2	0x3cd3a7e4	0.025836892
3	0x3d1b51ac	0.037919685
4	0x3c99509b	0.018715193
5	0xbd26ec85	-0.040752906
6	0x3dc4fe56	0.09618823
7	0xbd1cf53a	-0.038319804
8	0xbb8f2ec6	-0.0043695895
9	0xbc56a51d	-0.0131008895
10	0xbd7af97c	-0.061273083
11	0xbd60cf97	-0.054885473
12	0xbbbe6612	-0.0058105076
13	0xbd95143e	-0.072792515
14	0x3db50aa2	0.08839919
15	0xbd585d53	-0.052823376
16	0xbc74fbaf	-0.014952584
17	0xbd1a6084	-0.0376897
18	0x3dec5d03	0.11541178
19	0x3d9a2cab	0.07528051
20	0x3d566b20	0.052348256
21	0xbd1334ac	-0.035938904
22	0x3dd7a594	0.105296284
23	0xbd51a862	-0.051185973
24	0xbcbf9b6c	-0.02338954
25	0x3d2db987	0.04241326
26	0x3e028eb3	0.12749748
27	0x3dba2c3d	0.09090469
28	0x3d25ce49	0.040479932
29	0xbcd37ded	-0.025816882
30	0x3dc089fb	0.09401318
31	0x3d5b0d46	0.053479455
32	0x3ce76b2a	0.028249342
33	0xbd7df8fd	-0.06200503
34	0x3d318832	0.043342777
35	0xbd937e11	-0.0720178
36	0xbdaa0e58	-0.08303517
37	0xbda403d7	-0.08008545
38	0xbdde1cce	-0.10845338
39	0xbceb2125	-0.028702328
40	0xbe23f0b0	-0.16009784
41	0x3daf0ec9	0.08547742
42	0xbcb0c7dd	-0.021579677
43	0x3dc6e7e6	0.097122
44	0x3d917072	0.07101525
45	0xbd7afec9	-0.06127814
46	0x3dc87893	0.09788623
47	0x3c86aeda	0.016440798
48	0xbd28d334	-0.041217044
49	0x3c9b2d41	0.018942477
50	0xbd511f60	-0.051055312
51	0xbd6482a5	-0.055788655
52	0x3d3bf501	0.04588795
53	0xbd845a3c	-0.06462523
54	0xbc8b80a1	-0.017029108
55	0x3c70504a	0.01466758
56	0x3d4611e0	0.04835689
57	0x3a90cf0b	0.0011048032
58	0x3c0c8e89	0.008578905
59	0xbcaa7ae4	-0.020810552
60	0x3db38291	0.08765138
61	0x3db55874	0.08854762
62	0xbd2d45af	-0.042302784
63	0x3da2eddb	0.079555236
64	0xbbde5435	-0.0067849406
65	0xbc1f2ae2	-0.009714814
66	0x3d9839b0	0.07432878
67	0x3dd325b6	0.10309927
68	0xbd90543a	-0.07047315
69	0xbd8944d4	-0.06702581
70	0x3c707b38	0.014677815
71	0xbe2461a0	-0.16052866
72	0xbd695730	-0.056967914
73	0x3de1a8e6	0.11018543
74	0xbdb0d66e	-0.08634649
75	0xbe1d8c23	-0.15385489
76	0xbdf1d704	-0.11808589
77	0xbe26e3b6	-0.16297802
78	0x3db30613	0.08741393
79	0xbc8a7ccf	-0.016905217
80	0x3dd05d21	0.10174013
81	0xbd58a2aa	-0.052889504
82	0x3dcdf438	0.10056347
83	0x3dcc8650	0.099865556
84	0xbd1eb05d	-0.038742412
85	0xbdfce4dc	-0.12348339
86	0x3dd7563c	0.10514495
87	0x3d437e87	0.047728088
88	0xbe0941b1	-0.13403966
89	0x3e055ef2	0.130245
90	0x3bc8a094	0.006122658
91	0x3d8924d5	0.06696478
92	0x3d861df3	0.06548681
93	0x3c8a86d7	0.01691
94	0x3e60387a	0.21896544
95	0xbd28d75d	-0.04122101
96	0xbd0ebe92	-0.03484971
97	0xbdfce36f	-0.12348067
98	0xbe0fd9d2	-0.14047936
99	0xbdaaad3b	-0.08333822
100	0xbd8f71a0	-0.07004094
101	0xbc467708	-0.01211334
102	0xbd57fb71	-0.052730028
103	0x3df620fe	0.120180115
104	0xbd019481	-0.031635765
105	0x3dcdd56a	0.10050471
106	0x3c2b8c23	0.010470423
107	0x3b38db7d	0.0028206997
108	0x3cc102c5	0.02356089
109	0xbd81126d	-0.063023426
110	0x3d9f371c	0.07774183
111	0x3deacec9	0.114652224
112	0xbca339e2	-0.019925062
113	0x3e584c4e	0.21122858
114	0xbda449a8	-0.08021861
115	0xbd0385c0	-0.032109976
116	0x3cfc1e34	0.03077612
117	0x3d685f32	0.05673141
118	0xbd13b2d1	-0.036059204
119	0xbdcbbc23	-0.099479936
120	0xbdd27d53	-0.1027781
121	0xbdc0d7b6	-0.094161436
122	0xbc5ec127	-0.013595856
123	0xbdd924ee	-0.10602747
124	0x3dce4d48	0.10073334
125	0x3dfbcc36	0.122948095
126	0xbe10125f	-0.14069508
127	0x3de92f1b	0.11385938
128	0x3d86c886	0.065812156
129	0x3c9481c4	0.018128283
130	0xba4b682e	-0.00077593594
131	0x3ccefb56	0.02526633
132	0x3cb90868	0.022587016
133	0xbd2a38e8	-0.041558176
134	0xbc3cfd7e	-0.011535047
135	0xbc52571f	-0.012838154
136	0x3c69f29e	0.014279036
137	0xbcb6c3fd	-0.022310251
138	0x3c8b543d	0.017007941
139	0xbc2a5bc2	-0.010397853
140	0x3c8a4257	0.016877336
141	0x3ca24136	0.019806486
142	0x3cd580b6	0.02606235
143	0xbc7700a0	-0.015075833
144	0x3b735ca7	0.0037134083
145	0x3d18d443	0.037311804
146	0xbd8a2f22	-0.06747271
147	0xbd4049a9	-0.046945248
148	0xbc4ee982	-0.012628915
149	0xbd250621	-0.040289048
150	0xbd0c9c87	-0.034328964
151	0xbcbc4830	-0.02298364
152	0xbd057d36	-0.032590114
153	0xbcda3fe5	-0.026641795
154	0xbd1c212e	-0.03811758
155	0xbd969bc7	-0.07353931
156	0x3c863f02	0.016387466
157	0xbd6a8e9c	-0.05726491
158	0xbc69334f	-0.014233424
159	0xbc0b3aad	-0.008497876
160	0x3c740ef3	0.014896142
161	0x3d342a03	0.043985378
162	0x3c369379	0.011143559
163	0xbc87019f	-0.016480265
164	0xbcdd83f7	-0.027040465
165	0x3d9dee02	0.07711412
166	0x3c32d0bc	0.010914024
167	0xbcf45894	-0.029827394
168	0x3d67f794	0.056632593
169	0xbc6ada63	-0.014334294
170	0xbd385e4a	-0.045011796
171	0x3cd6f152	0.026238117
172	0x3c062f1e	0.008189945
173	0x3cad6fcb	0.021171471
174	0x3cf44fbd	0.029823178
175	0xbd185d5c	-0.03719841
176	0xbd465124	-0.048417225
177	0xbd2c74b6	-0.04210349
178	0xbabc059d	-0.0014344935
179	0xbc6f614f	-0.0146106025
180	0x3c823cde	0.015898164
181	0x3b4b456b	0.0031016718
182	0x3ca0a8ab	0.019611677
183	0xbc43d915	-0.011953612
184	0x3b3363ce	0.002737272
185	0xbce5a0f1	-0.028030844
186	0xbc407b9a	-0.011748219
187	0x3c856090	0.016281396
188	0xbd4f9d76	-0.050687276
189	0xbd285fcc	-0.041106984
190	0x3d19e75c	0.037574157
191	0xbd7f31bf	-0.0623033
192	0x3ab4483b	0.0013754437
193	0x3d2c8831	0.04212207
194	0xbc8f7cd0	-0.01751557
195	0xbce258ed	-0.027630294
196	0xbc0dd410	-0.008656517
197	0xbc8924f3	-0.016741252
198	0x3c8d6347	0.017259253
199	0x3cec3e9e	0.028838452
200	0xbc05d7ba	-0.008169109
201	0xbd6397e0	-0.05556476
202	0x3cd0c3d6	0.025484007
203	0x3ba40138	0.005005028
204	0x3d842e09	0.06454093
205	0x3d7414af	0.059590038
206	0xbca104a3	-0.019655531
207	0x3d08b3f4	0.03337474
208	0xbca50331	-0.020143123
209	0x3d18830f	0.037234362
210	0xbc2e4dbc	-0.0106386505
211	0xbd67591d	-0.05648147
212	0x39d01edb	0.0003969584
213	0xbc0acbb8	-0.008471422
214	0xbd482577	-0.048863854
215	0x3bc1fb39	0.0059198407
216	0xbc95b685	-0.018275509
217	0xbc6c7771	-0.014432774
218	0x3ca4bb2b	0.02010878
219	0xbcc9a329	-0.024613934
220	0xbb3ff4f0	-0.0029290281
221	0xbc3e5c66	-0.011618709
222	0xbd026bc3	-0.03184105
223	0x3ce1af8b	0.027549526
224	0xbc9849ad	-0.018589819
225	0xbb8331d0	-0.004003741
226	0x3d4c0720	0.049811482
227	0x3cea3332	0.028588865
228	0xbbf4c2c8	-0.007469509
229	0x3d23c48a	0.039982356
230	0x3d14787c	0.036247715
231	0xbd3b53c6	-0.04573419
232	0x3d095572	0.033528753
233	0xbd0f54e3	-0.034993064
234	0xb8fb6c0c	-0.00011988738
235	0x3ce1df88	0.027572408
236	0xbd2ef415	-0.042713244
237	0x3d2c29c4	0.04203202
238	0x3c2fb2f8	0.010723822
239	0xbb7e7224	-0.0038825357
240	0x3d0751bd	0.033036936
241	0xbc1be5f9	-0.009515279
242	0x3caec644	0.021334775
243	0xbc0de2e1	-0.008660049
244	0xbd04ebb8	-0.03245136
245	0xbd212a14	-0.03934677
246	0x3c84c7cc	0.016208552
247	0x3c48f2d9	0.012264931
248	0xbcc6b162	-0.024254505
249	0xbd078e0c	-0.03309445
250	0xbcb99c51	-0.022657545
251	0x3c8c35a2	0.017115418
252	0xbd12908f	-0.035782393
253	0x3ca58c12	0.020208392
254	0x3d62efcb	0.055404466
255	0xbc81ad84	-0.015829809

final_mean.bias f4 [10]
0	0x3d2ba594	0.041905954
1	0x3d19d5e3	0.037557494
2	0x3d55489e	0.052071206
3	0xbc38da78	-0.011282556
4	0xbcd9ce62	-0.026587669
5	0xba337aab	-0.0006846587
6	0xbcec835e	-0.028871235
7	0xba9d09c8	-0.0011981064
8	0x3d86a248	0.065739214
9	0x3d538ca4	0.051647797

exp_avg f4 [64, 107]
0	0x3d5d0cda	0.053967334
1	0x3d50b5b3	0.050954532
2	0x3d1c883c	0.03821586
3	0x3d50b584	0.050954357
4	0x3d1c8805	0.038215656
5	0x3d50b58c	0.050954387
6	0x3d5050f6	0.05085846
7	0x3d1c345a	0.038135864
8	0x3d19d3f0	0.037555635
9	0x3d4dd0fd	0.050248135
10	0x3d20f36f	0.039294656
11	0x3d50345f	0.050831195
12	0x3d16dd75	0.03683229
13	0x3d180bd9	0.037120674
14	0x3d1875a3	0.037221562
15	0x3d180a95	0.037119467
16	0x3d159e06	0.036527656
17	0x3d0f494b	0.034982007
18	0x3d143bbe	0.036189787
19	0x3d407d3f	0.046994444
20	0x3d4312f2	0.04762549
21	0x3d450710	0.04810244
22	0x3d0e98e3	0.034813773
23	0x3d49a50f	0.049229678
24	0x3d45f617	0.048330393
25	0x3d42c5de	0.047551982
26	0x3d157725	0.03649058
27	0x3d45f5b3	0.04833002
28	0x3d42b5a8	0.047536522
29	0x3d1569bd	0.036477793
30	0x3d45e91e	0.04831802
31	0x3d429eb2	0.047514625
32	0x3d410437	0.04712316
33	0x3d470c3f	0.048595663
34	0x3d4451f4	0.04792972
35	0x3d0c582f	0.034263786
36	0x3d0bcbe4	0.034129992
37	0x3d13886f	0.036018785
38	0x3d246df1	0.04014391
39	0x3d137136	0.03599664
40	0x3d100231	0.03515834
41	0x3d3d8303	0.04626752
42	0x3d44541b	0.04793177
43	0x3d4a8d20	0.049450994
44	0x3d3d6d87	0.04624703
45	0x3d443eef	0.04791158
46	0x3d3e327a	0.046434857
47	0x3cfc1354	0.030770935
48	0x3d461da8	0.048368126
49	0x3d34a3d9	0.04410157
50	0x3cfb6c0a	0.030691165
51	0x3d093d6f	0.033505853
52	0x3d157123	0.03648485
53	0x3d15efdd	0.036605705
54	0x3d08d4ac	0.033405945
55	0x3d33fbc9	0.043941293
56	0x3d3177a6	0.043326996
57	0x3d09968b	0.033590835
58	0x3cff812a	0.03118952
59	0x3d3183b9	0.04333851
60	0x3d40f6ae	0.047110252
61	0x3cff9514	0.031199016
62	0x3ceac0b3	0.02865634
63	0x3d4047ed	0.046943594
64	0x3cff79fd	0.031186098
65	0x3cfa896f	0.030583112
66	0x3cc8c99c	0.024510197
67	0x3cff788b	0.031185409
68	0x3d3172b2	0.043322273
69	0x3d08bb16	0.033381544
70	0x3cff7a46	0.031186234
71	0x3d317b36	0.043330394
72	0x3d3cf2c7	0.046129968
73	0x3d17d7d5	0.037071068
74	0x3cfaa335	0.030595401
75	0x3d08bd8d	0.033383895
76	0x3d33f31b	0.043933015
77	0x3d317fa3	0.043334614
78	0x3d3ceb61	0.046122912
79	0x3cff8cd3	0.03119508
80	0x3d323798	0.04351005
81	0x3d099653	0.033590626
82	0x3d0a94fc	0.03383349
83	0x3d28db4f	0.041224774
84	0x3d1d9f58	0.03848204
85	0x3d29a03f	0.04141259
86	0x3d39b0ca	0.045334615
87	0x3d377a47	0.044794347
88	0x3d3e6b05	0.04648878
89	0x3d3b0977	0.045663323
90	0x3cc6c0c1	0.024261834
91	0x3d3ce1b9	0.046113703
92	0x3cabe655	0.020983854
93	0x3d1c9891	0.038231436
94	0x3cbaf821	0.022823395
95	0x3dc0636b	0.093939625
96	0xbb0d8a0d	-0.0021597177
97	0x3d4c1f69	0.049834643
98	0x3d4d552c	0.050130054
99	0x3d14a62b	0.036291283
100	0x3d42c768	0.04755345
101	0x3d2c8987	0.042123344
102	0x3d418207	0.047243144
103	0xbb5544a8	-0.0032542143
104	0xbce0d366	-0.027444553
105	0x3b4ce340	0.0031263381
106	0xbc8544b4	-0.016268112
107	0xb46bced5	-2.1961326e-07
108	0xb467b2b5	-2.1578565e-07
109	0xb42dc5fd	-1.6183908e-07
110	0xb467b28b	-2.1578505e-07
111	0xb42dc5d6	-1.6183853e-07
112	0xb467b29d	-2.157853e-07
113	0xb46759f6	-2.1546279e-07
114	0xb42d8428	-1.6159959e-07
115	0xb42c4370	-1.6043282e-07
116	0xb4607510	-2.0904213e-07
117	0xb42e5a5f	-1.623789e-07
118	0xb4674de0	-2.1541882e-07
119	0xb428c8dd	-1.5719293e-07
120	0xb42a50be	-1.5861858e-07
121	0xb42a9ab3	-1.5888763e-07
122	0xb42a4dc9	-1.5860782e-07
123	0xb42d10b7	-1.6117961e-07
124	0xb426aceb	-1.5522862e-07
125	0xb4274bd4	-1.5580673e-07
126	0xb4596c16	-2.0249021e-07
127	0xb45c7338	-2.0531013e-07
128	0xb45e90dc	-2.072806e-07
129	0xb42295c5	-1.5141912e-07
130	0xb45f35ee	-2.0788113e-07
131	0xb45cebb2	-2.0574842e-07
132	0xb45c8204	-2.0536396e-07
133	0xb42548df	-1.5393333e-07
134	0xb45ceb5c	-2.057472e-07
135	0xb45c7371	-2.0531094e-07
136	0xb4253e22	-1.5389426e-07
137	0xb45ce122	-2.0571e-07
138	0xb45c56dd	-2.0520697e-07
139	0xb45b10a5	-2.040202e-07
140	0xb45d3eba	-2.0605049e-07
141	0xb45b97e1	-2.0451218e-07
142	0xb41fad81	-1.487115e-07
143	0xb41f2609	-1.4821866e-07
144	0xb423ae37	-1.5243937e-07
145	0xb42db560	-1.6177864e-07
146	0xb4239cf0	-1.5237651e-07
147	0xb4218f54	-1.5046436e-07
148	0xb458338f	-2.0135325e-07
149	0xb45adedc	-2.0383908e-07
150	0xb45de3aa	-2.0665053e-07
151	0xb4582232	-2.0129008e-07
152	0xb45acdc0	-2.0377684e-07
153	0xb457aeb7	-2.0086996e-07
154	0xb415eeab	-1.3963533e-07
155	0xb4594bc7	-2.0237268e-07
156	0xb44fe4a3	-1.9361555e-07
157	0xb41595e2	-1.3931233e-07
158	0xb41a6ed0	-1.4382681e-07
159	0xb4259043	-1.5419305e-07
160	0xb43657ad	-1.6981967e-07
161	0xb41a02ad	-1.4343341e-07
162	0xb44f30b2	-1.9296093e-07
163	0xb44f0da9	-1.9283347e-07
164	0xb41a060b	-1.4344566e-07
165	0xb415359f	-1.3896214e-07
166	0xb44f1b5d	-1.9288332e-07
167	0xb45012b6	-1.9378317e-07
168	0xb41540de	-1.3900305e-07
169	0xb41b4ddb	-1.4463824e-07
170	0xb455b591	-1.9903224e-07
171	0xb4153134	-1.3894606e-07
172	0xb41519db	-1.3886113e-07
173	0xb409631d	-1.2795176e-07
174	0xb4153050	-1.3894282e-07
175	0xb44f0742	-1.9281018e-07
176	0xb419e65c	-1.433304e-07
177	0xb415315c	-1.3894663e-07
178	0xb44f12ab	-1.9285169e-07
179	0xb453df36	-1.973211e-07
180	0xb43b4955	-1.744241e-07
181	0xb4152a35	-1.3892061e-07
182	0xb419e97a	-1.4334174e-07
183	0xb44f286c	-1.9293083e-07
184	0xb44f1781	-1.9286928e-07
185	0xb453d64f	-1.9728871e-07
186	0xb4153c88	-1.3898728e-07
187	0xb44fdbbe	-1.9358319e-07
188	0xb41acabd	-1.4416123e-07
189	0xb42af1b9	-1.5920422e-07
190	0xb44a90ac	-1.8865347e-07
191	0xb42ecadb	-1.6278811e-07
192	0xb4408d47	-1.793279e-07
193	0xb4507c47	-1.9416721e-07
194	0xb45352ba	-1.9681002e-07
195	0xb4561669	-1.9938456e-07
196	0xb4541aac	-1.9753742e-07
197	0xb414f72c	-1.3873495e-07
198	0xb453cc5d	-1.9725253e-07
199	0xb3f88ebd	-1.1574364e-07
200	0xb43fa3bd	-1.7847829e-07
201	0xb3ff4e3b	-1.1888593e-07
202	0xb4948773	-2.76657e-07
203	0xb40a4793	-1.287829e-07
204	0xb462565d	-2.1079309e-07
205	0xb45f22fb	-2.0781219e-07
206	0xb4227ce5	-1.5132862e-07
207	0xb45ac431	-2.0374206e-07
208	0xb43041f4	-1.6415271e-07
209	0xb459dd6c	-2.0290253e-07
210	0xb2238af8	-9.519447e-09
211	0x32bed3dd	2.2215255e-08
212	0xb2d0a202	-2.428806e-08
213	0x3341f4a6	4.515882e-08
214	0xb522dff4	-6.06756e-07
215	0xb5215985	-6.010744e-07
216	0xb4f2063d	-4.5080552e-07
217	0xb521596f	-6.0107317e-07
218	0xb4f20613	-4.5080432e-07
219	0xb521597a	-6.010738e-07
220	0xb52122cd	-6.0027816e-07
221	0xb4f1b86b	-4.502393e-07
222	0xb4f021e8	-4.4728154e-07
223	0xb51c274f	-5.817173e-07
224	0xb4f2029b	-4.5077908e-07
225	0xb5211e81	-6.002156e-07
226	0xb4ebdd08	-4.3932982e-07
227	0xb4edf8a7	-4.4325608e-07
228	0xb4ee5528	-4.4392914e-07
229	0xb4edf43a	-4.4322388e-07
230	0xb4f9778c	-4.6466846e-07
231	0xb4f656a5	-4.5884113e-07
232	0xb4ea75c8	-4.3671594e-07
233	0xb51885f9	-5.681937e-07
234	0xb51ac7ec	-5.7660395e-07
235	0xb51c022b	-5.8117683e-07
236	0xb4e2cf64	-4.2246677e-07
237	0xb51c3a2e	-5.819919e-07
238	0xb51a5719	-5.7496214e-07
239	0xb519bdce	-5.7273144e-07
240	0xb4e7c721	-4.3171988e-07
241	0xb51a56e8	-5.7495936e-07
242	0xb519b4be	-5.7259956e-07
243	0xb4e7ba89	-4.3162825e-07
244	0xb51a50db	-5.748713e-07
245	0xb519a0c0	-5.7230864e-07
246	0xb518e1de	-5.695309e-07
247	0xb51b15d8	-5.7773786e-07
248	0xb5198f1f	-5.720521e-07
249	0xb4deb7d7	-4.1484483e-07
250	0xb4de0248	-4.1352382e-07
251	0xb4e5dbc4	-4.2814474e-07
252	0xb4f95387	-4.6440638e-07
253	0xb4e5c877	-4.280043e-07
254	0xb4e25093	-4.2154406e-07
255	0xb5172e5d	-5.631935e-07
